all_save.pt (torch, 52069 bytes, 3 tensors)

weight f4 [2048, 4]
0.4463619 -0.34004602 0.07599114 -0.09429136 0.031845666 0.014857324 0.02900568 0.40467587
0.3163192 -0.048197877 -0.045747176 0.24207115 -0.117282994 -0.40143916 0.33165887 0.22685887
0.09796773 -0.35376042 0.0902023 -0.35720512 0.16867693 0.31580034 0.15390185 0.33065447
0.22480044 -0.31221592 -0.049246754 -0.18617469 -0.18467729 0.08099095 -0.16131471 0.042988937
-0.3569178 0.45640865 0.21701664 0.052132726 -0.4656112 -0.2915177 0.33620942 0.007734554
-0.4367856 0.4508935 0.22652097 -0.35756156 0.25017563 0.102638535 0.07245574 -0.12792023
0.48816833 0.21272759 0.51886106 -0.39933097 0.037911363 0.46502492 -0.23157835 0.14237636
0.39045572 0.49129754 0.12577008 -0.045155805 0.32016832 0.24087307 0.38228348 -0.49385926
0.27859402 0.34604037 -0.21829166 -0.15298289 -0.4313848 -0.23967502 0.5130158 0.1991762
0.331362 0.35611352 0.242591 0.021066835 0.17089134 -0.21717231 0.4854349 -0.46140346
-0.35051677 0.3545544 -0.07377757 0.34684083 -0.14070702 -0.45705786 -0.10236918 0.08155264
-0.26410684 -0.32398373 0.28027916 -0.28229296 0.26606053 -0.14618231 -0.45783505 0.30856073
0.31701717 0.35945013 -0.006998162 0.38930583 0.024076845 0.466528 0.18878159 0.08074672
0.28892687 0.34017107 0.091718204 -0.360947 0.112010986 0.46617588 0.2372738 0.37018055
-0.34375092 0.45233926 0.18750302 0.41611204 -0.21493669 -0.093622014 0.28160277 -0.3861661
0.25228345 0.16294603 0.47860968 0.041423522 0.3695666 -0.12842399 0.38235277 0.14377506
0.23941211 -0.31796846 0.15925738 -0.09265028 -0.3488874 0.3918559 -0.18859017 0.40511075
0.34748426 -0.50144637 -0.39272365 -0.41066426 -0.24185832 0.050215486 -0.27275947 0.23928505
0.46572402 -0.1364898 -0.4694366 -0.09523216 -0.12068425 0.4027423 -0.18804674 -0.2701505
-0.33625916 -0.3869123 0.45507646 -0.36359105 -0.4636956 -0.28718278 -0.3091046 0.105295956
0.06212926 0.41804388 0.20919989 -0.38243473 0.25160122 -0.48688373 -0.38327304 -0.19160977
0.124338254 0.24751964 0.18538307 -0.48739913 0.027476367 -0.07406506 0.17686659 0.23173034
-0.044124 -0.46565017 0.46358 -0.34147736 0.13137166 0.46540248 -0.15175702 -0.2897597
-0.45704356 -0.014482289 -0.40431687 0.48773512 0.31355304 0.41553423 -0.47501004 0.44538465
0.33624685 -0.4071478 0.27522337 0.07804104 0.28656778 -0.41356066 -0.33442432 -0.13378274
-0.08934439 0.15210576 0.18073827 -0.4804262 -0.16583505 0.49824974 0.36727005 -0.0011607745
-0.2008228 -0.17340414 0.3751486 0.33556485 0.03845047 -0.16471787 -0.27265418 0.016505435
-0.29727998 0.4455463 0.47349897 -0.31346467 0.03828135 -0.34313548 0.22106734 -0.34354258
-0.1584483 -0.46488228 0.25072688 -0.32143858 -0.33922157 -0.27869585 0.04670774 0.44419768
-0.4068261 0.12246495 -0.35040265 0.42410278 -0.20740587 0.48111027 0.3984145 -0.17578419
0.49049407 -0.34861788 0.20576705 0.20791264 -0.07434845 -0.2137571 0.28425726 -0.40420505
0.2299055 0.16282564 -0.21186382 -0.34134808 0.06661371 0.13326047 -0.40778923 0.31227034
00000000: 8c89 e43e 831a aebe 3ea1 9b3d d41b c1bd
00000010: 9a70 023d 226c 733c 529d ed3c ad31 cf3e
00000020: 97f4 a13e 236b 45bd 6461 3bbd 80e1 773e
00000030: 1132 f0bd 6f89 cdbe 31cf a93e b14d 683e
00000040: 4ea3 c83d 1620 b5be fcbb b83d 97e3 b6be
00000050: a5b9 2c3e 95b0 a13e 7298 1d3e 8b4b a93e
00000060: 1632 663e c4da 9fbe f7b6 49bd 94a4 3ebe
00000070: 0b1c 3dbe 95de a53d af2f 25be 2b15 303d
00000080: eebd b6be 65ae e93e 9c39 5e3e 2089 553d
00000090: 9764 eebe cf41 95be a423 ac3e 2472 fd3b
000000a0: 5da2 dfbe 83db e63e 1df5 673e 4f12 b7be
000000b0: 0517 803e 2734 d23d ad63 943d 85fd 02be
000000c0: 33f1 f93e 43d5 593e 14d4 043f 1c75 ccbe
000000d0: f248 1b3d bf17 ee3e e022 6dbe 1ccb 113e
000000e0: d0e9 c73e 5a8b fb3e dfc9 003e 4bf5 38bd
000000f0: 1aed a33e 6ea7 763e a9ba c33e 1fdb fcbe
00000100: e0a3 8e3e 342c b13e d987 5fbe 8ca7 1cbe
00000110: 78de dcbe 5e6d 75be 0155 033f d9f4 4b3e
00000120: 48a8 a93e 8354 b63e c669 783e 5b94 ac3c
00000130: 24fe 2e3e 6b62 5ebe ec8a f83e 133d ecbe
00000140: ef76 b3be 2888 b53e b218 97bd 1f95 b13e
00000150: 8015 10be 7d03 eabe efa6 d1bd 1205 a73d
00000160: 0339 87be 32e1 a5be c080 8f3e b488 90be
00000170: 1639 883e d1b0 15be 5b69 eabe acfb 9d3e
00000180: 1350 a23e d909 b83e d650 e5bb 1853 c73e
00000190: ce3c c53c c2dc ee3e f64f 413e 895e a53d
000001a0: 39ee 933e e72a ae3e c1d6 bb3d 0cce b8be
000001b0: 0466 e53d 9bae ee3e e7f7 723e 4e88 bd3e
000001c0: 1f00 b0be 0399 e73e cb00 403e a30c d53e
000001d0: 5d18 5cbe e6bc bfbd 3d2e 903e 90b7 c5be
000001e0: 4c2b 813e 53db 263e 540c f53e b6ab 293d
000001f0: d537 bd3e 9481 03be bec3 c33e c539 133e
00000200: 7328 753e c3cc a2be 5e14 233e 6ebf bdbd
00000210: 5fa1 b2be 56a1 c83e c81d 41be ad6a cf3e
00000220: 75e9 b13e ca5e 00bf 1313 c9be 9642 d2be
00000230: b5a9 77be c1ae 4d3d 21a7 8bbe 2407 753e
00000240: 6173 ee3e fbc3 0bbe fe59 f0be 1409 c3bd
00000250: 4e29 f7bd 3d34 ce3e 538f 40be 2b51 8abe
00000260: 292a acbe 5e19 c6be c8ff e83e 9b28 babe
00000270: 8269 edbe 9f09 93be f542 9ebe 68a5 d73d
00000280: 407b 7e3d d909 d63e 7f38 563e 7cce c3be
00000290: e0d1 803e d348 f9be 5d3c c4be 5a35 44be
000002a0: 0ea5 fe3d ca75 7d3e 0fd5 3d3e 618c f9be
000002b0: 1e16 e13c 6caf 97bd 841c 353e b84a 6d3e
000002c0: 5ebb 34bd b369 eebe 5c5a ed3e 1fd6 aebe
000002d0: 4b86 063e 3c49 ee3e 3166 1bbe 625b 94be
000002e0: 9d01 eabe 1f47 6dbc 9f02 cfbe 6bb8 f93e
000002f0: 068a a03e e7c0 d43e 8434 f3be 7509 e43e
00000300: 8c28 ac3e ad75 d0be 14ea 8c3e fbd3 9f3d
00000310: 03b9 923e 39be d3be aa39 abbe 58fe 08be
00000320: 31fa b6bd 9dc1 1b3e 7413 393e 6cfa f5be
00000330: aad0 29be 971a ff3e d20a bc3e 2125 98ba
00000340: 7ea4 4dbe db90 31be 7a13 c03e 28cf ab3e
00000350: 3d7e 1d3d cdab 28be 5499 8bbe 6836 873c
00000360: 1535 98be a51e e43e 756e f23e 717e a0be
00000370: e8cc 1c3d 74af afbe 7a5f 623e d0e4 afbe
00000380: 4540 22be 0d05 eebe 465f 803e 9993 a4be
00000390: 73ae adbe 39b1 8ebe 9d50 3f3d e16d e33e
000003a0: 834b d0be e7ce fa3d fa67 b3be 0024 d93e
000003b0: 3462 54be 1654 f63e fcfc cb3e c500 34be
000003c0: 0a22 fb3e 0b7e b2be 99b4 523e 0de7 543e
000003d0: 0044 98bd 24e3 5abe 2b8a 913e f7f3 cebe
000003e0: 596c 6b3e c4bb 263e d4f2 58be 2dc5 aebe
000003f0: c56c 883d 6f75 083e c0c9 d0be e6e1 9f3e

bias f4 [2048]
0.012788973 0.497596 -0.097168654 0.27368158 0.31293455 -0.44376272 -0.4133824 -0.22195233
-0.187589 0.4400556 0.35354644 -0.23559089 -0.34973633 0.26035306 -0.23110569 -0.243012
-0.013198243 0.16050613 0.2883781 0.4483451 -0.10217582 0.16143686 0.3203479 -0.18183452
0.067692496 -0.30452368 -0.14054231 -0.013292572 0.32424873 0.037441116 0.19331907 -0.16968504
0.050122913 0.10515877 0.50109744 0.0526877 0.11183163 0.23051855 0.4203233 -0.4539286
0.033682033 -0.13963789 0.34727785 -0.23488908 0.4093627 0.31842753 0.34582472 0.51319134
-0.25345266 -0.048956756 0.12697825 -0.37312526 -0.42969936 0.45048493 0.053793076 0.15177558
-0.49462005 0.46442315 -0.11413041 -0.20429134 0.2628337 -0.3878323 0.19367331 -0.14044788
-0.39777672 0.040896885 -0.38031828 -0.22905067 -0.35524163 -0.35380718 -0.0017843435 -0.3253848
0.41918996 -0.052970767 0.39915824 0.42898571 0.41255444 0.47678128 -0.020853816 0.22287
-0.100776 0.3716322 -0.16650687 -0.052848205 0.068730496 -0.21024708 0.38293403 -0.16888177
0.18626662 -0.27713847 -0.12793487 -0.26071572 0.34670958 0.47933438 -0.44697928 -0.10283629
0.12804225 0.48325515 0.0940979 0.34675148 -0.4208669 -0.19083065 -0.19664493 -0.21663094
-0.46777004 0.13704565 0.07244784 -0.22678491 -0.15153256 0.12804808 0.20036697 0.45946196
-0.3080989 0.04004385 -0.42102572 0.35189885 0.48240343 0.25198027 -0.045523006 0.24161695
0.3757441 -0.018534912 -0.43085936 0.086172804 0.28918704 -0.38986182 0.10851411 -0.4099479
-0.21174571 0.37785795 -0.23191231 0.20440769 -0.38575536 0.24432704 0.42400822 0.34883395
0.22194636 -0.09136874 -0.17507052 0.2574206 -0.36406437 -0.35957447 0.076000884 0.10843814
-0.27229574 -0.34344172 -0.064476736 -0.22434247 0.074130826 -0.49565175 -0.029638257 0.044313475
0.1097991 0.48828444 0.024760026 0.020310888 0.07085815 0.4299847 -0.25380024 -0.43702576
0.4544434 -0.2875252 0.5000049 0.16084535 0.11736354 -0.28875536 0.074258186 0.03498447
-0.30853674 0.43202072 -0.10377661 -0.25426123 0.15122761 -0.31543463 0.25565422 -0.080441564
0.31128687 0.31886792 0.30584064 -0.108932294 0.14397234 -0.07459147 -0.3970535 0.35982236
-0.02386276 0.24244668 0.26946837 0.3908285 0.25567028 -0.27091873 0.23098473 -0.4821737
0.29963043 0.31088546 -0.4958006 -0.09409476 -0.25364625 -0.03178265 -0.38669264 0.36880857
-0.13685626 -0.23024194 -0.1261013 -0.13683762 0.11654635 -0.4370543 -0.054242875 -0.14984868
0.34045976 0.4218006 0.43052387 0.3748253 0.34435737 0.4327958 -0.24473265 -0.39512682
0.31511554 -0.23345537 -0.41159448 0.23248734 0.43021306 0.49224272 0.16777405 0.32604596
0.35036403 0.36014256 -0.3901464 0.15320154 -0.12246396 -0.36871916 -0.23723891 -0.46794748
0.1266329 -0.41467866 -0.26734656 0.22011101 -0.44812554 0.3692262 0.16075449 -0.31269816
0.30301437 0.2563169 -0.4595417 -0.37206966 0.49454564 0.15561077 0.4002179 0.42947468
-0.34742004 0.39080545 0.053470414 0.15659627 -0.4329243 -0.0377156 -0.41978276 0.024416743
00000000: d788 513c e7c4 fe3e 5c00 c7bd fe1f 8c3e
00000010: f538 a03e de34 e3be dca6 d3be 7947 63be
00000020: 5517 40be f84e e13e 0a04 b53e bd3e 71be
00000030: a410 b3be ff4c 853e f8a6 6cbe 23d8 78be
00000040: 723d 58bc b85b 243e 4ba6 933e 7d8d e53e
00000050: 8e41 d1bd b44f 253e a404 a43e d432 3abe
00000060: 5da2 8a3d 87ea 9bbe 53ea 0fbe 17c9 59bc
00000070: ee03 a63e db5b 193d 6ff5 453e eac1 2dbe
00000080: af4d 4d3d 7b5d d73d ec47 003f 0fcf 573d
00000090: fb07 e53d 0e0d 6c3e 9e34 d73e 5469 e8be
000000a0: 2cf6 093d 3cfd 0ebe 67ce b13e c386 70be
000000b0: fd97 d13e ef08 a33e f00f b13e 8260 033f
000000c0: 8cc4 81be e186 48bd 9606 023e 460a bfbe
000000d0: 8e01 dcbe f6a5 e63e 2156 5c3d 0f6b 1b3e
000000e0: d73e fdbe dfc8 ed3e 34bd e9bd c031 51be
000000f0: 2492 863e f591 c6be 4c52 463e 92d1 0fbe
00000100: 64a9 cbbe 7e83 273d 14b9 c2be 428c 6abe
00000110: 3be2 b5be 3726 b5be a2e0 e9ba d698 a6be
00000120: 11a0 d63e e0f7 58bd 785e cc3e 04a4 db3e
00000130: 563a d33e ad1c f43e 9fd5 aabc 0938 643e
00000140: a663 cebd 9346 be3e c780 2abe 5c77 58bd
00000150: 93c2 8c3d 034b 57be ee0f c43e 58ef 2cbe
00000160: adbc 3e3e 18e5 8dbe 5c01 03be 887c 85be
00000170: eb83 b13e 516b f53e 78da e4be d59b d2bd
00000180: 821d 033e 386d f73e 66b6 c03d 6989 b13e
00000190: de7b d7be 1c69 43be 4a5d 49be 80d4 5dbe
000001a0: 8e7f efbe b255 0c3e 885f 943d 4e3a 68be
000001b0: 5a2b 1bbe 091f 033e 002d 4d3e 993e eb3e
000001c0: 24bf 9dbe 0505 243d af90 d7be 162c b43e
000001d0: 95fd f63e 8f03 813e 5576 3abd 6f6a 773e
000001e0: 8861 c03e 87d6 97bc 9999 dcbe 5e7b b03d
000001f0: 5310 943e f89b c7be a53c de3d b1e4 d1be
00000200: ded3 58be 9976 c13e 6c7a 6dbe 4050 513e
00000210: ba81 c5be de30 7a3e 9b17 d93e 5d9a b23e
00000220: e845 633e 891f bbbd b045 33be a2cc 833e
00000230: a566 babe 251a b8be 5aa6 9b3d d114 de3d
00000240: 596a 8bbe 98d7 afbe 610c 84bd 08ba 65be
00000250: e7d1 973d 11c6 fdbe eecb f2bc 0c82 353d
00000260: 5ade e03d 6b00 fa3e 8ad5 ca3c 0563 a63c
00000270: 141e 913d f426 dc3e 1bf2 81be d7c1 dfbe
00000280: ceac e83e 8136 93be 5200 003f a5b4 243e
00000290: 4c5c f03d bed7 93be ad14 983d e04b 0f3d
000002a0: 87f8 9dbe d231 dd3e d588 d4bd 872e 82be
000002b0: 69db 1a3e a680 a1be 1ce5 823e 8cbe a4bd
000002c0: fe60 9f3e a842 a33e 2597 9c3e e517 dfbd
000002d0: 7c6d 133e 6ac3 98bd 994a cbbe a33a b83e
000002e0: d67b c3bc f143 783e c2f7 893e ac1a c83e
000002f0: 37e7 823e dcb5 8abe 4387 6c3e 79df f6be
00000300: 2969 993e 612c 9f3e 94d9 fdbe c1b4 c0bd
00000310: ecdd 81be 862e 02bd 94fc c5be 7ad4 bc3e
00000320: 0c24 0cbe 8bc4 6bbe b320 01be 291f 0cbe
00000330: daaf ee3d 95c5 dfbe c72d 5ebd ef71 19be
00000340: be50 ae3e 40f6 d73e a06d dc3e 1ae9 bf3e
00000350: 9c4f b03e 6997 dd3e 329b 7abe 104e cabe
00000360: d356 a13e ed0e 6fbe 83bc d2be 2911 6e3e
00000370: e344 dc3e 3d07 fc3e f6cc 2b3e 7fef a63e
00000380: ea62 b33e 9b64 b83e 45c1 c7be dde0 1c3e
00000390: 62ce fabd c2c8 bcbe c2ee 72be d096 efbe
000003a0: 0eac 013e c350 d4be a6e1 88be c864 613e
000003b0: b670 e5be 370b bd3e d39c 243e f919 a0be
000003c0: b324 9b3e f83b 833e 0d49 ebbe ea7f bebe
000003d0: 1635 fd3e 6e58 1f3e 5ce9 cc3e 1be4 db3e
000003e0: 0ae1 b1be a717 c83e cb03 5b3d c65a 203e
000003f0: 41a8 ddbe ac7b 1abd c4ed d6be 9f05 c83c

weight f4 [1, 2048]
0.016424 -0.0052547557 0.022821687 -0.024949644 -0.021779256 0.004773231 0.012718666 0.017516071
-0.0014371688 -0.007934418 0.01381914 0.013386547 -0.01293105 0.00039420946 0.027193902 -0.017989649
0.004356872 -0.008118163 0.024038523 0.012375545 -0.020311026 -0.006602042 0.009934381 9.441681e-05
0.011156276 -0.004644583 -0.009821696 0.00912565 0.016238036 -0.007609035 0.0037895972 0.0007847022
-0.013282515 -0.018724665 -0.0037085607 -0.02021399 -0.006954916 0.010460231 -0.012966545 0.023883075
-0.02018812 0.010024803 -0.012619898 -0.018926248 -0.011027569 0.0004025853 -0.01905119 0.020039594
-0.014636259 0.0025444136 0.016485905 0.01172354 0.013841968 -0.01889901 0.016293742 -0.009285584
-0.0099024745 0.002972493 -0.019607078 0.0041648652 0.01907405 -0.003936905 -0.0012881235 0.0055693225
0.01602482 0.019025784 -0.0035257074 0.017159907 -0.0064927195 -0.020758692 -0.012531797 -0.008947252
0.0138722425 -0.018254064 0.0027496824 -0.015769837 0.008070469 0.019204123 -0.02132236 -0.026147394
-0.0029642344 -0.013832607 -0.005122694 0.021035375 5.7793506e-05 0.026116742 0.026278097 0.006734493
0.00058372586 0.0029135866 -0.006352479 0.004027439 0.009489045 -0.007943357 0.01142077 0.006152301
-0.006879 -0.0021031457 0.008846196 0.009398119 -0.017457984 0.007935811 -0.0063135065 0.0014506221
0.02485895 0.009720488 -0.014730015 0.028627396 0.0064430144 0.004382697 -0.018138263 0.021990653
0.008989688 0.004536738 -0.015627412 -0.020933136 -0.00933956 -0.0072061904 -0.02306267 -0.023041535
-0.012340464 0.009391185 0.023185218 -0.005472403 0.015578177 -0.017918566 -0.0021660007 -0.008707531
0.023308188 0.0103140315 0.0023692101 0.0037421596 -0.003752488 0.003683674 -0.011307335 0.010009142
0.00331043 0.014086765 -0.0035583097 -0.0064815986 0.015254816 -0.0046168678 -0.014533392 -0.010111895
0.006110317 -0.009966559 -0.011620753 0.015799943 -0.019149901 -0.009552408 0.010687542 0.008757852
-0.0036544045 -0.002313533 0.005173698 -0.016918179 0.007368055 0.0060398355 0.005638892 -0.0077567273
0.021532873 -0.014453904 -0.01473699 -0.016757818 0.025224622 0.019439796 0.022600457 -0.009581589
0.008796299 -0.020882936 0.00070533965 0.01400292 -0.020616625 -0.0059696347 0.0048406166 -0.021377936
0.01976624 0.008169317 0.0018470031 -0.0017188308 0.011167034 0.015019231 -0.0007874298 -0.020567255
0.017828679 -0.02409038 -0.014179636 -0.008768964 0.0056519997 0.025536422 0.01675851 -0.010625007
-0.010886702 -0.014396789 0.012316423 0.0085813245 0.024791965 0.017431246 -0.011687143 -0.020117007
-0.0020508356 0.011915686 -0.009285136 0.014479145 0.0068853116 -0.0035309375 -0.014198536 0.010510706
-0.012446624 -0.0018299056 0.016588422 -0.0024769153 -0.014240628 0.019832116 -0.014904571 0.020376239
0.017793775 -0.0147695 0.011532751 -0.004008514 -0.0037078857 0.0011766414 -0.02137913 0.01620602
0.013180107 0.00033878643 0.022469847 0.025518332 -0.016073786 -0.0030148164 -0.017154904 0.026753923
-0.004959889 -0.0014852023 -0.012468306 -0.0074299644 0.019879565 0.006181306 -0.0010458794 -0.006669484
-0.00037179212 0.0019174942 0.006583089 0.038918026 -0.022718076 0.01904349 -0.00014494726 0.005553774
-0.024839753 -0.0016108969 0.012246934 -0.009002224 -0.017429708 0.0042920867 0.0020926774 -0.018694222
00000000: a08b 863c 1630 acbb 8cf4 ba3c 3263 ccbc
00000010: 696a b2bc c468 9c3b f461 503c dd7d 8f3c
00000020: 625f bcba 5cff 01bc ad69 623c 3f53 5b3c
00000030: c1dc 53bc e6ad ce39 bfc5 de3c 075f 93bc
00000040: 17c4 8e3b 0b02 05bc 70ec c43c ccc2 4a3c
00000050: 4f63 a6bc f155 d8bb d0c3 223c a401 c638
00000060: d0c8 363c 9631 98bb 2eeb 20bc c083 153c
00000070: a105 853c 3655 f9bb e45a 783b 79b4 4d3a
00000080: e89e 59bc 7864 99bc 530b 73bb cf97 a5bc
00000090: 10e6 e3bb 6461 2b3c a271 54bc 70a6 c33c
000000a0: 8e61 a5bc 123f 243c b0c3 4ebc 380b 9bbc
000000b0: faac 34bc 1612 d339 3e11 9cbc 132a a43c
000000c0: ebcc 6fbc 2dc0 263b 730d 873c 1714 403c
000000d0: 6cc9 623c 19d2 9abc 747a 853c 9022 18bc
000000e0: fd3d 22bc 28ce 423b 069f a0bc 6c79 883b
000000f0: 2f41 9c3c 2701 81bb 41d6 a8ba dd7e b63b
00000100: 7c46 833c f6db 9b3c 8e0f 67bb ef92 8c3c
00000110: e1c0 d4bb 220e aabc 2b52 4dbc 7f97 12bc
00000120: 6748 633c 8c89 95bc 0434 343b bf2f 81bc
00000130: 003a 043c f751 9d3c 3bac aebc 0f33 d6bc
00000140: 9a43 42bb 29a2 62bc 46dc a7bb 6152 ac3c
00000150: 4e67 7238 c7f2 d53c 2a45 d73c 06ad dc3b
00000160: 2e05 193a dff1 3e3b 7528 d0bb 9bf8 833b
00000170: f077 1b3c db24 02bc 2e1e 3b3c 3e99 c93b
00000180: 3c69 e1bb eed4 09bb a3ef 103c 91fa 193c
00000190: 0c04 8fbc 3405 023c 88e1 cebb cd22 be3a
000001a0: ffa4 cb3c af42 1f3c 2956 71bc 0084 ea3c
000001b0: ec1f d33b ba9c 8f3b b296 94bc be25 b43c
000001c0: 7c49 133c eba8 943b 0f05 80bc f87b abbc
000001d0: f404 19bc e821 ecbb eded bcbc 9ac1 bcbc
000001e0: a82f 4abc 7cdd 193c edee bd3c d851 b3bb
000001f0: 9c3b 7f3c f5c9 92bc 76f3 0dbb 08aa 0ebc
00000200: d0f0 be3c 2ffc 283c c044 1b3b 053f 753b
00000210: 4dec 75bb cb69 713b 6742 39bc 62fd 233c
00000220: cdf3 583b 2dcc 663c 8832 69bb 9763 d4bb
00000230: 56ef 793c 1849 97bb 771d 6ebc 5dac 25bc
00000240: 0e39 c83b c74a 23bc f964 3ebc e26e 813c
00000250: 41e0 9cbc b481 1cbc cd1a 2f3c 187d 0f3c
00000260: bc7e 6fbb a59e 17bb 2088 a93b fe97 8abc
00000270: ba6f f13b d0e9 c53b 74c6 b83b 252c febb
00000280: b565 b03c 11d0 6cbc 6b73 71bc b147 89bc
00000290: dea3 ce3c 3540 9f3c 9824 b93c 19fc 1cbc
000002a0: 5a1e 103c b112 abbc 8be6 383a 816c 653c
000002b0: 32e4 a8bc ed9c c3bb 099e 9e3b c820 afbc
000002c0: cfec a13c 99d8 053c 2417 f23a 644a e1ba
000002d0: eff5 363c 3813 763c 856b 4eba a97c a8bc
000002e0: 730d 923c 3059 c5bc b451 68bc b3ab 0fbc
000002f0: 6934 b93b c231 d13c 2549 893c 8214 2ebc
00000300: 235e 32bc 82e0 6bbc d2ca 493c af98 0c3c
00000310: 8518 cb3c f9cb 8e3c 6e7b 3fbc 6ccc a4bc
00000320: 5067 06bb 023a 433c af20 18bc f039 6d3c
00000330: 2e9e e13b 4d67 67bb faa0 68bc 1935 2c3c
00000340: edec 4bbc 71d9 efba 71e4 873c be53 22bb
00000350: 8651 69bc f676 a23c 4d32 74bc 12ec a63c
00000360: 40c4 913c c6fb 71bc ddf3 3c3c da59 83bb
00000370: 0000 73bb 8939 9a3a 4923 afbc 7dc2 843c
00000380: 60f1 573c 259f b139 af12 b83c d20b d13c
00000390: 2cad 83bc 3a94 45bb 7188 8cbc 0b2b db3c
000003a0: 9186 a2bb 1fab c2ba de47 4cbc 0f77 f3bb
000003b0: 78da a23c 8e8c ca3b e415 89ba b08b dabb
000003c0: 18ed c2b9 6e54 fb3a f4b6 d73b 8268 1f3d
000003d0: 421b babc 1801 9c3c fcfc 17b9 6ffc b53b
000003e0: bd7c cbbc bb24 d3ba 5da7 483c 107e 13bc
000003f0: bfc8 8ebc a2a4 8c3b 4d25 093b a024 99bc
