save/data_1.pt (torch, 72527 bytes, 5 tensors)

weight f4 [128, 4]
00000000: 52e0 06be 0a24 27bc 6f2d eebe 71da 1fbc
00000010: 6419 26be 41a5 d53e 267a c63a cb04 e4bd
00000020: e4e4 443e 7c22 8fbe 20b7 5e3e 3573 c1be
00000030: 5a2c 123e 8bae c0be eb7f a4be 9e85 be3d
00000040: fa88 6cbe 25b9 be3e c79a bcbe 65fc d5be
00000050: e2a0 9c3e 5a1e 933e 5f11 efbe 492c a0be
00000060: 7847 4cbe ec16 46bc 0206 b5be 749a d0be
00000070: 4f56 9abb 602b ccbe 3bb5 763e c773 9e3b
00000080: 6d97 5f3e 78d6 633e c56f e7bd aa29 623e
00000090: 8b30 e2be 40a8 83be f945 ce3e 8043 483c
000000a0: de2e fa3e bff4 373e 478a 4a3e c77b f03e
000000b0: 22c1 013e 31ed 773e 8072 87be e1bc ab3c
000000c0: 6bc8 b83e 8a67 b9be b31e 6a3e 6189 d0be
000000d0: 5755 4e3e 65f6 c43e e096 3ebe 4462 b5be
000000e0: ed17 96bd 6b79 ffbe 922c c93e 7045 5d3d
000000f0: b0e8 f9be 528b 2fbe a29a 94be 18a6 793e
00000100: 6d8c cd3e a247 bc3e 81e6 dabe 1cc0 083e
00000110: c568 86be e15f a83e 849f b9be 6c2a a8be
00000120: e2cb eebe c3c7 be3c 2045 25bd 13c6 3bbe
00000130: 2db9 fabe b430 7ebe 0d20 dc3e 8121 003f
00000140: 1268 6dbe 26bf 873e d156 dabe 3dbd fe3d
00000150: 3cce 8b3e 4334 16be ca90 aebd 6d6b 14be
00000160: de99 dfbe 09dc 8c3d 2a14 b13e e522 de3e
00000170: fbeb 2f3e 868a f3be 7499 64be f8e2 2c3e
00000180: 62e1 233e ce2e d9be 73e2 d3bd ba7a b93e
00000190: 4d3e 40bd 68ee 9c3d aaff 91be 286f e1be
000001a0: 6725 7fbe e97e 30be ab7e d73e d53b db3e
000001b0: 1ddc fe3e 6941 4fbd a4a8 673d 3d7d 653e
000001c0: 469d 5a3d b3e3 52be bacc 80bd 6a2a 90bd
000001d0: 3435 02bf 6936 dabe 042a 46be ae0e fabe
000001e0: b0d6 db3e 9f6f bc3e bd0a 84be 10ca 853e
000001f0: 6106 b13e 83cb 9a3e 0620 58be c2b0 ce3e
00000200: 57a6 433e 4d4a b13e b510 c8be 1e6c 1abe
00000210: 43a9 3fbe 86cc 233e 2e1a 29be 80aa 46be
00000220: a4fc a8be 9feb 313d 36e3 ecbe 3761 2c3d
00000230: 7d3d f0be 4ac7 ad3e 38d7 b53e 2d85 af3d
00000240: a0e2 96be 37f5 02bd d413 20be 3b47 9d3e
00000250: f065 9f3e 6020 ca3d afe2 f23e 26f9 0d3e
00000260: 1214 dc3e 5000 71be 16d8 da3c 867d 2e3c
00000270: 7da8 7fbd 7444 8ebe caef 2bbe ca5d eb3e
00000280: 2883 ee3e 9473 2f3e a432 04be aea0 3fbd
00000290: 7cff 43bd 7f7b 563e b82e b73e d679 f6be
000002a0: 4496 d1be d261 04be bd07 1b3e 7cf9 1cbe
000002b0: f032 fd3d 7391 b0be 9850 a4be 113a bd3d
000002c0: b0a9 333e c2ee d53e e1b9 d7be 3bd0 fc3e
000002d0: da7a a13e 564c ebbe 9d0e 813e e93a 8dbe
000002e0: 2b76 593e 9516 81bd 10f3 b33e 638a 91bd
000002f0: 81e4 a5be b950 d1be ed09 d13e 895a 0fbe
00000300: 8324 44be cbd9 263e 9626 e7bd 3ad8 3f3e
00000310: 501d 673d 6f9e 333d 5888 76be bda3 9a3c
00000320: ca1e 973e e1c2 633e 9ded 29be e26e 453e
00000330: 6180 b93e 7499 00be 5ff4 ba3e 63d2 223d
00000340: f042 95be a346 d3bd a5fa c2be 111a 7ebe
00000350: e494 b7be b1d5 423e 21c7 d9be 379b 463e
00000360: a029 3dbe ead7 17bd 2df6 87bc 725d 673e
00000370: 2478 753c 1a83 67be 2e5a 33be e30b a6be
00000380: 02e2 fc3e 8aff a53e 9290 22be 65cd 79be
00000390: 097e bc3e 5af0 7bbd 8255 efbe bbe6 34be
000003a0: da53 02be bbe6 893e 3690 f43d dd20 f23e
000003b0: 7886 023e ecb8 c13e 0957 d6be 8964 583e
000003c0: 65a6 b53d a99e b83e 49cd b2be 46c6 743e
000003d0: 105c 6abd a04c 16bd c918 103e 7a27 65be
000003e0: fe98 8cbc ee72 a1bd 1c83 d03e fce4 74bd
000003f0: fafe af3e b028 f83e c720 043f 5f55 053e
-0.13171509 -0.0102014635 -0.46519038 -0.00975667 -0.16220623 0.4172764 0.0015142604 -0.11133727
0.1922794 -0.27955997 0.21749544 -0.37783208 0.14274731 -0.37633166 -0.32128844 0.09302829
-0.23099127 0.3725063 -0.36836836 -0.41794124 0.30591494 0.28734094 -0.4669294 -0.31283787
-0.19949138 -0.012090426 -0.35356146 -0.40742838 -0.004709996 -0.39876842 0.24092571 0.004835579
0.21835108 0.22249782 -0.11300615 0.22086206 -0.4417766 -0.25714302 0.4028776 0.0122231245
0.48863882 0.17964457 0.19779311 0.46969435 0.1267133 0.24211575 -0.26454544 0.020964088
0.36090407 -0.36211807 0.22863273 -0.40729812 0.20149742 0.38469234 -0.18612242 -0.35426533
-0.07328782 -0.49897322 0.39291817 0.0540213 -0.4881034 -0.1714299 -0.29024225 0.24379766
0.401462 0.36773401 -0.42753986 0.13354534 -0.26251808 0.3288565 -0.36254513 -0.32844865
-0.46639925 0.023288613 -0.040349126 -0.18337278 -0.48969403 -0.24823266 0.42993203 0.5005112
-0.23184231 0.26513022 -0.4264436 0.12438438 0.27305782 -0.14668374 -0.0852371 -0.14494105
-0.4367208 0.06877906 0.34585696 0.43385997 0.17179863 -0.47566622 -0.22324163 0.16883457
0.16003945 -0.42418522 -0.10345926 0.36226445 -0.046934415 0.0766266 -0.2851537 -0.44030118
-0.24916612 -0.17235912 0.42088827 0.42819086 0.49777308 -0.05059949 0.056557313 0.22411056
0.053372644 -0.20594673 -0.062890485 -0.0703934 -0.5086243 -0.42619637 -0.19351965 -0.48839325
0.4293723 0.3680391 -0.25789443 0.26130724 0.3457518 0.30233392 -0.21105966 0.4036923
0.19106422 0.34627 -0.39075246 -0.15080306 -0.18716912 0.15995988 -0.16513893 -0.19400978
-0.3300525 0.043437596 -0.46267098 0.0420849 -0.46921912 0.33941108 0.3551576 0.08570323
-0.29469776 -0.031972136 -0.15632564 0.30718407 0.3113246 0.09869456 0.4743857 0.13864574
0.42984062 -0.23535275 0.026714366 0.010650044 -0.062416542 -0.277866 -0.16790691 0.45969993
0.4658444 0.17133933 -0.12909943 -0.046784095 -0.04785107 0.20945548 0.3577783 -0.48139828
-0.40934956 -0.1292794 0.1513967 -0.15329546 0.12363231 -0.3448597 -0.32092738 0.09239591
0.175452 0.4178372 -0.42134002 0.49377617 0.3153904 -0.45956677 0.25206462 -0.27584007
0.21236484 -0.06303135 0.3514638 -0.07106473 -0.32400897 -0.408819 0.40827885 -0.1399938
-0.19154553 0.16294019 -0.112866566 0.18734828 0.05642444 0.043852266 -0.24075449 0.018876905
0.29515678 0.22242309 -0.16594549 0.1928058 0.36230758 -0.12558538 0.36514565 0.03975142
-0.29152632 -0.10316207 -0.38081852 -0.24814631 -0.35855782 0.1902683 -0.42534736 0.19395147
-0.1847291 -0.037071146 -0.016596878 0.2259424 0.014982257 -0.22608605 -0.1751487 -0.32430944
0.4939118 0.32421523 -0.15875462 -0.24394758 0.36814907 -0.061508514 -0.46744925 -0.17666142
-0.127273 0.26933846 0.119415686 0.47290698 0.12746608 0.37836397 -0.41863278 0.21132101
0.08869628 0.36058548 -0.34922245 0.2390376 -0.057216704 -0.03669417 0.14071955 -0.2237834
-0.017162796 -0.07883249 0.4072503 -0.05978869 0.3437422 0.48468542 0.51612514 0.13020848

bias f4 [128]
00000000: a221 bc3e 5b8f a73e d293 ce3e c71c 7ebe
00000010: 10b6 d8be 1c32 31be 183f da3e 34c0 6fbd
00000020: ad74 81be 4c1e adbe bae7 98bd 3b0b b03d
00000030: d087 a0be af06 af3e 6102 913e 5bda 90be
00000040: cfa8 e4be cd72 66be e67f 9b3e ea6e 6c3e
00000050: 711f 77be 3d3d e5be ce91 dd3c 6d57 af3e
00000060: 830e c6be 67b4 de3d c965 d6be 0f27 f73d
00000070: a446 4dbe de13 89be 5149 6c3e 1f9d b73e
00000080: 1de1 143e 6a30 f33e 64b2 a03e 13f9 f13e
00000090: 1e92 b03d 3609 2ebe cee5 2e3e 71d9 e8be
000000a0: e371 1f3b 0b18 da3e 8d0b aebc ac0b 063e
000000b0: 226e bebe a2a4 bbbe f191 8e3e ff12 ddbe
000000c0: 1adb cabe 1898 49be cd65 083e c703 153d
000000d0: 93a5 d9be 9a82 033e 92db 6e3e e9d0 ee3d
000000e0: 1a93 f33e 18f4 96bd d955 203e aabf 123e
000000f0: 8d8e 723e fcbb 8abe de16 91be c29f d23c
00000100: 7436 ea3e fd2a 793e 8753 db3e 923b e83e
00000110: 7c5e c63e a007 8e3e a5f7 563e addf aabe
00000120: 2d40 c0bd daa2 03be 208b 023f fddb 13be
00000130: 606c ea3e 436e 503e 310c 58bd 4dbb 28be
00000140: 7a7a 96be c84e c2bc 8d47 823e fd0c 9bbe
00000150: e693 fdbe 19c0 61be 6aad db3e 4c4a e63e
00000160: 738f 7cbe e5ca b2be a8aa 183e 8803 d1be
00000170: 5f94 32be 4c59 adbe 1f60 d4be 104b b7be
00000180: 2404 1ebe 2600 643e 9c16 e33e 9a30 9fbd
00000190: 4179 f7bd 0b57 ebbd 1cec f03e 0bd0 c23e
000001a0: 9fcf 5dbd c489 9f3e 7055 e03e 6333 b73e
000001b0: 5e4e b43e 94a8 69be caea 94bc 97b6 d5bd
000001c0: 31c9 cdbd f8bc e6be 39ca 84be 840f dfbe
000001d0: 7c76 ff3d 1728 6f3e a3d4 463e ef44 fdbc
000001e0: c335 d8bd 6860 9cbb 60ec 6a3d d42a e4be
000001f0: fb3b 1ebc 976b 0d3e 53af fb3e 7e14 6cbe
0.3674441 0.3272656 0.40347153 -0.24815665 -0.42326403 -0.17304271 0.42626262 -0.05853291
-0.2528433 -0.33812177 -0.07466073 0.08595892 -0.31353617 0.34184787 0.28322127 -0.28291592
-0.4466004 -0.2250473 0.30371016 0.23089185 -0.24133088 -0.44773284 0.027047064 0.34246388
-0.38682947 0.10874253 -0.4187453 0.12067997 -0.20046479 -0.2677297 0.23074843 0.3586206
0.14538999 0.47497874 0.313861 0.4726034 0.0862162 -0.16995701 0.17079851 -0.45478395
0.0024329356 0.42596468 -0.021245742 0.1309039 -0.371934 -0.36649042 0.2784572 -0.43178555
-0.39620286 -0.19686925 0.13320084 0.036380555 -0.42509136 0.1284279 0.23325947 0.1166094
0.47573167 -0.07370776 0.15657748 0.14330927 0.23687191 -0.27096546 -0.2833776 0.025710944
0.4574467 0.24332805 0.42837164 0.4535795 0.3874396 0.27740192 0.20992906 -0.33373776
-0.093872406 -0.12855092 0.5099354 -0.14439388 0.4578581 0.20354562 -0.052746 -0.164777
-0.29390317 -0.023719206 0.25445214 -0.30283347 -0.495269 -0.22045936 0.42905742 0.4497856
-0.24664097 -0.3492042 0.1490885 -0.40823007 -0.17439412 -0.3385719 -0.41479585 -0.35799456
-0.15431267 0.22265682 0.44353187 -0.07772942 -0.12083674 -0.114912115 0.47055137 0.3804935
-0.05415308 0.31159794 0.43815184 0.35781392 0.3521604 -0.22818214 -0.018178362 -0.10435217
-0.1004814 -0.45066047 -0.25935534 -0.43566525 0.12473771 0.23355137 0.19417052 -0.03091666
-0.10557129 -0.0047722347 0.05735433 -0.44563925 -0.009657855 0.13810574 0.491572 -0.23054692

weight f4 [128, 128]
00000000: d937 15bd 2507 0ebd a3dd 8e3d 055b 6dbc
00000010: b364 79bd 229b 19bd 4f1b 8bbd 879a bd3c
00000020: 0979 89bc 16d3 afbd 1a93 6fbd 12ab 883d
00000030: 1630 7fbd c363 9fbd b66d 9e3c aac9 853d
00000040: f497 7d3d d71d 81bd 712f 1bbd 8c58 86bd
00000050: 5bd7 35bd 2da1 a53d 9024 083d a767 56bd
00000060: a423 143c fc5d 363c 37a8 94bd 78ee ae3d
00000070: 97b3 d43c aa68 ad3d 872b 03bc 9cf1 a23d
00000080: e0fa a43d d3a7 d6bc 7ba6 9ebd 71bd c1bc
00000090: 51bf a1bd c278 753c 285b b6bd e756 fbbc
000000a0: e445 b23d c93b 3dbb 2c1b b53d d42b 6b3b
000000b0: 338a 473d a18e 0b3d 21ef 8f3d 3d0c 83bd
000000c0: 544c 02bd 08e3 e9bb f332 c43c b83d 093d
000000d0: 0e4f 613d 584e 75bd fd93 113d 7483 573d
000000e0: c78b 813d aa41 8d3d 6ee6 b3bd 3750 8ebd
000000f0: 0b32 bb3c 4865 2cbd 3cb1 08bd 3579 78bc
00000100: c55a 953d 4e89 c63c 1ada 6ebd a500 a8ba
00000110: c60d 463d fbb5 84bd e9a7 2bbd 7560 3f3d
00000120: de79 103c b01d 7dbc b7ca b43d 196c 163d
00000130: e337 413d 276e 9e3d 0d97 45bd ae1f 96bb
00000140: 3c2b 9b3c 4522 93bd 0682 813d fa8b 843d
00000150: c144 5bbd 6226 5bbd b2be b73d 247d e4bc
00000160: 1c6b 343c ffc4 8fbd ad6b 893d 37ab b3bd
00000170: 04f5 583d 1be2 0dbd 9f81 84bd 047f 0d3d
00000180: 2146 edbc b0bd 333d b68b d53c a42a cbbc
00000190: 05e0 9bbd bf99 8b3d 7c08 a73d bf9c 453c
000001a0: 642c 3cbc c9e0 013d 86bd 9d3c 8512 f1bc
000001b0: 9665 7e3d 10b2 5cbd a510 103d 7f3e d93c
000001c0: 8c26 4fbc 0b1a 403d 9a8f ffbc 11f8 943d
000001d0: d25c 973c 5f5b a83d 6744 8cbc 0932 6e3d
000001e0: 5fdb 543d 7f38 bdbc 3301 4c3d 9803 15bc
000001f0: 3491 eebc 2642 49bc fa15 aa3d 57b4 cb3c
00000200: 77c6 553d 53b3 373d 034d 5abd 7494 cd3c
00000210: 3e7b 0fbd 5063 a3bd e042 59bd b52b 76bd
00000220: 844d a23d f45e 823d 9428 7d3d 3c58 9cbd
00000230: 24fc ee3c 1600 5c3d a7a1 9e3d 7f73 bfbd
00000240: afdc 2e3d f2cc 52bc b235 8d3d 5e2f 493d
00000250: 5f19 52bd ac27 833d f7cc 49bd 2c3b 07bd
00000260: 0c7a cc3d 9466 00bc 1712 783d 4ca4 e7bc
00000270: 893c 45bc cb04 593d 57f5 863d e27f b53c
00000280: f6d2 843b 39e3 5bbd 296f 473c 998e 44bd
00000290: 523b 043a 9b13 16bd e815 853d 1de5 003c
000002a0: cdf4 5abd 012a 573d 1aac 3c3d 946e 8bbd
000002b0: ede0 883d 5ab8 933d a8f2 ec3c 9aeb df3c
000002c0: a647 abbd 9272 85bb 9897 8bbc acc4 273d
000002d0: c2fe 19bb 5970 debc 30d7 813d d0c7 913d
000002e0: 6e59 a23d f28d 90bd d5c8 bb3d 4186 9abd
000002f0: 6e07 41bc 1aeb 6abb 25ff 6bbd 4ac2 4d3d
00000300: abd5 a2bc 95dc fcbc 1ff1 963c 2d72 8ebd
00000310: 4f39 8fbd d54c 84bd bf93 203b 4609 923c
00000320: 5d07 153d dc74 fcbc da11 ab3d ed17 abbc
00000330: e59b 9dbd f15c b0bd 4055 93bd 104c a13d
00000340: dd5a 10b9 455f 5b3d a28f 5cbd 395f 1abb
00000350: 7fa3 1cbd 799b a23d c105 b03d 5704 18bd
00000360: d5bb 293d 5d41 9bbd 8509 b53d 35ef 1a3d
00000370: ddac c93c 0473 dfbc 88c0 b6bd ed46 b5bc
00000380: 8bd6 2bbc cf63 c13d b7bc 8bbd 7d07 2e3d
00000390: e97b bebd 4dc3 0e3d d836 97bd 19e8 de3c
000003a0: 40c2 483d c190 43bd 8ab3 aa3c 563d 263d
000003b0: f92c 943d a997 1e3d 3201 8ebd 5315 50bc
000003c0: 2f45 0fbd eb06 693d 8c49 403b 5973 4c3c
000003d0: 94e6 343d eb78 86bc 6932 91bd 95d7 24bc
000003e0: 71c2 963d c9e0 b53d 56a5 ccbd fddc 0bbd
000003f0: 755e 6b3d e215 733d 8b70 ef3c f9b2 f2bc
-0.036430214 -0.034674782 0.069758676 -0.014487033 -0.06088705 -0.03750146 -0.06792318 0.023144973
-0.016781347 -0.08585183 -0.058489896 0.06673254 -0.062301718 -0.077827 0.019339424 0.06532605
0.061912492 -0.063045196 -0.03788704 -0.06559858 -0.044394832 0.080873825 0.033237994 -0.052344944
0.0090417005 0.011130806 -0.07258647 0.08541578 0.025964541 0.08467229 -0.008005983 0.079562396
0.08055663 -0.026203072 -0.077465974 -0.023649903 -0.07897819 0.014982404 -0.089041054 -0.030681087
0.08704737 -0.0028874746 0.08843073 0.0035884278 0.04871578 0.03407157 0.07028032 -0.06398819
-0.031811073 -0.00713766 0.023950076 0.033506125 0.055007033 -0.059889168 0.035541523 0.052615598
0.063254885 0.0689729 -0.08784185 -0.069488935 0.02285101 -0.042088777 -0.03337215 -0.015165617
0.072927035 0.024235394 -0.058313467 -0.0012817575 0.04835298 -0.064800225 -0.04190818 0.046722848
0.008818118 -0.015448973 0.08827727 0.036724184 0.04717244 0.07735854 -0.048239756 -0.004581413
0.018941514 -0.07184271 0.06323628 0.06472011 -0.053532366 -0.0535034 0.08971919 -0.027891703
0.011011865 -0.07019996 0.06709991 -0.08772891 0.05296804 -0.03463946 -0.06470036 0.03454496
-0.028964104 0.043882072 0.026067596 -0.024800606 -0.07611088 0.06816434 0.08155915 0.012061297
-0.011485193 0.031708512 0.01925541 -0.029427776 0.0621086 -0.05388075 0.035172123 0.026519058
-0.012643468 0.046899837 -0.031196404 0.072738774 0.018476877 0.08220553 -0.01712246 0.058153186
0.05196702 -0.023098228 0.04980583 -0.009095095 -0.029121973 -0.012283837 0.08304973 0.024866266
0.052191224 0.04484875 -0.0532961 0.025095202 -0.035029642 -0.07977927 -0.053042293 -0.060100276
0.07924941 0.06365767 0.061806276 -0.07634017 0.029172964 0.05371102 0.077456765 -0.09348201
0.04269093 -0.012866246 0.06895007 0.04911744 -0.051293727 0.06404051 -0.049267735 -0.033015415
0.09984216 -0.0078369565 0.060564127 -0.028276585 -0.0120383585 0.052983087 0.065897636 0.022155706
0.004053469 -0.053683493 0.012172499 -0.047987554 0.000504424 -0.03663979 0.06498319 0.007867125
-0.053456116 0.052530292 0.046062566 -0.068082005 0.06683526 0.07212897 0.028924301 0.027334023
-0.08363275 -0.0040724957 -0.017040059 0.040959045 -0.0023497795 -0.02715318 0.06339872 0.07118189
0.079272136 -0.07058324 0.09169165 -0.07545138 -0.0117815565 -0.0035845698 -0.05761637 0.050234117
-0.019877275 -0.0308669 0.018425522 -0.06955371 -0.069933526 -0.06459967 0.0024502126 0.017826688
0.036383975 -0.030817442 0.08353014 -0.020885432 -0.0769575 -0.08611477 -0.071939945 0.07875836
-0.0001376676 0.053557653 -0.053847916 -0.0023555292 -0.03824186 0.0793981 0.085948475 -0.037113514
0.041438896 -0.075808264 0.08839706 0.03782578 0.02461856 -0.027276523 -0.08923441 -0.022128547
-0.010488163 0.09442865 -0.06823104 0.04248761 -0.09300978 0.034854222 -0.073835075 0.027210282
0.049013376 -0.04774547 0.020837564 0.04058584 0.0723514 0.038718853 -0.06933822 -0.012700397
-0.034978088 0.056891363 0.0029340712 0.012478673 0.04416521 -0.01641508 -0.07089693 -0.010061164
0.073613055 0.08880765 -0.09992473 -0.034146298 0.057463128 0.05934704 0.02922847 -0.029626356

bias f4 [128]
00000000: 14a1 833c d6fa 16bd 049f f0bc 18c6 823c
00000010: 8152 b13d 6338 1e3d d83c 563d be38 c03c
00000020: 8d31 853d eb4d f63b 2293 9fbc 2319 cfbd
00000030: 7e4f bc3d 1835 bb3d 64a8 ac3d 2d9e 343d
00000040: f516 55bd 10bb dc3c 0cf7 cebc 0047 0b3a
00000050: 796c 53bd 1556 23bd a819 6a3d 5ebc 74bc
00000060: f8b2 babc f21a 15bc 885d 723d 1144 8c3c
00000070: 70a6 1abc 6f09 443c 23aa 863d 3e84 72bc
00000080: 8468 c73d 2421 8ebd 7580 7b3d 2d75 79bd
00000090: f20b 953d 51f6 37bd b77e 8c3d 2f39 ac3c
000000a0: d25b b53d 72a0 72bc c2cd ad3d 312a c43d
000000b0: 0d03 99ba e455 c7bb b27e c23d 66d2 4c3d
000000c0: 8d9d 7b3c 6d45 35bd 457c 073d 2442 513d
000000d0: d963 94bc a76e 7dbd cef6 5b3c 2c99 a43c
000000e0: e4eb 11bc 430c 04bd 2bf4 d23d 28fd edbc
000000f0: a232 bf3c 5ebe 9e3d 4a27 b93d ae22 3dbd
00000100: 61ae 92bc 8379 b73d 0231 f5bc 1925 81bd
00000110: 8e2e 7c3d 8a2c 2dbd cad5 5fbd 8114 143d
00000120: 6a4f 1b3c 9aa7 cc3d ddcd 0d3c e34a 18bd
00000130: dff4 93bc 631b 953d ab6e 3abc 14c6 9f3d
00000140: 4225 bcbc 7e5a 95bd ce43 493c 668a 3abc
00000150: 9bd3 073b bb23 31bd e957 8f3d f10b 46bd
00000160: 656a bdbc 2fb5 78bd 1c45 8b3d 6da8 c43c
00000170: fb2a afbd 236c 95bd 172f 573b 64fb 8b3d
00000180: e649 1e3d ced9 5dbd da26 e83c 35d4 8e3d
00000190: d306 eabb fbfe 453b ded5 313d 2253 06bd
000001a0: c36d c23c b86d ab3c e937 103d b192 a13d
000001b0: 11f6 3bbc 4125 f8bc 75f1 5a3d e3d6 943c
000001c0: f3e4 a43d b5a1 c63d dcd8 c83d 43cc fcbb
000001d0: edcb 82bd a789 9bbd 33e3 823d 8abb ab3d
000001e0: d48f 883c a808 08bd fb05 a13c 22f5 01bb
000001f0: 579a 3b3d 57ca f13c c309 d33d 074e 80bd
0.016068019 -0.03686031 -0.0293727 0.0159636 0.086583145 0.038627993 0.05230412 0.023464557
0.06503592 0.0075166128 -0.019479338 -0.10112216 0.091948494 0.09140986 0.084305555 0.04409616
-0.052023847 0.026944667 -0.025264286 0.0005313009 -0.05161712 -0.039877016 0.057153374 -0.014937488
-0.022790417 -0.009100663 0.05917123 0.0171223 -0.009439096 0.01196514 0.0657542 -0.014802037
0.09736732 -0.06939915 0.061401803 -0.060902763 0.07277669 -0.04491264 0.068601064 0.021023361
0.08855404 -0.014808761 0.08486511 0.0957836 -0.0011673883 -0.006083237 0.094968215 0.05000534
0.015357387 -0.044255663 0.033077497 0.051088467 -0.018114017 -0.061873104 0.013425542 0.02009257
-0.008906338 -0.032238256 0.103004776 -0.029051378 0.023339573 0.077511534 0.09040697 -0.04617565
-0.017905416 0.089587234 -0.029930595 -0.06305904 0.061567836 -0.042278804 -0.054647245 0.036152367
0.009479383 0.09992905 0.008655039 -0.037180793 -0.0180611 0.07280614 -0.011378924 0.07801452
-0.022966985 -0.07292651 0.012284232 -0.011385536 0.0020725492 -0.043246966 0.069991894 -0.048351232
-0.023122022 -0.060719665 0.06800291 0.024006093 -0.0855312 -0.07296016 0.0032834464 0.06835058
0.038644694 -0.054162793 0.028338838 0.06974069 -0.007141927 0.0030211795 0.04341685 -0.032794125
0.02373398 0.020926341 0.03520957 0.07889307 -0.011472241 -0.030291202 0.053452928 0.018168872
0.08051481 0.09698812 0.09806988 -0.0077147796 -0.06386552 -0.075946145 0.06390991 0.083853796
0.016670145 -0.03321138 0.019656172 -0.0019829948 0.045801487 0.029515428 0.10304596 -0.062648825

weight f4 [1, 128]
00000000: cd5e 593b 0eef 8a3d 7a28 c1bc 8e69 d83d
00000010: 1ea9 853d 0d4b 80bd 46e8 b23d dab1 30bd
00000020: bd78 3c3d 9803 b7bc fa21 10bd 321f 803d
00000030: 12c2 0ebd 4921 b0bd 65dd 6c3d 3866 27bd
00000040: 9323 30bd d8ff 983d f246 68bd 793e 973d
00000050: 9355 9dbc e4a6 38bd dbe5 adbd 1d7c bc3d
00000060: d452 523d 5462 803d bdf8 6e3d f79b 933d
00000070: 3b41 a2bd 849b 923c 40d2 0a3d bfc0 4a3b
00000080: cfa5 113d 93f1 0b3d af24 6abd 4546 843d
00000090: 765c 85bd 1612 fa3b 503f 8f3d 209b 96bd
000000a0: 13cf 32bd ae7e d2bd 5a01 19bd e2c4 243d
000000b0: 696a a8bd b371 1e3d d263 3abd 3560 7c3d
000000c0: 5231 b5bc 15ce 9b3d f2da b0bc 2c7f edbc
000000d0: c3a4 1e3d b117 063d 6b32 64bd 95c6 d7bc
000000e0: aecf 7c3d 8101 853d 7f40 093d 23ae 613d
000000f0: 58ce 99bc 83b5 39bd 194e d1bc af1c bd3d
00000100: 2118 5abd 3105 c03d 5ecb 123d 161c b13d
00000110: adba 8e3d 2913 803d 7d48 b8bd d1d1 903d
00000120: cd9e adbd 7e1f 9cbd a872 ba3d 9064 8dbd
00000130: e82c a03d 1852 a93d 3992 00bd 00b9 1e3d
00000140: fa2c 433d 4f26 713d a01a ba3c 6285 35bd
00000150: 4397 61bc 8181 cd3c fadd 33bd f058 a63d
00000160: da58 22bd 714c b53d 3cd4 41bd f447 563d
00000170: 08f9 dbbc d7f1 c83d cb0e 863d 583b 13ba
00000180: d066 52bd 376e 7ebc 5dd7 443d a813 af3c
00000190: 48a1 41bd 0ad4 dabd c2f1 923d c77f c73d
000001a0: 49e0 a3bd 32de 26bd 4a5d 43bd e280 c6bd
000001b0: 20fa 23bc 195b 663d 1c3c c4bd e240 c53d
000001c0: fd0b c73c 48ff 9cbd a1be af3c cb21 863d
000001d0: 0396 a03d bd27 413d 3133 a63d 2e2d 843d
000001e0: cfd4 54bd cebc b23d 4cc4 893b cea1 3a3d
000001f0: 7e6f 79bd e154 06bd ae90 72bd f8a5 54bd
0.0033168078 0.06783877 -0.023578871 0.10567008 0.06526397 -0.06264315 0.08735709 -0.043138362
0.046013582 -0.02234058 -0.035188653 0.0625595 -0.03485305 -0.08600099 0.057828326 -0.040868968
-0.043002676 0.07470673 -0.056708284 0.073849626 -0.019205844 -0.045081034 -0.08491107 0.0920336
0.051348522 0.062687546 0.058342684 0.07207482 -0.07922598 0.017896421 0.033891916 0.003093764
0.035558518 0.03416593 -0.05716389 0.06458715 -0.06511776 0.0076315505 0.06994498 -0.073538065
-0.043654513 -0.102780685 -0.037354805 0.040226825 -0.08223421 0.03868265 -0.045505352 0.061615188
-0.022118244 0.076076664 -0.021588776 -0.028991304 0.038731348 0.032737438 -0.055712145 -0.026339808
0.061721496 0.064944275 0.033508774 0.05509771 -0.01877515 -0.04533912 -0.025549935 0.092339866
-0.053245667 0.0937599 0.035838477 0.08647935 0.06969199 0.062536545 -0.08998201 0.07071269
-0.084775545 -0.07623194 0.091039 -0.069039464 0.07821065 0.08267611 -0.03138945 0.03875065
0.047650315 0.058874425 0.022717774 -0.044316657 -0.013768974 0.025086166 -0.043912865 0.08122432
-0.039635517 0.08852471 -0.047321543 0.052314714 -0.026852146 0.09811752 0.0654579 -0.0005616448
-0.05136758 -0.015529207 0.04805695 0.021371678 -0.04727295 -0.106849745 0.07175018 0.097411685
-0.080017634 -0.040739246 -0.04769639 -0.09692551 -0.010008365 0.05623922 -0.095817775 0.09631516
0.024297709 -0.076658785 0.021453204 0.06549414 0.078411125 0.047157038 0.08115233 0.0645393
-0.051960763 0.08727418 0.0042043086 0.045564465 -0.060897343 -0.03279579 -0.05922001 -0.051916093
