save/data_2.pt (torch, 72527 bytes, 5 tensors)

weight f4 [128, 4]
000000 de ac b2 3e b1 31 a3 3e 6b 4c a2 3e 1b fe b4 3e
       0.34897512 0.3187385 0.31698927 0.35350117
000010 9f c3 82 3c 07 70 ba be 45 1a e8 bd 5f 30 c5 bd
       0.01596242 -0.36413595 -0.113331355 -0.09628367
000020 28 2c 6d 3c e6 dc 1d bd 69 5d a3 be f0 3c b8 bd
       0.01447586 -0.038540743 -0.31907204 -0.08995998
000030 01 8b f9 be ea b2 a0 3e 56 b2 43 3d 62 8d d0 be
       -0.48738864 0.313865 0.047777496 -0.40732867
000040 9a 08 f2 3e 64 57 38 be fc 83 b7 3e c7 25 bd 3e
       0.47272187 -0.18002087 0.35842884 0.36942884
000050 20 6e 0d 3d cc f3 21 3d 22 d1 6f be cb d4 ea 3e
       0.03452885 0.039539143 -0.23419622 0.45865473
000060 02 5d 29 be ea f8 87 3e ae 0e 11 3e 25 03 82 bd
       -0.16539386 0.26557094 0.14165756 -0.06348256
000070 46 19 f9 3e e1 d6 a7 3c 9f 47 60 be 3a 32 29 3e
       0.48652095 0.020488204 -0.21902321 0.16523066
000080 07 b8 58 be ff 5e 46 3e 04 f4 a6 be 83 21 c6 be
       -0.21163951 0.19372176 -0.32608044 -0.38697442
000090 d5 0f bf 3e da ce 39 be 64 ff d8 3e 2c 68 b3 3d
       0.37316766 -0.18145314 0.42382348 0.087601036
0000a0 0c ad f2 be 15 69 00 3e 3b 62 a7 be 19 11 1c 3e
       -0.4739765 0.12540086 -0.3269213 0.15240897
0000b0 c3 49 2f be f9 72 96 be 59 75 84 be f7 75 9a 3e
       -0.17117982 -0.29384592 -0.2587078 0.30168125
0000c0 91 b1 3e bd 44 2d a4 3e c0 94 ab 3e 9d ed 9f 3d
       -0.04655606 0.32065785 0.33511925 0.07808993
0000d0 c3 3f 09 be 61 b4 9c 3e 95 b1 cc 3d fb 72 ba 3e
       -0.1340323 0.30606368 0.099948086 0.36415848
0000e0 96 32 2b be ec f3 f6 3e fe 3d 49 3e 22 0a c0 be
       -0.16718516 0.48232973 0.19652554 -0.3750773
0000f0 68 e6 e5 3e cb 8e 1d bd 7f f3 8c bd 02 37 c9 be
       0.4490235 -0.038466256 -0.06882381 -0.3929978
000100 09 28 3e be 50 9d a9 3e 9e 02 0a be e9 b1 3c 3e
       -0.1856996 0.33127832 -0.13477561 0.18427242
000110 5b 2a 8e be d0 c3 c5 3e 21 7d 0e be 14 fe d9 3c
       -0.2776669 0.38625956 -0.1391492 0.026610412
000120 a1 95 d1 3d 91 7e 70 3e 57 31 fb bd 4a 8c b5 ba
       0.102336176 0.23485781 -0.1226527 -0.0013851014
000130 37 05 75 be 18 18 4d be d0 b4 ad be 31 82 da be
       -0.2392777 -0.20028722 -0.3392701 -0.42677453
000140 24 6e a4 be 77 d6 05 be 6b 5b 59 3e 16 96 04 3f
       -0.3211528 -0.13070093 0.2122628 0.5179151
000150 f5 24 6e be 4c b3 02 3f 9d de 7e be 6f 4c e5 3e
       -0.23256285 0.51054835 -0.24889608 0.44784877
000160 8c 5d 21 be de 3e 2d 3e 8a 83 4a be 6b 97 f7 be
       -0.15758342 0.16918513 -0.1977674 -0.4835771
000170 14 34 8f 3e 19 0b 90 3e 9e d9 31 bd 08 cc 19 3e
       0.2796942 0.28133467 -0.043420427 0.15019238
000180 5c 0e d1 be 94 49 9f bd 5a 8a 1c 3e 7c fd 1c 3c
       -0.40831268 -0.07777706 0.15287152 0.00958192
000190 f8 5a 9f be ce 90 26 be ab 4d f1 be 02 eb 54 3e
       -0.3112409 -0.16266176 -0.47129568 0.20792773
0001a0 16 0e f6 3e 95 2c 8d be 32 91 bd be 7f ce c0 be
       0.48057622 -0.27573076 -0.37024838 -0.37657544
0001b0 f1 a3 a1 bc 0c de 46 3e f5 9f f4 3e 6a 30 8d bd
       -0.019731494 0.19420642 0.47778288 -0.06894
0001c0 85 a0 f0 3e e4 96 96 be e8 d8 16 3e a4 12 d9 bd
       0.46997467 -0.29411995 0.1473118 -0.105992585
0001d0 00 4a 15 be d2 57 ec be 90 52 d6 3d 20 22 fd 3d
       -0.1457901 -0.46160752 0.10464966 0.123600245
0001e0 99 71 36 3d 9d 88 af be cc 1b 9c be aa 51 9b 3e
       0.04454193 -0.34283915 -0.30489957 0.30335742
0001f0 76 9e be be 46 db fb bc e4 74 b6 be 43 f4 98 be
       -0.3723027 -0.030744206 -0.35636055 -0.29873857
000200 a3 b5 3a 3c 6c fa ba 3e be 55 c1 bd eb 8a ea 3e
       0.011395845 0.36519182 -0.09440182 0.4580911
000210 1a 59 06 be b0 be c3 be 80 05 2d be 7a 28 fb 3e
       -0.13119927 -0.3823142 -0.1689663 0.4905432
000220 24 41 a2 3e f2 b7 d6 bd 61 c5 a4 bd e6 ac d9 3e
       0.31690323 -0.104843035 -0.080454595 0.42514724
000230 44 4a d3 3e 0f 85 00 3e fd 35 f6 be 8e df 86 be
       0.41267598 0.12550758 -0.48088065 -0.26342434
000240 f6 8c cf 3d db 4e 84 be d7 29 f4 be 0e 77 05 3e
       0.10134308 -0.25841412 -0.4768817 0.13033697
000250 16 3f 7a bd cb da ac 3e 29 c4 46 be 12 f1 b9 3e
       -0.06109532 0.33760676 -0.19410767 0.36316735
000260 fa e6 6f be 38 f8 31 3e 08 ab 9f be 3c a8 fb 3d
       -0.23427954 0.17379844 -0.31185174 0.122879475
000270 ae c1 64 3e b8 e0 2e be d0 e5 8b 3d 1c a0 6c 3e
       0.22339508 -0.17077911 0.06830943 0.23107952
000280 7a 1a 53 be 3a bf ae be a6 d1 be be 09 9f b2 3e
       -0.20615569 -0.3413027 -0.37269324 0.3488696
000290 33 bd 51 3e 8f a5 95 bd a9 23 c2 be 9c 93 b1 be
       0.2048233 -0.073069684 -0.37917832 -0.3468293
0002a0 33 ee 91 3e 9c 72 ef 3e c1 dd 0d 3e ec 80 15 3d
       0.28502044 0.46767128 0.13854124 0.036499903
0002b0 94 5f 83 be c5 76 b5 3e f3 07 a6 be cb 20 4b 3e
       -0.25658858 0.35442176 -0.3242794 0.19836728
0002c0 1a 3c 7d be 99 12 39 3e 9c e8 52 be b6 10 f0 be
       -0.24729958 0.180735 -0.20596546 -0.4688775
0002d0 1e d2 ef be 5d e1 d2 3e 23 2b e5 3e fd 27 c6 be
       -0.46839994 0.41187564 0.44759473 -0.38702384
0002e0 00 73 93 be c2 96 ce bd 2c 7b e3 3e 28 ea bd 3e
       -0.28798676 -0.100873485 0.4442991 0.3709271
0002f0 bc 41 43 be 6f 5a b9 bd 23 2e dc be 16 35 29 bd
       -0.19068044 -0.09050452 -0.4300395 -0.041310392
000300 a4 63 ae be 4d 72 f1 3d 73 98 18 3d e7 df 51 3d
       -0.34060395 0.11789379 0.037254762 0.05123892
000310 b9 74 8a be bf c8 74 be 2b 7e a4 bd 18 5d a3 3d
       -0.27042177 -0.23904704 -0.08031877 0.079767406
000320 a5 26 3f be 1f 45 5a be a8 00 5e be 17 3d cb bd
       -0.18667085 -0.2131543 -0.21679938 -0.09923761
000330 3a 29 9f be 9d 99 5d 3c aa d7 ec 3e 18 d2 24 3e
       -0.3108614 0.013525394 0.4625829 0.1609577
000340 bc 0f df 3e 94 2a 00 be 21 35 1e be 16 39 af be
       0.43566692 -0.12516242 -0.15449955 -0.3422324
000350 cc 07 e1 3e 96 13 03 be 4c bd d2 bd f7 16 01 3f
       0.4395126 -0.1280044 -0.10290012 0.50425667
000360 1e 62 00 bf ae cc d6 be b3 e2 80 bd 0b a0 fd be
       -0.50149715 -0.41953033 -0.062932394 -0.49536166
000370 58 1c 39 3e 70 db d7 bd d0 c7 46 3e 54 7f 7a be
       0.18077219 -0.10539901 0.1941216 -0.24462634
000380 13 35 a3 3e eb 40 ed be 57 46 20 3e 71 b5 6f 3d
       0.3187643 -0.4633859 0.15651833 0.058522645
000390 24 14 9f 3e c9 d7 a9 be 9e af 02 3e 5c f7 c7 3e
       0.31070054 -0.33172444 0.12762305 0.39055908
0003a0 97 7b 2e be 41 47 e8 be 52 ab ba 3e c7 8e a8 be
       -0.17039333 -0.45366862 0.36458832 -0.3292143
0003b0 6d 53 e5 be 1f bd 4d be d6 15 28 be aa 4e 6b be
       -0.4479021 -0.20091675 -0.1641458 -0.22979227
0003c0 e8 2d 89 bd b0 c6 30 3d 64 83 20 be c4 fd 65 3e
       -0.06698209 0.043158233 -0.15675122 0.22460085
0003d0 d6 e2 d7 3e e6 40 da be 57 a6 4a 3e 9c c4 c8 be
       0.4216525 -0.4262764 0.19790016 -0.392125
0003e0 42 e8 ef be 19 b0 0f be 37 cd df 3c 57 65 6e bd
       -0.46856886 -0.1403202 0.027319534 -0.058202114
0003f0 c7 4d 19 3e de 65 b4 be b5 cf 53 be 59 d2 1f 3c
       0.14971076 -0.35233968 -0.20684703 0.009754741

bias f4 [128]
000000 07 5c ba 3e 9d ca 65 bc 31 af f6 3e 7c 2e cf be
       0.36398336 -0.014025358 0.48180535 -0.40465152
000010 1f d6 80 be 6a 56 93 be 99 e6 8c 3e f5 3b de 3e
       -0.2516336 -0.28776866 0.27519682 0.4340512
000020 20 40 df be 7e e9 ec 3e 01 45 b0 3d 61 47 f3 3d
       -0.4360361 0.4627189 0.086069115 0.11878849
000030 df d5 d4 3e 6b 64 fe bd 17 ef fa 3e dd 0b 53 3d
       0.4156942 -0.12421497 0.49010536 0.051524986
000040 b3 e8 a2 3e 40 fc 95 3e 10 a8 bf 3e 03 4e 14 be
       0.3181816 0.29294014 0.3743291 -0.14482884
000050 6b 41 24 3e c9 b2 f9 3e a5 ca 0e 3e 37 ec 1c 3e
       0.1604058 0.48769215 0.1394449 0.15324484
000060 a6 98 97 3e 84 51 a3 bc 95 79 cd be e5 f2 87 bb
       0.2960865 -0.01993633 -0.40131822 -0.0041488283
000070 3b 5e 1f 3e 1a 8f e0 be 95 18 80 be da e2 54 be
       0.1556329 -0.43859178 -0.25018755 -0.20789662
000080 3f bb f8 3e 0d 2c ad be 54 6a 14 3d 01 49 a1 bd
       0.48580357 -0.3382267 0.036234215 -0.078752525
000090 89 c3 a1 be 54 a5 dc be 4f 1d 3f bd fc f7 f6 3e
       -0.31594494 -0.43094885 -0.04665881 0.48236072
0000a0 0e fa 92 be d5 0a c1 3e 01 9c ac be 87 cf ac be
       -0.28706402 0.37703577 -0.33712772 -0.3375208
0000b0 42 2d 85 be 8b 20 6d 3e db 27 50 3e 7f 4f a5 be
       -0.2601109 0.23156945 0.20327704 -0.32287213
0000c0 ac 8d a1 bd 94 d6 81 be 73 44 27 3e c1 5a ed 3e
       -0.0788835 -0.25359023 0.16334705 0.46358302
0000d0 da d8 0f be 14 d5 27 3e 26 0d a8 3e ec be f5 be
       -0.14047566 0.16389877 0.3282253 -0.47997224
0000e0 e2 f2 53 3e 78 39 3a be 12 dd a8 3d 27 a7 da 3e
       0.20698121 -0.18185985 0.08245291 0.42705652
0000f0 be 38 a8 be 30 16 99 3e 71 ff 23 bd ca 96 9a bd
       -0.3285579 0.2989974 -0.04003853 -0.07548292
000100 08 4e ec 3d 09 4d d2 be d3 2b 91 3e 34 fa ef be
       0.11538321 -0.41074398 0.28353748 -0.46870577
000110 ad 01 8b bd e0 53 d8 bd 4c 65 dd 39 e2 5e 8d be
       -0.06787429 -0.10562873 0.00042227877 -0.27611452
000120 9c ba 85 3e 73 fc 04 3b fa 00 a1 be c9 76 cc be
       0.26118934 0.0020292073 -0.31446058 -0.39934376
000130 d1 8e d7 be ca 26 e5 be 92 43 53 be 1d e0 7e 3e
       -0.42101148 -0.44756156 -0.20631245 0.2489018
000140 bc 0f b3 3e 40 9d 47 3d d8 90 94 3e 56 b8 b8 be
       0.34972942 0.04873395 0.29016757 -0.36078137
000150 0b 1d 46 be 09 54 8f be 9b d2 34 be 74 25 c2 3d
       -0.19347017 -0.279938 -0.17658465 0.094798
000160 cc 89 8d be a5 71 89 be f3 97 d1 3e c3 1c 2e 3e
       -0.27644193 -0.26844516 0.4093624 0.17003159
000170 3d 93 d9 3e 39 7f a7 bd e4 b3 62 be 3d 5b 46 bc
       0.42495146 -0.08178563 -0.22138935 -0.012106714
000180 2c 89 d1 be ac 55 2c bb 4c 13 99 bd 35 86 da 3e
       -0.40924966 -0.0026296182 -0.07474384 0.42680517
000190 f4 25 cb be 6d 5f b4 3d ff e7 e8 3e a3 89 1c bd
       -0.39677393 0.088072635 0.454895 -0.038217198
0001a0 67 02 83 be db 4c 1d be c3 54 f9 3e 70 01 01 be
       -0.2558777 -0.1536135 0.4869748 -0.12598205
0001b0 cc 75 d0 be 61 2b 96 bd 4a fc ed 3e 41 4b f7 3e
       -0.40714872 -0.073324926 0.46481544 0.48299602
0001c0 8b 11 cc 3e a2 02 b5 bd 2b 13 72 bd 8c 99 e6 be
       0.39857134 -0.08838393 -0.05910031 -0.45039022
0001d0 50 4f ac be d3 7d 6c be bb ad ed 3e 85 e8 37 3e
       -0.3365426 -0.23094873 0.46421608 0.17959793
0001e0 a7 7f f3 be 93 0a d1 3e 0d e0 c1 3c a7 43 f2 3e
       -0.47558329 0.4082838 0.023666406 0.4731724
0001f0 87 4c ed 3e f8 37 58 be 53 b8 2e be 92 a4 8a 3d
       0.46347448 -0.211151 -0.17062502 0.067696705

weight f4 [128, 128]
000000 62 c8 83 bc 88 0c fd bc 49 04 d3 bd ff e1 99 bc
       -0.01608676 -0.030889764 -0.10303552 -0.018784521
000010 0b e9 f6 bb fc eb 13 3d 3a ff 94 3d de 5d d1 3d
       -0.007535105 0.036113724 0.07275243 0.10222982
000020 06 ac 44 3c d9 b8 02 bd e1 28 dc bc 12 d2 eb bd
       0.012003904 -0.031914566 -0.026874961 -0.11514677
000030 28 6f 52 3d 57 89 e0 3d 9c 4e 82 bd 9a 1e 20 3d
       0.051375538 0.109636955 -0.0636265 0.039091684
000040 78 6e 50 3c aa d3 28 bd 25 76 7d bc 08 95 e2 3c
       0.01272165 -0.041217484 -0.015470062 0.027658954
000050 ce 2c 2e 3d 80 40 89 3d 69 5a 08 bd 34 46 55 3d
       0.042523198 0.067017555 -0.033289347 0.052068904
000060 6b 56 8d 3d 8b 1e 87 3d 0b 02 b6 bd fa aa 81 3d
       0.069012485 0.065976225 -0.088871084 0.06331439
000070 da 14 d9 bd ce 37 38 3d b1 55 ca bc e3 8d 83 3d
       -0.1059968 0.044975094 -0.024699064 0.06423547
000080 8f 8a 2f bd 4f 9d f9 3c 44 3b 72 bd 36 f1 7c 3d
       -0.04285675 0.030470518 -0.05913855 0.061753474
000090 c5 67 96 3c d6 f1 0b 3d 50 90 99 bd eb 97 a8 3d
       0.018360028 0.03416618 -0.074982285 0.08232101
0000a0 0d a6 50 bd e7 da 14 3d 93 48 93 3c e3 b8 22 3d
       -0.05093961 0.036341574 0.017978942 0.039727103
0000b0 c5 3c 19 bc 57 87 59 3d a8 3c 81 bd 69 b1 77 3b
       -0.0093528675 0.053107586 -0.063103974 0.0037794954
0000c0 c6 0a f5 3c 96 57 e9 bc 7a 83 75 bd eb e8 ad 3d
       0.029912364 -0.028484147 -0.05993984 0.08491691
0000d0 28 35 9c bd be 03 59 bd ab 3f 79 38 da ca 9e bd
       -0.07627326 -0.052982084 5.942552e-05 -0.077535346
0000e0 3a 86 5d bd 16 48 a1 3d a1 2c 6b 3c f3 b1 8f bd
       -0.054083087 0.078750774 0.014353902 -0.07016363
0000f0 9e 37 4b 3d 93 ce e8 bd d9 d7 2b bd 48 58 9a bd
       0.049613588 -0.11367526 -0.041953895 -0.075363696
000100 38 fa 42 3d 56 9a ea 3d 54 f1 e6 bc fc 2e ed 3d
       0.04760191 0.114552185 -0.028191246 0.11581227
000110 2f a7 90 bc ca 76 4d bd ea 1c a0 3d 83 f6 f1 bc
       -0.017657844 -0.050162114 0.07818015 -0.029536491
000120 d9 f4 12 3d 9f 57 86 bd a5 20 26 3d ff ef 65 3d
       0.035878036 -0.06559681 0.040558476 0.05613708
000130 d1 f7 1a bd e8 2f 47 3d 1b 6a 93 3c 42 64 f5 3c
       -0.037833992 0.04862967 0.017994931 0.029955033
000140 d3 46 7d bd c3 59 1c 3d 6c 69 ae ba 73 73 95 3d
       -0.06183512 0.03817154 -0.0013306565 0.07297411
000150 e7 59 7b 3d d1 f8 80 3d 72 6e 8b bd d9 f1 69 bd
       0.061365034 0.06297458 -0.06808175 -0.05711541
000160 5a d2 e0 3d 7b c6 83 bd 90 04 6d 3c 37 f5 9a bc
       0.109776214 -0.064343415 0.01446642 -0.018915756
000170 17 b3 d0 bd 45 90 99 3d 33 f1 4a 3d 07 36 93 3d
       -0.10190409 0.0749822 0.04954643 0.07188039
000180 83 93 c2 bd a7 ec 6a 3c c5 f3 00 3d e7 96 26 bd
       -0.09500792 0.014338649 0.031482477 -0.040671255
000190 6e 77 4c 3d 7f 63 93 3c 93 cc 22 3d b3 02 d8 3d
       0.049918585 0.01799178 0.03974588 0.1054739
0001a0 ff a9 17 bd 78 55 6b 3d 2e c7 57 3d ff 8d 25 3d
       -0.037027355 0.057454556 0.052680187 0.04041862
0001b0 b3 7e 9f 3d 76 27 53 bc 7c c5 24 3d 29 32 c5 3c
       0.07787838 -0.012887826 0.0402274 0.02407177
0001c0 8f 1e 6f 3d 59 c3 c2 3c de 29 50 bd aa 4f 21 3d
       0.058378752 0.02377479 -0.050821178 0.039382614
0001d0 00 6d 81 bd f3 1e a6 3d ac 32 31 3d 7f 3f 96 bd
       -0.06319618 0.08111372 0.043261215 -0.0733633
0001e0 8a 4f 2e 3d 94 54 32 ba f9 49 08 bd d9 ae 31 3d
       0.042556323 -0.0006802764 -0.03327367 0.04337964
0001f0 86 04 fb bb ab e8 5e 3d a7 ae b0 3d df 2d ce bc
       -0.0076604513 0.05442111 0.08627062 -0.025168357
000200 dc ef b0 3d 5c 5c f2 3c 42 65 0c bc 7a 2e a3 3d
       0.086394995 0.029585056 -0.008569064 0.07967849
000210 4a 53 f4 3c c6 4e b2 bb c3 be 0d bd 77 93 c9 3d
       0.029824872 -0.0054415194 -0.034605753 0.0984258
000220 de 88 4f 3d ae 09 aa 3d 67 2c 78 3c 62 5e 12 bc
       0.050667636 0.083026275 0.015147305 -0.008933635
000230 ff d9 c5 bb 8c 5a 16 3b 70 65 1d bd bb 97 fb 3c
       -0.00603795 0.0022942154 -0.038426816 0.030712
000240 1a 2d cc bc 29 e5 41 3d 84 b6 48 bd f5 31 99 3d
       -0.02492385 0.047337685 -0.049002185 0.07480232
000250 e0 a4 00 3d 86 ea 4c 3d 47 14 42 3d 0a d9 10 3d
       0.031407237 0.050028346 0.04738262 0.035363235
000260 8d f5 aa bd e0 7e b2 bd 49 49 91 bd 71 47 53 3c
       -0.08347616 -0.08715606 -0.07094056 0.012895451
000270 a8 18 23 bc 62 eb 70 3d d9 0a a1 3d 0e 3a 2f bd
       -0.009954609 0.05881823 0.07863397 -0.042779975
000280 5f 18 2f 3d cd a8 c2 3d 15 66 cb bc 92 9c 88 bd
       0.04274785 0.095048524 -0.02482895 -0.066704884
000290 54 5c 5e 3d 66 61 04 bd 23 ae 87 bd d7 77 b3 3d
       0.05428727 -0.03231945 -0.06625011 0.08763092
0002a0 5d 90 0c bd a0 e7 9d 3a 46 56 38 bd dc 08 8f bd
       -0.034317363 0.0012047179 -0.04500415 -0.06984112
0002b0 73 7e 89 3d 9b ad 06 bd 9e 4a c0 3d 38 77 3f bc
       0.067135714 -0.032880407 0.09389232 -0.011686139
0002c0 76 d4 8b bd a0 85 4b bc 10 04 97 3b 8b 9c cb 3c
       -0.06827633 -0.012421995 0.0046086386 0.024854919
0002d0 59 ee 68 bd 85 0b ac 3d ba ba 0f bd 26 7e 2e 3d
       -0.05686793 0.08400635 -0.035090186 0.042600773
0002e0 6e e7 5a bd 80 43 bf bc b4 eb 8e bc 66 34 12 bc
       -0.053443365 -0.023347616 -0.017446376 -0.008923626
0002f0 d6 11 86 bd 37 96 0f bd 34 69 90 bd 4d 4c 1b bd
       -0.06546371 -0.035055365 -0.07051316 -0.037914563
000300 b9 86 1f bd d1 16 23 3d 81 4d c1 3d 50 d9 30 3d
       -0.03894684 0.03981668 0.09438611 0.043175995
000310 fd a8 33 bc a0 9f b1 bb 3d 08 34 bd 5d ab e2 3d
       -0.010965583 -0.00542064 -0.04395317 0.11067841
000320 ce f9 4b bd 2e 1f b6 3d e4 66 53 bd 9c b1 43 bd
       -0.04979878 0.08892666 -0.051611796 -0.047776803
000330 7e 0b c9 3c 27 4a d7 3c 14 cb f5 3b 9f eb 39 3d
       0.024541613 0.026280476 0.0075010154 0.04539072
000340 50 5c 33 3d 0d 97 a1 3d 55 8b 17 3c 27 9f 8c 3c
       0.043789208 0.07890139 0.009249528 0.017165734
000350 28 f7 81 bc db 4f 76 3d 50 3d 5d bc e0 a5 76 bd
       -0.015864924 0.06013475 -0.013503388 -0.060216784
000360 18 f6 a9 3d 9c 33 13 3d f6 d7 5b bd d1 ce 3c bc
       0.08298892 0.03593789 -0.053672753 -0.011523918
000370 1c 0e 7b bd 5b 2a 85 3d e0 89 a2 3d 19 70 a4 3d
       -0.061292753 0.06502219 0.07936454 0.080291934
000380 3e 07 88 bd 89 2a 40 3d 70 a7 06 3d 0e d1 52 bd
       -0.06642006 0.046915565 0.032874525 -0.0514689
000390 88 1f d8 3c cb 6f 63 bd 4f e0 b2 bc ed fa 1b bd
       0.026382223 -0.055526536 -0.021835474 -0.0380811
0003a0 30 a6 1d 3d ba fb 3a bd e5 56 11 3d ef ea cb 3c
       0.038488567 -0.04565022 0.03548326 0.024892299
0003b0 60 70 c8 bb 79 38 90 bd 42 f5 c5 3d dd a9 87 bd
       -0.006116912 -0.07042021 0.0966592 -0.06624196
0003c0 a2 ab 97 bd e8 39 05 3b 41 0b 18 3d 5f 76 66 bd
       -0.07405783 0.0020328704 0.037120108 -0.05626523
0003d0 de 5c 2c bd 96 9b 52 3d 00 5e 4f 3d d9 19 1d 3c
       -0.042080753 0.05141791 0.050626755 0.009588682
0003e0 d6 61 30 3b 38 36 9d bc d2 50 82 bd 4e 96 a5 bd
       0.0026913784 -0.019190893 -0.063630715 -0.08085309
0003f0 66 64 b1 3d 4d 51 99 3d d9 68 94 3d ae e1 bb 3d
       0.086617276 0.0748621 0.072465606 0.09173904

bias f4 [128]
000000 5a 3c 00 bd 8d 2d 15 3d 1c ec 56 3d 3c 7f 8a bd
       -0.031307556 0.036420394 0.052471265 -0.06762549
000010 bd 15 9d bd 2c 98 fd bc 08 5a 18 3c 1a 4b 01 3d
       -0.07670162 -0.03095635 0.009298809 0.031565763
000020 f8 45 61 3d 35 55 8a bd 42 cd 82 3d 47 f7 64 bd
       0.054998368 -0.06754533 0.06386806 -0.055899885
000030 a6 df 8a bd 26 53 c9 3d 94 81 a3 bc 40 eb 45 bc
       -0.06780939 0.098303124 -0.019959249 -0.012080014
000040 b4 33 84 bd a4 48 1b bd 8b f0 a9 3d e3 25 09 3d
       -0.06455174 -0.037911072 0.08297833 0.033483397
000050 cc 42 59 3c f4 81 ab 3d 2d 24 c9 bc 59 94 41 bd
       0.0132605545 0.08374396 -0.024553383 -0.047260616
000060 76 02 64 3d 50 6e 0e 3d 23 f4 88 bd 9e e4 87 3d
       0.05566641 0.03477317 -0.066871904 0.06635402
000070 8e eb f7 3b b4 6b c3 3d aa 07 4d 3c 30 b3 23 bd
       0.007565922 0.09542027 0.012514034 -0.03996581
000080 50 e0 bc 3c 06 4b 92 3c a8 e1 35 bd 5f cb de ba
       0.02305618 0.01785804 -0.044404656 -0.0016997865
000090 9d 15 8e bd ee 88 4d 3d 35 07 a4 bd 9e d4 75 bd
       -0.06937716 0.050179414 -0.08009187 -0.06001722
0000a0 4f e5 40 3d dd a6 d0 bc 62 58 84 bd da cd 7c bd
       0.047093686 -0.025470192 -0.0646217 -0.061719753
0000b0 90 30 2a bd 32 70 64 bd d0 45 cc 3c 0b 9d 86 bd
       -0.04155022 -0.05577106 0.024935633 -0.06572922
0000c0 7d 2d 50 bd a9 3f b8 3d 92 59 8b bd 87 f7 a8 3d
       -0.05082463 0.08996517 -0.068041936 0.08250337
0000d0 4e c0 0a 3d 0b 2b c2 3d d5 66 54 bd 7e eb 07 bd
       0.033874802 0.09480866 -0.05185588 -0.033183567
0000e0 77 bd 18 3c 07 a1 66 bd 87 70 9d bd 12 7d a8 bd
       0.009322516 -0.05630591 -0.076874785 -0.0822698
0000f0 a4 ee 30 bc 34 b0 23 3d 33 d4 84 3d e3 94 bf 3a
       -0.010799084 0.039962962 0.06485786 0.0014616515
000100 9f 98 8f 3b b8 18 91 3b c2 c2 7c bc 58 05 9b 3d
       0.0043822075 0.0044279955 -0.015427293 0.075693786
000110 80 25 39 bc 02 24 d4 3c 93 ca 40 bd b9 2b 67 bc
       -0.011300445 0.025896076 -0.04706819 -0.014109545
000120 22 da df bc d4 34 5b bb f7 05 ab 3d aa cd a6 3d
       -0.027325694 -0.0033448236 0.08350747 0.08144696
000130 88 55 85 3d 66 04 03 bd e7 6a 16 bd 14 61 b0 bc
       0.065104544 -0.031986617 -0.036723044 -0.021530665
000140 40 f4 8a bc 23 06 13 bc 26 c3 36 3d 10 b6 11 3b
       -0.01696217 -0.008973631 0.0446197 0.0022233762
000150 a9 a1 96 bb 9b b1 8d bd a9 35 83 3d 4b 6f b2 bd
       -0.004596908 -0.06918641 0.06406719 -0.08712634
000160 e5 34 99 3d f4 48 cd bc a2 e9 a3 bc 75 dd ce bc
       0.07480792 -0.0250592 -0.020008866 -0.025252083
000170 fc 37 36 3c 06 68 b4 3d fb 12 43 bd 79 c2 b3 bc
       0.011121746 0.088089034 -0.047625523 -0.021943318
000180 28 78 81 bd f9 ee 39 bd 57 b6 89 3d 0f 17 d7 bc
       -0.06321746 -0.045393918 0.06724232 -0.026256112
000190 bc eb a5 bc 54 73 d6 bb 2f 24 7a bd 66 92 d5 bc
       -0.020254008 -0.00654451 -0.061069664 -0.026070785
0001a0 94 38 9e 3b 3e 67 8a bc 9d a8 8f 3d 2e 9e 86 bd
       0.004828522 -0.016894933 0.07014582 -0.06573139
0001b0 2f ee 93 bd 10 28 89 3b 4a 1e 50 bc 3b e8 5e 3d
       -0.07223164 0.004185684 -0.012702534 0.05442069
0001c0 d6 fd 44 bd df c5 61 bd 95 cf 81 bd fc 4a 58 3d
       -0.04809364 -0.055120345 -0.06338421 0.052805886
0001d0 3a 18 88 3d 18 b4 c1 bd f0 18 11 3d 80 59 c8 bc
       0.06645246 -0.09458178 0.035424173 -0.02445674
0001e0 56 4e 82 bd ed 8a ab bd b5 9e 8b 3d e0 d9 63 3d
       -0.06362598 -0.08376107 0.0681738 0.055627704
0001f0 48 de 7e 3d 60 19 c2 3c d5 fe 32 3d f6 65 22 bc
       0.062223703 0.02369374 0.043700058 -0.009912005

weight f4 [1, 128]
000000 32 02 04 3d 95 62 be 3c df f2 90 bc e6 7e ed bc
       0.032228656 0.023240367 -0.017693935 -0.028991174
000010 32 c1 c4 bc 15 80 95 bd 38 5b 4d 3d 49 3c 44 bd
       -0.024017904 -0.0729982 0.05013582 -0.047909055
000020 f9 2d 79 3d a2 17 72 3d ad f4 57 bd 2e 6a c7 bd
       0.06083486 0.05910457 -0.052723575 -0.09737049
000030 10 45 67 3c f7 09 a6 bd 75 44 af bd 1f 23 8c 3d
       0.014115587 -0.081073694 -0.08557979 0.06842636
000040 04 52 a1 bd c0 23 c7 bd 14 bf 36 3d ae 42 87 bc
       -0.07876971 -0.09723616 0.04461582 -0.016511288
000050 4e d0 c7 bd 6b 05 af 3d f8 4a 99 bd 19 93 23 3d
       -0.09756528 0.08545955 -0.07485002 0.039935205
000060 40 f0 a1 3b 3a ca 6d bb ad cf 6d 3d 3d f0 b4 3c
       0.00494197 -0.0036283867 0.058059383 0.02208721
000070 05 3b 31 bd 0f 54 80 bd fc d7 a0 bd 8d 45 db 3d
       -0.043269176 -0.06266033 -0.07853696 0.10706625
000080 3d 76 a0 3d 03 49 bc bc bc bd bd bc 68 83 68 bc
       0.07835052 -0.022984033 -0.023161761 -0.014191486
000090 83 c1 c7 bc c9 87 99 3d 11 23 9b bb 94 0d 2f 3d
       -0.024384266 0.07496602 -0.004734405 0.04273756
0000a0 f4 f2 96 3d 07 c3 96 3d 6d 8f c0 bd 69 db 94 bc
       0.073705584 0.07361417 -0.09402356 -0.01817103
0000b0 c1 e6 3c 3d e4 dd 73 bd f7 63 02 3d 8d b3 9c bd
       0.0461185 -0.059537783 0.031833615 -0.07651434
0000c0 9c be b1 3d 9c 60 bd bd 5d 3d 2a bd 63 16 a2 3d
       0.08678934 -0.092469424 -0.041562427 0.07914426
0000d0 43 e6 48 bd 5b 62 aa 3d 6e 38 cb 3d 8e f3 92 3d
       -0.04904772 0.08319541 0.099228725 0.071753606
0000e0 d6 28 b5 3d bb 37 cc bd 30 02 87 bd cc 6a 91 bd
       0.088456795 -0.09971567 -0.06592214 -0.07100448
0000f0 63 78 22 3d 4d 4c bc 3a 36 84 66 3d bd 3d 5f 3d
       0.03966559 0.0014366001 0.05627843 0.054502238
000100 d4 3c cc 3d 36 0c 9b bd 0d 16 20 3d 0e db a0 3d
       0.099725395 -0.075706884 0.03908353 0.07854281
000110 04 12 81 bd 07 3a 09 bd e6 f4 04 3d 7e 5a 90 3d
       -0.06302264 -0.033502605 0.032460116 0.0704851
000120 de ac c9 bd f0 2f 5d bd 13 26 63 bd 20 2e 1b bd
       -0.09847425 -0.054000795 -0.055456232 -0.037885785
000130 0b e0 8c 3d 24 a1 e7 3c 04 c3 1b bd 84 a8 b8 3c
       0.0687867 0.02827508 -0.03802778 0.022541292
000140 87 a3 a7 bc 8b e7 a3 3c 59 28 d4 3d 67 90 9e bd
       -0.020463718 0.02000787 0.10359258 -0.07742386
000150 56 4e 12 bd a0 f1 41 3b b4 27 53 3d 09 80 4c bd
       -0.03571924 0.0029593483 0.051551536 -0.04992679
000160 52 90 46 3d 0c 9c e0 3c aa 28 bc bc 46 9c 8e 3d
       0.04847748 0.027418159 -0.022968609 0.069634005
000170 93 be af bd 21 4a ef bc d1 61 98 3d 9d 5e 4b bd
       -0.08581271 -0.029210152 0.07440532 -0.049650777
000180 e3 7f 2c bd 1c fd 7f bd 43 db bb bc e2 84 2a bd
       -0.04211415 -0.062497243 -0.0229317 -0.041630633
000190 10 58 d0 bb d5 ec 28 bd c5 cd d2 bc 8b f5 a4 bd
       -0.006358154 -0.041241486 -0.025732884 -0.08054646
0001a0 82 c5 b6 bd b2 76 2a bd d2 6f f2 3c 4f 1c bf 3d
       -0.089243904 -0.041617103 0.029594336 0.09331571
0001b0 60 99 af 3d b2 be 0b bd cd ac 82 bc d6 13 44 3d
       0.08574176 -0.034117408 -0.015951538 0.04787048
0001c0 bf 45 2c 3d 05 7e 77 3d 96 d1 34 3d 76 1d 1c bc
       0.042058703 0.060422916 0.04414519 -0.009528508
0001d0 76 d1 8a 3d ae 22 ac 3d f5 39 7e bd 0a 37 a7 3d
       0.06778233 0.08405052 -0.06206699 0.08164795
0001e0 40 5d 92 bc c8 7b 0e bd ef 37 6d 3d f6 85 a0 bc
       -0.01786673 -0.034786016 0.05791467 -0.019595128
0001f0 e8 11 3f bd 43 26 06 bd f1 07 32 bd e7 b9 58 bd
       -0.046647936 -0.032751333 -0.043464605 -0.052911665
