save/data_4.pt (torch, 72527 bytes, 5 tensors)

weight f4 [128, 4]
00000000: 8bc5 ba3e 3ac4 d13e f191 8f3e 4b17 c1be
00000010: ade0 c53e 3ab9 c8bc 899e abbc 0421 99be
00000020: 3449 67be e634 03bf 514b d73b 2435 eb3e
00000030: a053 e6be d71a 0cbe bff5 253e f3ef 003f
00000040: 0f5c a1be 5228 b33d 514d a03d 6f68 d73c
00000050: 0d3f 9fbe 7d1c ad3e 69f7 723e 25c8 49bd
00000060: 8370 bebe 7365 d5be cec4 d83e 0221 00bf
00000070: e01c 823e f8e6 693d 5642 053f 1874 8b3e
00000080: aba7 3b3e 9f91 9b3e 7435 b2be dd68 12be
00000090: b941 aa3e 1cc2 723e 68f5 873e 14e3 d2bd
000000a0: 41ae 95be 2e57 e7be e3ea dd3e bfae 903e
000000b0: 216c 32bd 840f e83e d2d5 c23e f80b ef3d
000000c0: 2156 45be 132e 413e 157d ed3e 5d58 0ebe
000000d0: 3ff3 a0be 807e 003f d5fb 063e f8d2 be3c
000000e0: f50c e93d d72c cabe c55c aabe 0d3d c0be
000000f0: 2474 0bbe e86d d4be dfbb 863e 1520 643d
00000100: be6f 623e 2731 2dbe ad4b 45be 2e4a e03e
00000110: 7d8d e6be d9d9 b7be 577f dc3e ae54 983e
00000120: eeaf dc3e 5c14 3cbe 0581 523e 10fb c93e
00000130: 9305 47bc 0a20 eabe 5338 08be 040b c0be
00000140: 126c 88be 9690 c1be 179c d93e 0d4e 163d
00000150: fa91 563e e87b aabe a41c bfbe a418 7f3d
00000160: 01cc 97be 38df 883e 1177 5b3d b254 933d
00000170: f3df cabe f78b e5bd 5b14 edbe 4797 ed3e
00000180: 576a ea3e 251e 203e 8152 e13e 8888 acbd
00000190: 6321 71be c32a f13e bd6a efbe b454 f13e
000001a0: 8b43 b13e 0801 99be 687a f93e ff2a 2dbd
000001b0: 8696 dbbe d392 7fbe b1f6 51be 2db0 b0be
000001c0: b6b9 ca3e 0ea2 d43b 3de7 823e 1c13 003f
000001d0: 32cf a43e 523d 243e 2e4c c3be 87d2 db3e
000001e0: cba8 973d 4e47 babe ff5f c6be 599a db3d
000001f0: 26e1 5cbe 5e16 5ebe ea4e cb3e 8b46 29bd
00000200: 9563 8bbe 2006 5e3e 7bee 923d 10f8 a03e
00000210: e6b6 cebe 4699 a9bd 14aa f6bd a5f6 e53e
00000220: d45c 513e c2c1 6bbe d9a3 e7bd a64d 023e
00000230: 004c b63e b32a 553c 1e65 08be e2aa fa3e
00000240: 281e edbe 05ee 033d fdca 503d afef 093e
00000250: 3ca0 b8be 54b8 e73e dfa3 cc3e 80ad 75be
00000260: f167 033f 0673 b8bd 489d b3be 40c2 653e
00000270: 9f71 adbc fdad 98be 1dba 033e bc22 52be
00000280: 9e95 ed3e 4e92 ee3e 0057 373e 236c 523e
00000290: fd86 a6bc da5e bdbe b511 0bbd af9c 8fbe
000002a0: f84c d1be 7bab a2bd 4b4f 8abe b139 923e
000002b0: 9cdd 333e 699e 28be ccd5 febe ee6a debe
000002c0: 8107 cabd dc27 7abe 4f60 e03e d7a2 98be
000002d0: 9f12 a93e 5ab7 bb3e 5698 d73e eeba c33e
000002e0: bac8 0bbd 7bd6 a1be 562f 7f3e 4f12 953e
000002f0: 7602 fcbb 1f89 e9bd 2598 6fbe 63c8 913e
00000300: eb3d dabe c8aa 93be 98ce 923e e0e6 4c3e
00000310: 7ffc 97be 0bb8 02bf 0d12 743d ea0c 583e
00000320: 6821 febe ecbc 01bf d19d 54be 99a4 1cbe
00000330: a111 e7be 3751 933d 41c7 83be 27f1 e23e
00000340: ac03 2e3d 7be5 d9bd 6060 69be aa9f ecbe
00000350: 6661 e43e cdc9 9e3e 999f ebbe 8c4d a33e
00000360: 97e4 133d c4ff fd3d 64df 103e 8f4c ad3e
00000370: ed2f 953b a5f3 dd3e f935 c13e a080 dcbe
00000380: 4dc9 ff3e 88da 5a3e 8365 8abe 4b14 edbd
00000390: a88a 0ebe e414 08bf cd8b b63e 62eb 52be
000003a0: 4255 9bbd fc28 943e 959b c93e 5ba8 cabe
000003b0: 1f23 c63e b4b6 05bf 8b9c 393e 6d97 dfbe
000003c0: 409f 843e 0e9d a1be b5ce a83d ecbb 403e
000003d0: cd4a 803d 498a af3e 0f96 cebe ae6c a4be
000003e0: e3b6 cc3d 80e0 243e ee9e c1be b4f3 c2be
000003f0: 97d1 01bf b116 a83e 97b9 fbbe 6910 ebbd
0.36478838 0.4097002 0.28041032 -0.37713084 0.38647977 -0.024502385 -0.020949619 -0.29908
-0.22586519 -0.5125259 0.0065702577 0.4593898 -0.44985676 -0.13682114 0.16207026 0.50366133
-0.31515548 0.08747925 0.07827247 0.026294915 -0.3110279 0.33810797 0.23727192 -0.04926314
-0.37195215 -0.41678962 0.4233765 -0.50050366 0.25412655 0.057105035 0.52054346 0.2723701
0.18325679 0.30384538 -0.34806406 -0.14297815 0.33253267 0.2370686 0.26554418 -0.10297218
-0.29234508 -0.451837 0.43343267 0.2825832 -0.04356015 0.45324337 0.38053757 0.11672205
-0.19271137 0.18865232 0.46384493 -0.13900895 -0.31435582 0.50193024 0.13182004 0.023293957
0.113794245 -0.39487335 -0.33273903 -0.37546578 -0.13618523 -0.41490102 0.2631521 0.05569466
0.22112939 -0.16913281 -0.1926715 0.43806595 -0.45029822 -0.35908392 0.43065903 0.29752105
0.43102974 -0.18367141 0.2055703 0.39449358 -0.012147325 -0.4572757 -0.13302736 -0.37508404
-0.2664495 -0.37805623 0.425019 0.03669553 0.20954123 -0.33297658 -0.3732654 0.06227936
-0.2964783 0.26732802 0.053580347 0.07193889 -0.39623985 -0.11208337 -0.46304592 0.46404478
0.45784256 0.15636499 0.44008258 -0.08424479 -0.23547892 0.47102937 -0.46761122 0.47134936
0.34621844 -0.298836 0.487262 -0.042277332 -0.42888278 -0.24958353 -0.20504262 -0.3450941
0.3959481 0.006489045 0.25567046 0.5002916 0.32189327 0.16039017 -0.38144058 0.42934057
0.074052416 -0.36382526 -0.38745114 0.10722799 -0.21570262 -0.2168822 0.39708644 -0.04132704
-0.27224413 0.21682024 0.07174393 0.31439257 -0.40373915 -0.08281188 -0.120441586 0.44914737
0.20445567 -0.23023131 -0.11310548 0.12724933 0.35604858 0.013010669 -0.13319823 0.48958498
-0.4631207 0.032209415 0.050974835 0.13470338 -0.3605975 0.4525782 0.39968774 -0.23991966
0.51330477 -0.09006314 -0.35080934 0.22437382 -0.021172343 -0.29820243 0.12863965 -0.20521063
0.4640321 0.46595997 0.17904282 0.20549063 -0.02032804 -0.36986428 -0.033952434 -0.28049228
-0.40879035 -0.079428636 -0.2701362 0.2855964 0.17565006 -0.16466679 -0.4977249 -0.43440956
-0.098647125 -0.24429268 0.43823478 -0.29811737 0.3302202 0.36663324 0.4210841 0.38228554
-0.034126975 -0.31608948 0.24920401 0.2911553 -0.007690723 -0.11403107 -0.23397882 0.28473195
-0.42625365 -0.28841233 0.28673244 0.20009947 -0.29684827 -0.5106208 0.059587527 0.21098676
-0.49634862 -0.50678897 -0.20763327 -0.15297164 -0.45130637 0.07193225 -0.25737956 0.4432461
0.04248397 -0.10639473 -0.2279067 -0.46215564 0.4460556 0.31013337 -0.460202 0.318951
0.036106672 0.12402299 0.14147717 0.33847472 0.0045528323 0.4334995 0.3773649 -0.43066883
0.49958268 0.21372426 -0.27030572 -0.11576136 -0.1392008 -0.53156877 0.35653535 -0.20597604
-0.07584621 0.2893752 0.39376512 -0.3958157 0.3869867 -0.5223191 0.18126123 -0.43670216
0.25902748 -0.31565136 0.08242551 0.18821687 0.06264267 0.3428519 -0.4034886 -0.32114166
0.099958204 0.16101265 -0.37816566 -0.38076556 -0.50710434 0.32829812 -0.4916503 -0.11477739

bias f4 [128]
00000000: f34d 1ebe 1a85 463e d6b6 b3be e19e f6bd
00000010: 9176 ea3e 2ea1 e33d bac0 87be 1e4f fcbc
00000020: 05e7 96be 9f9b 82be 0136 bbbe 68a2 d4be
00000030: b221 203d 490d 1f3d fd3f e2be f868 97be
00000040: b82e 55be f103 7bbe 3f92 a33d d0b1 0dbd
00000050: 1626 a5be d357 a73e 9ff7 11be c0cd b03e
00000060: e5f8 823e 9b17 a6be f0c6 d7be 9a69 27be
00000070: ecb3 06bd fcd4 03be 39d1 2e3e fc24 d83e
00000080: 1b23 213e e7b0 ebbc 9963 853e b232 203e
00000090: 5f56 8c3e 5cb3 a8bc 61b1 703e b6c4 b7be
000000a0: 1a1d a2be 7d83 c43e 6b03 143e e69f 793e
000000b0: af66 88be 6292 423d c70d d6bc 3a06 423e
000000c0: a099 a4bd 4932 bd3e f072 df3a a01a b5be
000000d0: b598 48bd 7f55 203e 4ba4 d2be 249f abbe
000000e0: 8ef4 503e c04a 8fbd b08c d33e 9058 4d3d
000000f0: 9e3c e6be d2a9 a0be a996 913c 89b4 a63e
00000100: 4af0 153e 166a 043f 003e c73c 6c8f 3d3e
00000110: dad1 5f3e c689 d8bd f951 b8bd 1566 813d
00000120: 4ef5 503d e0e0 a23e b4f0 df3e d3e5 e63e
00000130: 32c4 a9be d4e8 f6be 4d1e b43e a3ae 4fbe
00000140: 6fc8 f03d fb44 6a3e 93cf 20be 3a4c 6b3e
00000150: 9afd 833e 20d4 f7be 0438 de3e e2fc 013f
00000160: 1f98 b13e 8772 d1be 2201 79be 5cc9 93bd
00000170: 251b a73e 5c20 9d3b cb24 003f 5d84 b73e
00000180: 8a35 e2be 8e7b 673e 2cea 8c3e 41f6 ca3e
00000190: 16c6 bfbe 0486 bdbe 2228 e43e ae23 bf3c
000001a0: 7675 93be fb9a 4b3e 613b 03be c5df 30be
000001b0: 40bd 5d3e 7219 c13c bb70 0cbc 7dcc 31be
000001c0: 3d27 933e 1e47 88be e373 bc3d 8e82 58bd
000001d0: b85a 1cbb 84ca 32be 40bb c5be a0f2 c1be
000001e0: a151 1c3e 686a 50be 385f efbe 3fc6 743e
000001f0: 90bc 863d 20f0 01bd a23e ba3e f460 eb3d
-0.15459423 0.19386712 -0.3510043 -0.120420225 0.45793584 0.11114727 -0.26514226 -0.030799445
-0.2947313 -0.25509354 -0.3656464 -0.41530156 0.039094634 0.03883103 -0.44189444 -0.29572272
-0.20818603 -0.24513222 0.079868786 -0.034593403 -0.3225562 0.32684192 -0.14254616 0.34531975
0.25580516 -0.32439885 -0.42143965 -0.16348878 -0.03288643 -0.12874216 0.17072 0.42215717
0.15736048 -0.028770877 0.2605255 0.15644339 0.27409646 -0.020593338 0.23505165 -0.35892266
-0.31662828 0.38381568 0.14454429 0.24377403 -0.2664084 0.047502883 -0.026129616 0.18947688
-0.08037114 0.36952427 0.0017047804 -0.35371876 -0.048973758 0.15657614 -0.4114097 -0.33519852
0.2040579 -0.06996679 0.41318274 0.050133288 -0.44968122 -0.31379563 0.017772036 0.32559612
0.14642444 0.51724374 0.024321556 0.18511742 0.21857396 -0.10573153 -0.0900001 0.06318299
0.05101519 0.3181219 0.4373833 0.45097217 -0.33157498 -0.4822451 0.35179368 -0.20281462
0.1175698 0.22877876 -0.15704183 0.22978297 0.2577942 -0.48404026 0.43402112 0.50776494
0.34686372 -0.4090769 -0.24316838 -0.07216141 0.32637897 0.0047951173 0.5005614 0.35843173
-0.44181472 0.22605726 0.2752241 0.39641002 -0.37455815 -0.37016308 0.4456187 0.023332443
-0.28800553 0.19883339 -0.1281562 -0.17272861 0.21654224 0.023571704 -0.008571799 -0.17363162
0.28740874 -0.26616758 0.09201791 -0.05285888 -0.0023857784 -0.17460066 -0.38619423 -0.3788042
0.15265514 -0.20353091 -0.46752334 0.2390375 0.06578934 -0.03172314 0.3637591 0.11493102

weight f4 [128, 128]
00000000: 8c22 a3bc 4277 1b3d e875 3a3c de86 8cbd
00000010: 2224 06bd 1c81 cb3c 1324 9f3d caa0 393d
00000020: 94c9 893c d656 743d b09f cabb e8f8 a0bc
00000030: c009 633c 4653 663d 737d 9b3d 50a5 fbbb
00000040: 78a1 53bc 9ecd 86bd 6886 553c 3dee 03bd
00000050: 0c16 b23c 1b38 9c3d 9aac 243d deee 143d
00000060: 55fb 8abd 6e60 89bd 50f9 9ebd 4a56 3e3d
00000070: 1148 82bd a028 44bb a2dd 0fbd 7486 8ebd
00000080: b9a5 3cbd 900a 71bc 7031 4f3c 062b 553d
00000090: 7ae2 333d a0e3 fbbb fad9 313d 4d79 983d
000000a0: b690 7e3d a09d 613c 6fdd 823d a10c b23d
000000b0: 0013 ec3a d874 41bc 807c bc3b a283 753d
000000c0: e0c9 28bb 31a6 9c3d b453 d63c a501 01bd
000000d0: 1116 11bd a04f afbd 025c 4f3d 900c 1ebd
000000e0: 5ec4 aebd c0fc 043b f30c a6bd 4e4c 34bd
000000f0: 9226 413d 9091 b8bc 98f3 bebc 6e92 293d
00000100: af9f 8a3d 7203 f8bc 1006 d3bb 1173 2dbd
00000110: 385f 94bc f299 643d 2001 79bd c888 9c3c
00000120: fb88 a83d f9c1 87bd 9896 33bc 0de0 85bd
00000130: de20 393d 5595 0fbd df0e b03d 2604 293d
00000140: 78a7 a53c 6a5a f9bc 1bef 913d c694 89bd
00000150: e5b6 64bd 2e4b 7f3d b0a6 e33b 86b7 96bd
00000160: ce2f 03bd bca1 87bd 68af 80bd 2801 8dbd
00000170: 6d5b a93d c07f 38bd 0b11 3cbd 7b23 843d
00000180: a0c0 f83b be73 0f3d 2644 233d 902a 803b
00000190: f7a4 833d 5ac5 56bd ac59 a4bc 80da 0e3c
000001a0: c8b3 1ebc ad41 45bd bfff 36bd 586c 14bc
000001b0: 3e0d 413d 3831 a13c 9b67 aabd 54e7 9fbd
000001c0: c09b b4bd b020 1cbc a0db 123b 0eec 363d
000001d0: e362 3fbd 10d2 aa3b 72f3 90bd 36b6 a0bd
000001e0: aaf8 21bd 0ad5 7cbd 6e92 0c3d 68fb 25bc
000001f0: cef7 333d aa63 543d 433f 99bd 2a84 2ebd
00000200: e68d d13c 5cc6 1e3d 9181 dbbc 8558 563d
00000210: aa53 c6bc 2eb3 46bd ab57 bf3d 0845 043d
00000220: 1473 73bd 3640 753d 85ff f33c 4e77 153d
00000230: 6197 103d 36bf f23b 6c57 bf3d f15d 3abd
00000240: 7b7f 24bc d951 65bd 9f31 ee3c 22f4 aebc
00000250: 4475 95bc 6f55 973d 51eb 96bd 3783 9f3d
00000260: 3ad2 f2ba 5ab4 2e3d 7afd 663c 1146 273d
00000270: 76d7 d4bd 8195 a53b f72f fabc cd8a 9abb
00000280: 8f97 273d 1379 79bc 6924 8b3c 6845 59bd
00000290: f0e7 61b9 ba95 1b3d 3885 ae3d b6fc 3b3c
000002a0: 1127 523c 46e3 723d 3fdb bf3d 1944 d83d
000002b0: ac37 803d f09f 4f3d 21b8 b3bc 4ad5 c7bc
000002c0: 2ea1 b9bc b523 9cbd a653 60bd 1885 3b3d
000002d0: e959 33bc 328c 8ebc ff22 b63d d5f9 60bd
000002e0: a689 cc3d b80c 48bd 40df 9abc 09a0 0c3d
000002f0: 0bfb 7fbd 19db fd3b 72f5 923d 10e7 57bd
00000300: b2e7 af3d 99ac c43d 81f0 36bd 7847 4c3d
00000310: fc81 c33b 358a e03c e3d5 2fbc fb98 633d
00000320: 0e6b 4fbc 95c6 55bd 0ebb 5e3d 40a8 243d
00000330: 1649 4fbd 7c3f 863d b871 df3c 96d8 80bd
00000340: 82c0 e9bc 382e 2cbc a90f df3d fcc9 b8bb
00000350: 1b48 423d f0e9 a2bd f0b2 40ba 236b 353b
00000360: 4029 43bd 5a4a 29bd b044 88bd c379 6c3c
00000370: f90f 503d cb5d 19bd b844 0d3d b354 81bc
00000380: e35a 8fbd 35af 67bd 2c8d 97b8 ad77 65bd
00000390: 765d 47bc fabc 15bd 18f8 37bc 77cf 453d
000003a0: c7c2 a53d f083 0dbd f8fa 573c a163 bebd
000003b0: 68d5 99bd 1c55 643d 7f21 ae3d a70b b73d
000003c0: 2d19 8bbd 5cc4 68bd 181c 913d 1d82 983d
000003d0: 15bf 0bbd a13a 10bd 2946 f7bc df96 763d
000003e0: 2298 81bd fe88 5bbd fca2 debc 0c56 07bd
000003f0: e7b1 203d a976 443d 3cf0 36bd dd7c ea3c
-0.019913934 0.03795553 0.01138065 -0.068616614 -0.032749303 0.024841838 0.077705525 0.045319356
0.016819753 0.059653126 -0.006183587 -0.019649938 0.013857305 0.05623176 0.07592287 -0.007679619
-0.012916915 -0.06582187 0.013032533 -0.032209624 0.021739028 0.07627889 0.04020367 0.036360614
-0.06786219 -0.06707846 -0.07762396 0.04646901 -0.06361402 -0.002993144 -0.035123475 -0.06959239
-0.046056483 -0.014711991 0.012646064 0.052042983 0.043917157 -0.007687047 0.04342077 0.07445011
0.062149726 0.013770491 0.06389891 0.08693815 0.0018011034 -0.011807643 0.0057521462 0.059939988
-0.0025755093 0.07648886 0.02616296 -0.03149571 -0.035421435 -0.08560109 0.050624855 -0.0385862
-0.08533548 0.0020292252 -0.081079386 -0.044018082 0.047155924 -0.022530347 -0.023309514 0.04139941
0.067687385 -0.03027508 -0.0064399317 -0.042346064 -0.01811181 0.055810876 -0.06079209 0.019108191
0.08229252 -0.06628794 -0.010961197 -0.06536875 0.04519736 -0.035054523 0.085965864 0.041263722
0.020221457 -0.03043862 0.07125684 -0.067178294 -0.055838484 0.062327556 0.006947361 -0.07359223
-0.032028012 -0.06622645 -0.06283456 -0.06884986 0.08269391 -0.045043707 -0.04591469 0.0645208
0.007591322 0.03502249 0.039859913 0.003911324 0.06427949 -0.052434303 -0.02006229 0.008719087
-0.009686418 -0.048158336 -0.044677492 -0.009059034 0.04713177 0.01967679 -0.083205424 -0.07807794
-0.088187695 -0.009529278 0.0022408739 0.044658713 -0.046725165 0.0052130297 -0.070776835 -0.07847254
-0.039543785 -0.061726607 0.034319334 -0.010130741 0.043937497 0.05185286 -0.07482769 -0.04260651
0.025580358 0.03876339 -0.02679518 0.052330513 -0.024209816 -0.048510723 0.09342893 0.032292396
-0.05943592 0.05987569 0.029784927 0.03649073 0.035300616 0.007408048 0.09342846 -0.045499746
-0.010040159 -0.05598626 0.029076396 -0.021356646 -0.018244393 0.07389342 -0.07369102 0.07788699
-0.0018525787 0.042652465 0.014098519 0.040838305 -0.103926584 0.0050532226 -0.03054045 -0.0047162534
0.040916022 -0.01522662 0.016985135 -0.053044707 -0.00021544076 0.037984587 0.08521503 0.011473825
0.012826697 0.059298776 0.0936799 0.105598636 0.062606186 0.050689638 -0.021938385 -0.024393696
-0.022659864 -0.07623998 -0.054767273 0.045781225 -0.010946729 -0.017400835 0.08893394 -0.05492576
0.09987192 -0.048840255 -0.018905282 0.03433231 -0.062495273 0.0077470657 0.07175721 -0.052710593
0.08589114 0.09603233 -0.044662956 0.049872845 0.005966423 0.027409652 -0.010732147 0.055565815
-0.012659801 -0.052191336 0.054377608 0.04019952 -0.05060681 0.065550774 0.027275905 -0.062913105
-0.028534178 -0.010509066 0.10891659 -0.005639313 0.047432046 -0.07954776 -0.00073508825 0.0027682267
-0.04764676 -0.041330673 -0.06653726 0.014433327 0.050796483 -0.037442964 0.034489363 -0.015787458
-0.06999757 -0.056563575 -7.2265364e-05 -0.056022335 -0.012168279 -0.036557175 -0.011228584 0.048293557
0.080937915 -0.034549654 0.013182394 -0.092963465 -0.07511407 0.05574523 0.085024826 0.089377694
-0.06791911 -0.056827888 0.070854366 0.07446692 -0.034117777 -0.035212163 -0.030184822 0.060202476
-0.06327845 -0.053597443 -0.027177326 -0.033041045 0.03923216 0.047964726 -0.0446627 0.028623993

bias f4 [128]
00000000: 38cb 6dbd 94f0 df3d 3131 bbbc 23cd 8bbb
00000010: 84dd 593d 6fce b53c c03f b83c e0ee a0bb
00000020: ad1d 32bc 0428 233d b64e af3d a2a2 e4bc
00000030: 780e 83bc 0c40 393d 1c97 abbd bbe3 a23d
00000040: 5eb9 bbbc cbb1 013d 9172 c03c 1ef7 d53d
00000050: c929 d63c adc6 9a3d 0343 293c 8d17 d53c
00000060: 00fa 42bd 6011 68bc 29ce efbc 3f36 743b
00000070: 5dd2 033c 6ce6 873d 54ed 173d f6d0 b0bd
00000080: a907 1b3d 47c0 093d e2ff 8dbc e7f5 973d
00000090: f77b 34bc b443 e6bc e401 84bd a451 c1bc
000000a0: 8754 cf3c c972 923d 1c41 533d 116a 96bd
000000b0: ae18 85bd 4a23 d63d 0cb5 5e3d 7c32 bc3c
000000c0: 26b0 26bd 6cd8 bf3d 268c 3dbb 6400 c33d
000000d0: 212b 813d 57f0 e9ba d60d 1c3c ae4e 4b3d
000000e0: 852d ae3d 244e 0abd c6fe 02bd 9c39 cdbd
000000f0: c825 cdbb 9c5c dbbb 0dde 923c f4de 9e3d
00000100: ac25 8fbd f8fd 0ebc e919 97bd 6726 733d
00000110: 2385 34bc dcf0 2b3d e541 6ebd 07a9 66bd
00000120: d295 c13d be7e 063d c8fa 753d 8e2c 46bc
00000130: d1ba fa3c ac2e 273d 17fd 3c3d a142 5b3d
00000140: 0c22 bd3d a810 c9bc 310f 85bd 0dcf e0bb
00000150: b62d b53c 986e 743d 0c18 7b3c c5a0 a23d
00000160: 5bc5 d83c f482 27bd 5efa 7b3d d9fb 4bbb
00000170: 496d b0bc efb9 503d 1842 4abd fc73 e2bd
00000180: e315 17bd b370 b7bd 013a 5bbd 4a18 57bd
00000190: 2e97 fa3c ca77 52bc 8028 333c 827d b23c
000001a0: bafe b93b 1000 893d 9f57 df3d 3c80 13b9
000001b0: cfa5 2dbd 0743 9d3d 3133 2c3d 5e1e 023d
000001c0: 236b 1c3d 261a f43d cbda 43bd a99b 89bd
000001d0: 2944 473d 272a 98bd 7261 463d 10a0 87bb
000001e0: 3861 6c3c 2293 1fbd a6f7 3fbd aac0 c33d
000001f0: 7a3e abbd 3521 683d 760e 5c3d 3845 54bd
-0.058055133 0.109345585 -0.022850605 -0.0042663976 0.05318977 0.022193162 0.022491336 -0.0049112886
-0.010871333 0.039833084 0.08559935 -0.02790958 -0.01599811 0.045227095 -0.08378431 0.079535924
-0.022915538 0.031663697 0.02349213 0.104475245 0.026142972 0.07557426 0.010330918 0.026012206
-0.0476017 -0.014164299 -0.02927311 0.0037263779 0.00804576 0.06635746 0.037091568 -0.08633606
0.037849102 0.033630636 -0.017333928 0.07419949 -0.011015884 -0.028108455 -0.06445673 -0.0235985
0.02530886 0.071508 0.051575765 -0.07344449 -0.06498848 0.104559496 0.05437188 0.022973292
-0.040695332 0.09367451 -0.0028922646 0.09521559 0.06307054 -0.0017848116 0.009524783 0.04963558
0.08504776 -0.033765927 -0.031981252 -0.10020754 -0.0062606074 -0.0066943895 0.017928148 0.07757369
-0.06989607 -0.008727543 -0.07377989 0.059362795 -0.01101807 0.04197775 -0.05816831 -0.05631354
0.09452404 0.032835715 0.060053617 -0.012095584 0.03060666 0.040815994 0.046139803 0.05353034
0.092350096 -0.024544075 -0.06497038 -0.00686062 0.022116523 0.059675783 0.015325557 0.079408206
0.026461294 -0.04089637 0.061518066 -0.0031125455 -0.021536486 0.05095857 -0.04937944 -0.110572785
-0.036886107 -0.089570425 -0.053522114 -0.0525134 0.030589666 -0.012845943 0.010934949 0.021788362
0.0056761177 0.06689465 0.10905384 -0.00014066783 -0.042394456 0.076788 0.042041007 0.03176724
0.03818811 0.1191905 -0.04781608 -0.06719143 0.048648987 -0.07429915 0.048432775 -0.004138954
0.014427476 -0.038958676 -0.046867035 0.09558232 -0.08361526 0.056672294 0.05372473 -0.051823825

weight f4 [1, 128]
00000000: 2566 af3d 18cc 4ebd 8d9b d13d 9ff2 433d
00000010: 2e25 c2bd c1da 893d 238e a6bd 54e8 aabc
00000020: 508f c3bd 764b aabd d343 78bd 75aa 943d
00000030: 6da5 913d 3554 813d 733e 5fbd c581 b0bc
00000040: 19f3 be3c 015e 193d 9efb 073e ba9a 11bd
00000050: 6116 c83c e94b a1bd 2f8c 1f3d 8b48 dd3d
00000060: 1ba7 82bd fbda 633d 4372 4ebd 76c2 d13d
00000070: 41b2 a13d 11bb bc3d 4c0e 353d 3648 a23d
00000080: 3aa0 25bd 8985 f73c 1bff 98bd 081c 9dbd
00000090: 5fb8 f43d 214f 1c3d 946e 8bbd f3c4 da3d
000000a0: fe42 ddbd f4f2 4ebd 184c cd3d 363e e13d
000000b0: 7c04 963d 8a8c 78bd 1e16 22bd f890 02bd
000000c0: a581 62bd fcb7 3cbd 6374 febc 2a5f c6bc
000000d0: 87e8 a33c 74e2 bfbd 7ac4 9a3d 8274 dfbd
000000e0: 61b3 883d 0973 a53d d3aa dd3d 7903 1a3d
000000f0: 717c 2c3d 0f95 a83d d0a8 723d 6968 28bd
00000100: b2bf a43d ce30 b43d 2429 873d 97cc e8bd
00000110: f876 a6bd 48ce a13d 6122 683d 8010 00be
00000120: d4fc b6bd da5d 9bbd 0ad6 01bd 48f1 243d
00000130: d790 fe3d e41c 0dbd 2c9e 123d e945 0bbd
00000140: d3f5 b6bd 90d6 a73d c05f 5c3d 6322 eabd
00000150: 7b87 bb3d 1661 093d 1c73 69bd d905 203d
00000160: 11d1 e8bd 9135 963d 890e 663d c52c 963d
00000170: ab8d be3d 65fe a13d fa02 9b3d 615b 143d
00000180: 53bd 3dbd 85eb bbbd 8c28 ce3b 4995 763d
00000190: 87b6 a83d 999a e3bc 32cf 55bd bf47 503d
000001a0: 1802 783d e27a 873d dece bcbd 6ea0 1fbd
000001b0: 27ca 843d 9278 72bd df63 c7bd 2aec 0d3d
000001c0: b933 633d 2701 cabd c88b 5a3d 39dd d6bd
000001d0: 01ae 8ebd d0c4 2b3c 58aa 1ebd e52a 43bd
000001e0: d18e 853d d20f 0c3d 95df c2bd de25 d6bc
000001f0: 7e03 873c def5 943d 25e9 893d 01d7 ce3d
0.085644044 -0.050487608 0.10234747 0.047838803 -0.09479748 0.06731177 -0.08132579 -0.020862736
-0.09548819 -0.08315174 -0.060611557 0.072590746 0.071116306 0.06314889 -0.054502916 -0.021546254
0.023309277 0.037443165 0.13279578 -0.03554795 0.024424734 -0.07875807 0.03895205 0.10804852
-0.06379529 0.055628758 -0.050401937 0.102421686 0.07895327 0.092153676 0.044203088 0.079239294
-0.040436007 0.030215042 -0.074705325 -0.07671362 0.119492285 0.0381614 -0.068082005 0.10682096
-0.10803793 -0.050524667 0.10024279 0.10998194 0.07325074 -0.060680903 -0.039571874 -0.031876534
-0.05529942 -0.0460739 -0.031061357 -0.0242153 0.020008339 -0.093693644 0.07557006 -0.10910894
0.06674839 0.08078582 0.10823598 0.037600968 0.042110864 0.08231556 0.059243023 -0.0411152
0.080443755 0.08798371 0.06599644 -0.113671474 -0.0812816 0.07900673 0.05667341 -0.12506294
-0.08934942 -0.0758626 -0.031698264 0.040269166 0.1242997 -0.03445138 0.035795376 -0.03400222
-0.08933606 0.081952214 0.05380225 -0.1143234 0.091567 0.033539854 -0.056994542 0.039068077
-0.11368001 0.07334436 0.056166206 0.07332758 0.09304365 0.0790985 0.07568927 0.03621996
-0.04632313 -0.09175781 0.0062914547 0.060200963 0.08237939 -0.027783679 -0.05219955 0.050849672
0.06054887 0.06615235 -0.09219144 -0.038971357 0.0648387 -0.059197016 -0.09735846 0.03464905
0.05546925 -0.09863501 0.053355962 -0.104914136 -0.06966782 0.0104839355 -0.03873667 -0.04764833
0.06521381 0.034194775 -0.09515301 -0.026141103 0.016481157 0.07273458 0.06733922 0.100996025
