save/data_2.pt (torch, 72527 bytes, 5 tensors)

weight f4 [128, 4]
000000 38 74 f0 bd dd 08 d6 be 95 64 8f 3e ab 1e a9 be
       -0.11740917 -0.41803637 0.28006425 -0.3303121
000010 80 14 63 be 2b ef 0e be d6 00 bd be 33 40 6b 3e
       -0.22175789 -0.13958423 -0.369147 0.22973709
000020 c6 46 dd be 80 62 cb 3b 52 fc c6 be f0 da 2e 3e
       -0.43218058 0.0062068105 -0.3886438 0.17075706
000030 9f eb bf be 0a f9 e1 be a7 38 71 3e f1 2d 20 3e
       -0.37484452 -0.44135314 0.23556767 0.15642525
000040 ae 41 b2 3e 82 c9 ae be 06 dc bf bd d2 d5 b5 be
       0.34815735 -0.34138113 -0.09368138 -0.35514694
000050 04 fa ef be b1 2f 28 be 8b 7a 04 bd 9b c4 57 3d
       -0.46870434 -0.16424443 -0.03234343 0.052677732
000060 81 ee c5 3e f1 89 da 3e 66 90 6e 3e ac f9 d6 3e
       0.38658527 0.42683366 0.23297271 0.4198736
000070 94 b4 43 be d0 d4 e0 bd 00 bd f6 bd e6 6f b0 3e
       -0.19111854 -0.10978091 -0.12047768 0.34460372
000080 c8 c0 cb be 9f 87 ce be 4b 35 ec be f6 a7 d8 3e
       -0.39795518 -0.40337846 -0.4613441 0.42315644
000090 da 2f f7 3e 5a 47 06 3c bc 2c 1a 3d 81 0b 80 be
       0.48278695 0.0081957225 0.03764032 -0.25008777
0000a0 b4 d2 d7 3e b2 28 87 be 81 89 c8 be 33 81 d7 3e
       0.4215294 -0.26398236 -0.39167407 0.4209076
0000b0 13 e8 d7 be a0 df 86 be 2a eb f9 3e 5d 9b c4 3e
       -0.42169246 -0.26342487 0.48812228 0.38399783
0000c0 1a d8 4c bd b5 dc bf be 3f 8d 15 bd e9 4b f7 be
       -0.050010778 -0.37473074 -0.036511656 -0.48300102
0000d0 d2 2e 57 be e8 2f 34 be 5b cf 9b 3e 29 fb 77 be
       -0.21013954 -0.175964 0.30431637 -0.24216904
0000e0 26 f1 8f 3e 63 a5 fa 3d fc e5 71 3e f3 78 b9 3e
       0.2811367 0.12238576 0.23622888 0.3622509
0000f0 4e 0f 56 be cc 18 88 3e 0c 73 b0 bd f8 d8 a9 bd
       -0.20904276 0.2658142 -0.086156934 -0.08293337
000100 8b 05 44 be f7 5f 91 be 4a 96 6d 3d e5 5a 8f bd
       -0.1914274 -0.28393528 0.058004655 -0.06999759
000110 0f 52 38 3d 89 1e f0 be ea 1e f1 be 4d e2 bd 3e
       0.045000132 -0.46898296 -0.47093898 0.37086716
000120 9e 17 88 be 68 15 ed bd 08 28 7b be 40 1c c1 be
       -0.26580518 -0.115763485 -0.2452699 -0.37716866
000130 3e ff 09 3e 7b 09 bb 3c 5c d8 09 3e a0 cc ea be
       0.13476273 0.02283167 0.13461441 -0.4585924
000140 f5 ff 48 bd 5e 26 c1 be 46 2a cb be 1b 9a 62 3e
       -0.049072225 -0.37724584 -0.3968069 0.22129099
000150 d6 f6 d7 3d 06 7d fa be df 12 2f 3e b2 01 d4 3e
       0.10545127 -0.4892351 0.17097043 0.41407543
000160 3a 6d 03 3f 8f b5 cb 3d 37 c9 83 be ae e3 8d 3e
       0.5133854 0.09946739 -0.25739452 0.27712768
000170 1a 7f d1 be 6e 6f 80 be db 95 c2 3e 99 02 82 3e
       -0.40917283 -0.25085014 0.38004956 0.25392607
000180 a8 02 77 3c 32 9d 1d be 43 ef ff 3e 46 42 fb 3e
       0.015076317 -0.15391997 0.4998723 0.49074
000190 a3 ac ab bd 78 db 2e 3e 7e ff 40 3e be 2d b1 3d
       -0.08382537 0.17075908 0.18847463 0.08651303
0001a0 18 f9 e4 be b3 49 55 be b4 53 c5 3d 18 5a c2 3b
       -0.44721293 -0.20828895 0.09635106 0.00593115
0001b0 b1 71 d8 bc 21 51 38 bd cf b0 81 3e 9f ed c2 3e
       -0.0264214 -0.044999246 0.25330207 0.38071916
0001c0 8c f6 4a 3e 43 d3 29 3c 05 94 8d be 4d 78 77 be
       0.19820613 0.01036531 -0.27651992 -0.24166985
0001d0 0b 6e f0 bc f4 2d 78 3e 87 15 f3 be 15 36 d2 be
       -0.029349348 0.2423628 -0.47477362 -0.41056886
0001e0 6f aa 2d be 8b 11 6a 3e aa d4 97 3e 4b c4 c5 3e
       -0.16959547 0.22858255 0.29654437 0.38626322
0001f0 4c e1 be 3e 85 ee a4 3e 66 e5 6e 3e 55 6f a3 3e
       0.37281263 0.32213226 0.23329696 0.31920877
000200 16 dc 9f 3e 65 e3 3c 3e 94 7d 82 3e c9 c4 7b 3d
       0.312226 0.18446119 0.25486434 0.061466966
000210 29 9c 6a 3b db 20 c3 3e 6e c9 72 be f7 21 74 bc
       0.0035798645 0.38111004 -0.23709652 -0.014900676
000220 68 42 c9 3e e5 82 99 bd a8 aa 5d 3e ea 33 d8 ba
       0.39308476 -0.07495669 0.21647131 -0.0016494964
000230 4d f6 22 be e3 3f bf 3c 2d e8 24 3e 9f 42 c7 3c
       -0.15914269 0.023345893 0.16104193 0.02432376
000240 a2 30 2f 3d 14 55 9b 3e 4c 3a 32 bd 32 dc 4b 3e
       0.04277099 0.30338347 -0.043512627 0.19908217
000250 14 61 10 be ff ee b4 bd 14 60 f7 3e 80 8a e6 bd
       -0.14099532 -0.088346474 0.4831549 -0.112568855
000260 e0 c3 b4 ba 30 75 cd bd 35 93 9a be 99 22 2e 3e
       -0.0013791285 -0.10032117 -0.30190435 0.17005385
000270 0e c8 af be 18 ef a6 3e 88 d5 01 3c 7e 52 c1 3e
       -0.34332317 0.3260429 0.007924445 0.3775825
000280 b3 64 b7 be dc e4 f6 3d 4a 9f d3 3e e2 12 eb 3c
       -0.35819015 0.1205537 0.41332465 0.028695527
000290 c3 7d d6 3e 6e fb df be 46 0c a4 bc 80 66 f2 3e
       0.41892824 -0.43746513 -0.020025384 0.47343826
0002a0 f4 bf 05 be ec b1 01 3f 16 ff 11 3e 13 2c c2 bd
       -0.13061506 0.5066211 0.14257464 -0.09481063
0002b0 67 4b d2 3e 7b 34 de be ee 54 ff 3e de b3 c7 3e
       0.41073152 -0.43399414 0.49869484 0.39004415
0002c0 4a 08 b6 3e aa 05 1d 3e 7c e7 cd 3d 04 5d 79 3e
       0.355532 0.15334192 0.10053918 0.24351889
0002d0 af a7 1c 3d 65 05 c3 be f2 2e dc bc b1 bc fb be
       0.038245853 -0.38090053 -0.026877854 -0.49167398
0002e0 f8 9e ef be 5f e2 ad be e4 52 ae bc d0 91 35 be
       -0.4680097 -0.3396177 -0.02127976 -0.17731404
0002f0 ea 38 b5 3e 00 18 2f bd 9e 5a 41 3e cf 52 aa bc
       0.35394984 -0.042747498 0.18882224 -0.02079144
000300 9d a6 61 3e 45 0d c0 be 3a da 1c be 1d d6 95 be
       0.22036214 -0.37510124 -0.15317622 -0.29264918
000310 c6 ff d0 bd 80 d8 b7 be 2d 45 a6 3e af 9b b7 3e
       -0.10205035 -0.35907364 0.32474652 0.35860965
000320 ce a2 87 be fa 51 ca be 3c 42 83 be 76 31 b9 be
       -0.26491398 -0.39515668 -0.2563647 -0.36170548
000330 53 6b 02 be 4a 65 ba 3d e2 2f dd 3e 13 ee b0 3d
       -0.12736253 0.091013506 0.43200594 0.08639159
000340 f3 1c ca be 9d 72 bf be 44 b7 70 3e a8 0b 31 be
       -0.39475212 -0.3739213 0.2350741 -0.17289603
000350 2c 8c f2 3c 14 33 7b 3e 92 a8 95 be 62 6a e6 3e
       0.029607855 0.24531204 -0.2923017 0.4500304
000360 f7 43 97 3e 6d 60 f7 bd 1a ad a7 bc ec 4b da 3e
       0.2954404 -0.12078939 -0.020468283 0.4263605
000370 a3 cc b5 be 4d 1a c7 be 3d 27 32 be 7a 07 f0 be
       -0.35507688 -0.38887253 -0.1739778 -0.46880704
000380 50 44 89 3e 18 eb d6 bd eb 0e fa be 58 dc 43 bd
       0.2680993 -0.10494059 -0.48839507 -0.047817558
000390 33 97 14 bb 9c 02 1a 3e 15 26 5d 3e 83 66 1d be
       -0.002267313 0.15040058 0.21596558 -0.15371136
0003a0 ab 95 14 be 5c c3 c9 bc 7c f5 28 3e f3 38 dc 3e
       -0.14510219 -0.024629287 0.16499895 0.430122
0003b0 23 8b 0d 3e 89 e5 ef be e2 24 70 3d 75 dd 9e bd
       0.13822608 -0.4685481 0.058628924 -0.07757083
0003c0 c6 1d 7c bc 2d da 89 be 3f e3 4a 3e 11 c7 47 bd
       -0.015387958 -0.26924267 0.1981325 -0.04877383
0003d0 57 d6 ab 3e 14 c0 bf bd c4 a7 f6 3e 62 cf a9 3c
       0.33561966 -0.09362808 0.4817487 0.02072877
0003e0 0c 68 82 3e d1 b7 84 3e d1 c6 82 3e e0 b1 fd 3e
       0.25470006 0.2592149 0.2554231 0.4954977
0003f0 80 24 d1 3d 72 ba a8 be 0f 2f 5a be a6 85 38 3e
       0.1021204 -0.32954746 -0.21307014 0.18019733

bias f4 [128]
000000 ab fd 85 3d c3 e9 8d bd e4 d5 e6 be 8c d3 fe bc
       0.06542524 -0.06929352 -0.4508506 -0.031106733
000010 fe f6 eb be c5 3f 9c be 90 19 da bd 32 43 bd be
       -0.46086878 -0.30517402 -0.10649407 -0.36965328
000020 96 75 7d be 9a ee 03 be 03 7c 22 3d 77 ac d9 3e
       -0.24751887 -0.12883988 0.039669048 0.42514393
000030 12 5d c8 3d e1 e7 c1 bd 1a d5 ec be 9f 62 d7 be
       0.09783377 -0.094680555 -0.46256334 -0.4206743
000040 9c 95 81 bd 48 c1 b2 3e 1a 5b da be 9c d2 db bd
       -0.06327364 0.34913087 -0.4264763 -0.1073353
000050 9f 8f eb be 3d 66 91 be ca b9 86 3e b9 3d 46 3e
       -0.46008012 -0.28398314 0.2631362 0.19359483
000060 d8 4c 99 3e 53 af cc be 02 d0 62 3e ba 86 31 bd
       0.2994144 -0.39977512 0.22149661 -0.043341376
000070 a7 cc dc 3e 54 f6 d9 3e 06 ee 7c 3e 8d 37 42 3e
       0.43124887 0.42570746 0.24700174 0.18966503
000080 f5 0a eb bd f9 05 33 3d d6 cc 99 be af 15 c4 3e
       -0.11476699 0.043706868 -0.3003909 0.38297793
000090 82 20 5d 3e 41 71 91 3d 3f 26 66 be 2b 3a a7 be
       0.21594432 0.071016796 -0.22475527 -0.32661566
0000a0 9c 37 f1 be ab 45 01 3f 7a 25 60 be 28 90 c4 be
       -0.4711274 0.5049693 -0.21889296 -0.38391232
0000b0 ff 9c 4c be 7d e4 a8 be 35 8a 44 3e 7f dd 07 be
       -0.19981764 -0.32986823 0.19193347 -0.13268088
0000c0 a2 ce e1 3c d9 15 f3 be 71 75 01 3e a8 77 4c 3c
       0.02756435 -0.47477606 0.12642457 0.0124797
0000d0 be d5 de 3d 12 76 22 3c 3d e1 aa 3e 05 0b 60 3e
       0.10880612 0.0099158455 0.33374968 0.21879204
0000e0 81 39 f3 be 19 f6 ce 3e 7d 95 55 bd 9b d7 47 be
       -0.4750481 0.40422133 -0.052144516 -0.1951584
0000f0 33 e9 fd 3e 1b 15 e2 3e aa 76 b6 be 9f be b8 be
       0.4959198 0.44156727 -0.35637408 -0.36082932
000100 59 97 0a 3d 28 64 5b bd d8 b8 6f be b2 2b 3e 3e
       0.033835743 -0.053562313 -0.23410356 0.18571356
000110 16 bf 15 be 20 53 8f 3e 3a 1f db be 63 d9 c7 be
       -0.14623675 0.27993107 -0.4279726 -0.3903304
000120 9c 2c b0 3e 49 58 95 3c c4 56 8a bd cf 0e d7 be
       0.34409034 0.018230574 -0.067548305 -0.42003486
000130 ad ee 10 3e 2c d8 8b 3e 7f 08 91 3c d6 1c c5 be
       0.14153548 0.27313364 0.017704247 -0.38498563
000140 fd 07 94 3e 3b 9a 03 be 60 f1 56 3e c5 70 eb 3e
       0.28912345 -0.12851803 0.20990515 0.45984474
000150 9d 32 e6 be 9e 12 ae 3e 52 9c 97 3e 4c 02 01 be
       -0.4496049 0.3399858 0.2961145 -0.12598532
000160 75 cd 86 be bc bb 9b 3d 65 52 ec 3d de af d2 3e
       -0.26328626 0.07604167 0.11539153 0.411498
000170 ec 20 b7 3d 14 98 73 be 53 02 c9 be a2 5a 92 3e
       0.08941826 -0.23788482 -0.39259586 0.28584772
000180 e8 c9 9a bd 57 97 88 3e 8a 03 c0 3e 0e 78 80 bd
       -0.07558042 0.26677963 0.375027 -0.062728986
000190 4d 58 a9 be b1 c8 d7 3e 3f ec f4 bd d4 86 08 3e
       -0.3307518 0.42145303 -0.11959123 0.13332683
0001a0 87 e0 1c 3e 86 9b dc be 07 6c 80 3e a7 d0 cf 3e
       0.15320025 -0.43087405 0.25082418 0.40588877
0001b0 0b ec 9c bd fd d6 58 3e b3 13 61 be 29 46 17 3e
       -0.07662209 0.21175762 -0.21980171 0.14772858
0001c0 ae dd 79 be 0a e8 57 be 43 80 76 3d 2f 47 c3 be
       -0.2440097 -0.2108461 0.060180914 -0.38140246
0001d0 17 a5 c4 3e 7c 42 64 3e 69 30 e1 3c b9 ed 66 3e
       0.38407204 0.22290987 0.027488904 0.22551621
0001e0 4d af ea be 5e 9b 6e 3e dc 22 34 be 4d 15 b0 3e
       -0.4583687 0.23301455 -0.17591423 0.3439125
0001f0 11 55 38 be 3b 22 e7 bd 92 14 15 bd 65 ce d6 3e
       -0.180012 -0.11285826 -0.03639657 0.41954342

weight f4 [128, 128]
000000 3e 6d 48 3d cc ee 8d 3d 59 48 65 bd 24 e9 8c 3d
       0.048932306 0.069303125 -0.0559772 0.068804055
000010 12 bf 98 bd aa 7f 3b bc 6c 0f 77 bd 72 f1 08 3d
       -0.07458319 -0.011444012 -0.06031744 0.033433385
000020 60 ac d4 bd e5 b9 d2 3b 36 84 2f bd 5d 2f b8 3d
       -0.103844404 0.0064308518 -0.042850696 0.08993409
000030 d1 45 01 bc 1a 4f 76 bd 93 93 25 bd 1a 99 39 3d
       -0.007890181 -0.06013403 -0.04042394 0.045312025
000040 10 c9 a4 bc 25 09 33 3d 29 0a 60 bd 27 db 66 3d
       -0.020115405 0.043709893 -0.05469719 0.056361344
000050 a8 0e 18 bd 2a 40 0f 3d 15 ab 54 bd 12 ad 9e 3d
       -0.037123352 0.0349733 -0.05192097 0.07747854
000060 d4 f0 13 3c c7 9d 5d 3d 95 29 98 3d d0 46 4a 3d
       0.009029586 0.054105546 0.07429806 0.04938394
000070 d9 26 b9 3c 7d 90 e1 bc a8 0c ab 3d 3c 54 3b bd
       0.022601532 -0.027534718 0.08352023 -0.04573463
000080 bf 6d 7c bd 0a 96 31 bd 81 d2 55 bd de cb be 3c
       -0.0616281 -0.04335598 -0.052202705 0.02329057
000090 fe 43 1e 3d 55 65 d6 3c 0d bb 1a 3d 6b f0 8f 3c
       0.03863906 0.026171366 0.03777604 0.017570695
0000a0 3d 8e 74 bd 0f ed aa bd d3 f9 4b 3d 14 9e bb bc
       -0.05970596 -0.083459966 0.049798798 -0.022902526
0000b0 0a a7 b3 3d 5e c0 a3 bd d1 f9 41 3c ed 05 62 3d
       0.087720945 -0.079956755 0.011839346 0.055181433
0000c0 37 6e f2 3a 64 f2 01 3d 68 db a3 3c fe 67 13 3d
       0.0018495981 0.031725302 0.020002082 0.035987847
0000d0 f9 f5 44 bd 9e 51 77 bd 12 b8 22 3d 8b 06 91 3d
       -0.04808614 -0.06038057 0.039726324 0.07081326
0000e0 ac 27 ba bd 7e 9d 18 bd 96 5e bc 3d 5b 77 8b bc
       -0.09089598 -0.03725957 0.09197728 -0.017024687
0000f0 51 02 39 bc 98 eb 6a 3a 81 9d 85 3d af 1b 66 bc
       -0.011292056 0.0008961498 0.06524182 -0.014044686
000100 be 6a 24 3d 98 ee 57 bc 0e b3 11 3c ba 1e 11 bd
       0.04014086 -0.013179444 0.008892788 -0.035429694
000110 74 05 83 3d c8 c0 88 3b ff 05 40 bd f1 ab 0a bc
       0.063975245 0.004173372 -0.04688072 -0.008463846
000120 18 1a bd 3d 85 72 82 bd 16 e4 3f 3b 68 30 88 3d
       0.092334926 -0.06369499 0.0029280237 0.06649858
000130 71 1a 8a bd 65 39 3b 3d 9f b1 46 3d 80 b8 62 3a
       -0.067433245 0.045709033 0.048509236 0.00086487085
000140 90 c4 03 3d 64 39 2e 3d d1 e9 95 3d 18 11 68 bd
       0.03216988 0.0425352 0.073199876 -0.056656927
000150 5b 59 8a bd 57 1c 90 bd d8 cc 16 bd 9f 9f 7e bd
       -0.067553245 -0.070366554 -0.036816448 -0.062163945
000160 62 ae 84 bd df 85 51 3d a4 36 c7 bd 59 b4 33 3c
       -0.064785734 0.05115306 -0.09727219 0.010968291
000170 02 c1 9f 3d 15 cf 77 bd 42 5a 4c bd 91 e4 ed 3c
       0.07800485 -0.060500223 -0.049890764 0.029039653
000180 d8 99 f7 3c 2f fd 85 3d 71 88 ee 3c e8 b2 17 bd
       0.030224726 0.065424316 0.029117795 -0.037035853
000190 d3 1b 49 3c 47 c0 9d 3d ae 5e 91 3d 1a 80 23 3d
       0.0122747 0.077026896 0.07098137 0.03991709
0001a0 d8 c8 fc bc d1 db bb 3d d7 f4 c2 3c e8 c5 60 3c
       -0.030857489 0.09172786 0.02379839 0.0137190595
0001b0 bc 53 0e bd 74 1f c7 3d ec fc b9 3d b1 8b 2d 3d
       -0.034747824 0.09722796 0.09081444 0.04236955
0001c0 b9 db ac 3d 6b 37 b6 bd 18 5b 58 3c fd 80 00 3d
       0.08440346 -0.08897289 0.013205312 0.031373013
0001d0 42 f6 3a 3d 9a b2 3a 3c d5 aa 38 bc 59 b0 00 bc
       0.045645006 0.011395121 -0.011271198 -0.007854545
0001e0 e0 03 af 3d 24 97 c4 bc 4f 0f 63 3d 84 33 9b bc
       0.08545661 -0.02399785 0.05543452 -0.018945463
0001f0 1a 6d b1 bd d5 b9 87 3d 85 b1 36 bd 4d 5c 96 3d
       -0.086633876 0.066272415 -0.04460289 0.07341824
000200 c2 dc 1c 3d 92 6b 67 3d 44 86 e3 3c 28 27 16 3c
       0.03829647 0.05649907 0.027773984 0.009164609
000210 aa 71 af bd 42 17 80 bd c0 82 41 bd 68 de a3 3c
       -0.085666016 -0.06254436 -0.047243834 0.020003513
000220 26 8b 20 3d d1 18 82 bd 76 c6 61 3d 10 eb 88 3c
       0.039195202 -0.063523896 0.055120908 0.016713649
000230 4f e9 af bd 00 09 bd 3b d0 c4 a4 bd fc df cc 3c
       -0.08589422 0.005768895 -0.080453515 0.025009148
000240 79 29 99 3d 6c 62 98 bc 50 b4 67 3c 70 5e 25 bc
       0.074786134 -0.018601619 0.014142111 -0.010093316
000250 51 e6 b1 3d 18 78 76 bc 40 b6 7b 3c dc 58 0c 3d
       0.086865075 -0.015043281 0.015363276 0.03426443
000260 2c a9 e5 3c d4 d9 8b bd bb bb 86 bd 1a f3 fe bc
       0.028034769 -0.06828657 -0.065787755 -0.03112178
000270 eb 69 3e bd b0 96 12 bc 17 c6 b0 3d 24 e3 ef 3c
       -0.04648773 -0.0089470595 0.08631533 0.029283114
000280 f0 c8 ae 3b 70 eb 5e 3c 61 05 a2 bd f0 42 c6 3c
       0.005334012 0.013605937 -0.07911182 0.02420184
000290 88 18 83 bc 49 bd a3 bd e9 5f 09 bd e5 f7 48 bd
       -0.016002908 -0.07995088 -0.033538733 -0.049064536
0002a0 5d 31 ad 3d 24 5e 55 bd bc ab d0 3c 30 71 12 bd
       0.08456681 -0.052091733 0.025472514 -0.035752475
0002b0 20 ce 17 bd 1d 7d 8b 3d 06 f9 5a 3d 52 58 9c bd
       -0.03706181 0.06810973 0.053460144 -0.07634033
0002c0 64 e2 e3 3c 47 5b 87 3d bc 99 d6 bc 98 f8 2f bc
       0.027817912 0.06609207 -0.026196353 -0.010740422
0002d0 74 52 ae bd 69 f8 9c 3d c0 ef a3 3a a2 e4 21 3d
       -0.085118204 0.07664568 0.0012507364 0.039524682
0002e0 28 e8 b3 bd f4 0d 80 3c 6c b7 a7 bd c4 e7 37 bd
       -0.08784515 0.015631653 -0.08189282 -0.044898763
0002f0 dc 62 ac bd 80 61 5b 3c 6d e3 a8 3d 80 22 47 3b
       -0.084172934 0.013389945 0.08246503 0.0030385554
000300 4c 65 fb 3c 66 93 66 3d 03 46 01 bd f2 af 7a 3d
       0.03068795 0.056292914 -0.03156091 0.06120295
000310 b0 03 0e bc e0 f4 65 bb 94 82 85 bd b8 37 7e bd
       -0.008667871 -0.0035088584 -0.065190464 -0.062064856
000320 40 2e 1f bc b4 f7 80 bc 56 d2 d4 bc 35 e3 9c bd
       -0.009715617 -0.015743114 -0.025979202 -0.07660524
000330 fa 17 5e 3d 84 e0 bf bc b1 cd 69 bd 60 82 6d bd
       0.054222085 -0.023422487 -0.05708093 -0.057985663
000340 4d 59 98 3d 73 1f 08 bd a2 e5 f8 bc e1 5e 81 3d
       0.07438908 -0.033233117 -0.030382935 0.06316925
000350 16 e0 56 3d be 17 44 bd 14 6d ff 3c 42 4b 5c 3d
       0.0524598 -0.047874205 0.031179942 0.05378271
000360 90 74 7e bc a5 3a a4 bd ee a3 08 3d 1e 04 4b 3d
       -0.01553072 -0.08018998 0.03335946 0.049564473
000370 82 0c 38 3d c1 05 8d 3d 59 c3 a0 3d 70 e8 85 bd
       0.044933803 0.06885863 0.078497596 -0.065384746
000380 a8 7d 43 3c 5d 55 2e bd f9 f0 04 bd 7e 36 da bc
       0.011931814 -0.042561878 -0.032456372 -0.026637312
000390 a5 e5 ae 3d 30 9d c8 bc 07 b0 2e bd 10 9f 51 bd
       0.08539895 -0.024489015 -0.04264834 -0.051177084
0003a0 02 be 65 3d e0 cc 8c bc a8 03 90 bc 9a 0d 2d 3d
       0.05608941 -0.017187536 -0.017579868 0.0422493
0003b0 31 81 88 3d e0 9e 4d 3c d3 18 a5 3d c5 c3 65 bd
       0.06665266 0.012550086 0.080613755 -0.056094903
0003c0 f1 41 5c bd 54 f0 9c bd fc 30 cb bc c2 e9 87 bd
       -0.053773824 -0.076630265 -0.024803631 -0.06636383
0003d0 f5 83 04 bd 2b 38 83 bd 86 90 26 3d 60 72 f9 3b
       -0.032352407 -0.064071976 0.040665172 0.0076125115
0003e0 30 76 4e 3c 7c 03 2c bd eb ba a4 bd 43 34 08 bd
       0.01260142 -0.04199551 -0.08043464 -0.033252966
0003f0 4e fd 41 3d 2a 1d 03 bd 30 93 2d bd de 61 42 bd
       0.04736071 -0.032010235 -0.042376697 -0.047456615

bias f4 [128]
000000 09 ae 55 bb 64 35 97 bd d8 b1 dd bc 27 4b b0 3d
       -0.0032604954 -0.0738323 -0.027062342 0.08608084
000010 2c 42 00 3b ad 57 8d bc 0a be 92 bd 1b 34 b2 3d
       0.0019570692 -0.017253721 -0.07165153 0.087013446
000020 96 e9 bd 3d 2c c6 10 3d 9b 37 ca 3c 47 27 1f bd
       0.092730686 0.03534524 0.024684718 -0.038855817
000030 d4 98 b9 3b ad bf 9b bd 4d f6 a3 bd 9d 70 5a 3b
       0.0056639705 -0.07604919 -0.080059625 0.0033331283
000040 76 20 0c 3d 51 2e fb bc 45 94 a3 bd 52 e5 6d 3d
       0.034210645 -0.030661734 -0.079872645 0.058080025
000050 85 79 f0 3c a6 a8 e2 3c de f1 58 bd ef db 71 bd
       0.02935482 0.027668308 -0.052965038 -0.059047636
000060 0a db 1f bc 2d 51 4a bd 18 ba 8c 3d 37 b5 47 bd
       -0.009756813 -0.04939382 0.06871432 -0.048756804
000070 34 bf 93 3d 95 c7 22 3b 02 63 78 3d 0a 83 bd 3d
       0.072142035 0.0024838198 0.060641296 0.09253509
000080 6c 71 5a bb bc 38 b6 bd 0a 73 2a bd 80 a9 05 bd
       -0.0033331765 -0.0889754 -0.041613616 -0.03263235
000090 2d a6 91 bd ff ad 90 3d eb c9 50 bc b1 a3 ad bb
       -0.07111774 0.07064437 -0.0127434535 -0.0052990546
0000a0 7f 64 b4 3c 99 ad aa bc 0e 6a 4c 3d e5 f8 0d 3c
       0.022020577 -0.020834731 0.04990583 0.008665298
0000b0 3f 22 4c 3d 8e e5 91 bc b7 df 96 3d de f6 46 3d
       0.049837347 -0.017809656 0.07366889 0.048575275
0000c0 c2 c8 ae 3d d7 82 6c bd f0 ea 81 3c b0 14 9e 3d
       0.08534385 -0.057741966 0.015859097 0.077187896
0000d0 55 10 a7 bd fa 09 1c bc cf 3d 1a 3d 82 3f af 3d
       -0.08157412 -0.009523863 0.0376566 0.08557035
0000e0 30 cf b1 bc e8 b0 2f 3d c9 f1 3d 3c 15 e3 40 3d
       -0.02170524 0.04289332 0.011593291 0.047091562
0000f0 49 30 52 bb cb 51 f0 3c 71 df 2e bd 74 69 c1 bb
       -0.0032072237 0.029335877 -0.04269356 -0.0059024636
000100 90 d1 26 bc 77 da 8c bc a0 fc 1a 3d 96 6e 8e 3d
       -0.0101817995 -0.017194016 0.03783858 0.06954686
000110 a5 41 88 3c ad 63 3d bd 8b 81 05 3b 1e a0 60 3d
       0.016632864 -0.046237636 0.0020371403 0.0548402
000120 19 4d be 3d 47 bc 08 bd 25 57 09 3d 87 a0 b1 bd
       0.09292049 -0.03338268 0.033530373 -0.08673196
000130 a7 e1 bb 3c 2b 71 57 3b a4 38 c8 bc db 68 5a 3d
       0.022934748 0.003287385 -0.02444107 0.053322654
000140 2c bb 8e 3d 8e cd 5c 3d a0 2f 8b bd 5d e8 78 bd
       0.06969294 0.05390697 -0.06796193 -0.060768474
000150 dd 73 0f 3d a1 d9 5b bb 96 98 8b 3d 05 84 97 3c
       0.035022605 -0.0033546465 0.06816213 0.018495569
000160 e3 91 3d 3d cf 8a 95 bd 09 dc fc bc 8e 7b d2 3c
       0.046281707 -0.07301866 -0.03086664 0.025693681
000170 44 c7 8b bd b5 0d a9 3d 32 8f 3e bd 11 e6 9c 3c
       -0.06825116 0.082545675 -0.04652328 0.019152673
000180 d2 64 26 3d 94 32 55 3b c6 72 07 bc cb af 9b bd
       0.040623493 0.0032531368 -0.00826711 -0.07601889
000190 8f e4 b9 3d 8f 3a 1e bd 0e e1 92 3d 19 39 66 3d
       0.09076797 -0.038630065 0.07171832 0.056206796
0001a0 8e 71 f6 3c 53 74 4c 3d 2e f6 93 bd 9c ea 77 3d
       0.030083444 0.049915623 -0.072246894 0.060526475
0001b0 a6 71 95 3b 09 73 95 3d fa 8a 8f bd 20 63 39 3d
       0.004560667 0.07297332 -0.070089296 0.04526055
0001c0 14 38 53 bd 66 62 57 3d a5 2d 5a bc 08 d0 97 bd
       -0.051567152 0.052584074 -0.013316547 -0.07412726
0001d0 96 9d 62 3c 63 78 e0 bc 52 4c b4 3d e9 6f 39 3d
       0.013831517 -0.027401155 0.088036194 0.04527274
0001e0 58 3e 2c 3d 84 08 c3 3d 45 14 7b 3c b3 78 02 bc
       0.042051643 0.095231086 0.015324657 -0.007963347
0001f0 6a ff b5 bd 35 d8 3b 3d 22 19 9e bc 1d 8f bf 3d
       -0.08886607 0.045860488 -0.019299094 0.093534686

weight f4 [1, 128]
000000 d9 b9 9a 3d 1c 6f 58 bd 06 16 96 bd 7a 61 9c bc
       0.07554979 -0.052840337 -0.073284194 -0.01908945
000010 5b 7d c4 bd cf d0 35 bd 00 8b 18 bd 8d 3c 6f bd
       -0.09594222 -0.04438859 -0.037241936 -0.058407355
000020 04 7f 98 3c 34 6a ca bc 14 bb 96 bd 69 64 8a bd
       0.018615253 -0.024708845 -0.07359901 -0.06757433
000030 39 7b 7f bd 5c cc 64 bd ad 6f 64 bd a1 3e b2 3d
       -0.062373374 -0.055858955 -0.055770565 0.08703352
000040 3c b8 2f 3d f9 7e a6 3d 81 fc ae bd 47 6d f1 ba
       0.04290031 0.08129687 -0.08544255 -0.0018419408
000050 b2 92 b4 3c d9 7a b4 3d 70 35 eb bb 17 df b4 3c
       0.022042606 0.08812494 -0.007178001 0.022079034
000060 b2 4f c8 bc 7f 23 9a 3d 5e 2e f3 3c 32 79 ba 3d
       -0.024452064 0.075263016 0.029685196 0.091051474
000070 d7 1a 0a 3d a5 34 95 3d 5b ca 92 bd b0 a6 be bc
       0.033717003 0.07285432 -0.071675025 -0.023272842
000080 02 59 a8 3d 8c ae 80 bd 6e 99 a9 3d e3 ee cb bd
       0.08220102 -0.06283292 0.082812175 -0.099576734
000090 a4 c8 32 bc 49 70 ae 3c 9c 6b 22 3d 2f 5c 1a 3c
       -0.010912094 0.021293776 0.039653406 0.009421392
0000a0 bd d4 79 bd d7 d3 d9 3c 59 2e bb 3c 47 c5 fc bc
       -0.0609939 0.02659027 0.022849249 -0.030855788
0000b0 98 95 c8 3c cf 81 a6 bc 16 4b 3a 3d 5b 93 b6 bc
       0.024485394 -0.02032557 0.045481764 -0.022287061
0000c0 1d 5b 37 bc 7e 2a 27 bd f7 91 44 bd 17 00 50 bd
       -0.011191157 -0.040812008 -0.047990765 -0.050781336
0000d0 3e eb 9f 3d f1 cb 17 3d 2e a8 24 3d 1a 24 92 3d
       0.07808541 0.037059728 0.04019945 0.07135792
0000e0 e8 ce 0b 3d 17 3a a7 3d d6 75 33 bc 09 ce 8c bd
       0.034132868 0.08165377 -0.010953387 -0.068752356
0000f0 c5 d9 67 3d e9 46 b4 3d 24 dc 42 3d e7 bf 5d 3d
       0.056604166 0.088025875 0.047573224 0.05413809
000100 12 a2 9e 3d 9e 32 91 bd 86 74 9b bd cf d1 97 bd
       0.07745756 -0.070897326 -0.075905845 -0.07413065
000110 52 0b 83 3d 0d 44 c0 bd 02 53 42 3d a7 ee 30 bd
       0.063986436 -0.0938798 0.047442444 -0.043196347
000120 00 4b b1 bc 1d c7 a5 3d 1a e4 bf 3d 5d 25 98 bd
       -0.021642208 0.080946185 0.09369679 -0.074290015
000130 8f 57 80 bd 34 b3 32 3d d7 16 c5 3d aa da 30 3d
       -0.062667005 0.043627933 0.09623497 0.043177284
000140 92 5d 2c bd 80 32 12 3d 76 f3 a9 bd 19 b6 cf bc
       -0.042081423 0.03569269 -0.082983896 -0.025355386
000150 1c 8d 48 bd be 46 ec bc ae cc 8a 3d 8e 89 c7 3d
       -0.048962697 -0.028842326 0.06777321 0.09743033
000160 82 ef 1e bc 16 e2 fa bc ad 44 b4 3d c3 02 9a 3d
       -0.009700658 -0.030625384 0.08802161 0.07520058
000170 8b 7b 2a 3d c3 a4 9f bd 12 2e 65 3c 35 a2 a6 bd
       0.041621726 -0.07795098 0.013988035 -0.08136407
000180 dc c6 8c 3d d1 63 d9 bb e1 d2 d4 3d 08 18 5b 3c
       0.06873867 -0.0066342135 0.103917845 0.013372429
000190 cc 97 c1 bd 89 a0 90 bd be 8a e8 3b 40 cf 9f bd
       -0.09452781 -0.0706187 0.0070966175 -0.07803202
0001a0 c5 2d 99 3c f3 78 05 3d a5 52 a3 3d cc bc dd bc
       0.018698582 0.03258605 0.079747476 -0.027067564
0001b0 35 1a 76 bd e2 5b 6b 3d 6f 9f 76 bd 54 07 88 3d
       -0.060083587 0.057460673 -0.06021064 0.06642023
0001c0 06 ce a5 ba f5 5b 5f bd c6 f8 55 bd 27 48 8b bd
       -0.0012649901 -0.054531056 -0.052239202 -0.06800871
0001d0 f6 76 52 3d 8a 30 0f bc 7c 3f 5b 3d b6 85 83 3d
       0.05138298 -0.0087396 0.05352734 0.06421988
0001e0 14 c8 99 3d 2c 38 c0 3d 13 19 82 3d fd 1e ac bc
       0.07508865 0.09385714 0.06352439 -0.02101087
0001f0 a0 af 63 bd d9 ae 75 bd 71 9e 8a bd b7 7f d0 3d
       -0.05558741 -0.0599812 -0.067685015 0.1018061
