save/data_3.pt (torch, 72527 bytes, 5 tensors)

weight f4 [128, 4]
000000 75 ab ad 3e bf 1e a3 3d 0e ed c3 be bf 6b dc be
       0.33919874 0.07964849 -0.38266796 -0.43050954
000010 9f 69 1b be 16 47 ca 3d 20 a6 c1 3e 89 ed b0 3e
       -0.1517701 0.0987684 0.37822056 0.34556225
000020 ed 69 ad be 99 28 cf bc dd 80 c5 be ea 94 88 bd
       -0.33869877 -0.025287913 -0.38574877 -0.06669028
000030 c7 d2 52 be bf b0 97 3e 54 d6 aa bd 73 bf 75 be
       -0.20588218 0.29627034 -0.08341661 -0.23998813
000040 cd 52 dd be 1f b5 b9 3d 69 5c ed be 47 3e f6 3d
       -0.43227234 0.09067749 -0.46359566 0.12023597
000050 0f 1f cb be 1d fd 9d 3e b7 91 1d bd 81 d5 01 bf
       -0.39672133 0.30857173 -0.038469043 -0.50716406
000060 b5 da b3 3d 8c 87 ee 3d 40 25 81 be 1a f5 4c be
       0.087819494 0.11646947 -0.25223732 -0.20015374
000070 1f 56 e2 be a9 2b c9 3e 0b 47 8f be b3 1f 5c be
       -0.4420633 0.39291123 -0.2798389 -0.21496467
000080 f5 17 b7 3e bf 51 d0 3e a8 3e 72 3e 73 f3 5f be
       0.35760465 0.40687367 0.23656714 -0.21870212
000090 7c 08 99 be b4 af 9a be 73 a7 b2 be 1a b5 fc 3e
       -0.29889286 -0.30212176 -0.3489338 0.4935692
0000a0 31 6b 6d 3e ca 6f 9a 3e 19 98 c8 3e 3f 15 9b 3e
       0.23185422 0.30163413 0.3917854 0.30289647
0000b0 7a 0f 03 3f 86 1c 21 bd 9f 6e 39 3e b3 bd f9 bd
       0.5119549 -0.039333843 0.18108605 -0.121943854
0000c0 53 51 1c 3e 45 a8 73 3b 42 94 81 3d 5a 3e ac be
       0.15265398 0.0037179154 0.06327106 -0.3364132
0000d0 dc 1b dc be 07 da bb 3e c7 9f 08 3e e9 42 d7 3e
       -0.42990005 0.3668978 0.133422 0.42043236
0000e0 00 f5 00 3f d4 51 5b bd f6 07 53 be f6 0b 7d 3e
       0.5037384 -0.053544834 -0.20608506 0.24711594
0000f0 85 c0 d8 be 4f df 75 3e a6 11 20 be a8 4c c4 be
       -0.4233438 0.24010967 -0.15631732 -0.38339734
000100 71 18 af ba 79 51 b8 3e 1a 7e 5b be fe 9d df be
       -0.0013358725 0.3599966 -0.21434823 -0.43675226
000110 4c 4a 90 be 6d cf 7b be 7b f3 e4 be 99 b4 82 be
       -0.28181684 -0.24590845 -0.4471701 -0.2552841
000120 2f eb bb 3e a5 c8 3d bd 8a a1 ca 3d 2d 8f 86 3e
       0.36702868 -0.046333928 0.098940924 0.2628111
000130 40 7e ce bd d2 2d 4b 3e 12 5f 68 bd c1 6b c3 be
       -0.10082674 0.19841698 -0.05673129 -0.38168147
000140 19 fd d8 be f5 75 ce bd 5e 71 3f 3d 4d 9a f1 be
       -0.42380598 -0.10081092 0.046738975 -0.47188035
000150 37 68 dc be 0c a0 95 3d 58 48 9c 3d b2 7b a3 be
       -0.4304826 0.07305917 0.07630986 -0.3193031
000160 96 51 c6 be 38 39 57 be 2a b5 d2 3e 2d 05 c5 3e
       -0.3873412 -0.21017921 0.41153842 0.3848051
000170 cc f2 e7 be 9b 8d de be 53 36 c8 be 2d 78 d9 3e
       -0.45302427 -0.4346741 -0.39103946 0.424745
000180 6d 0d 9a 3e 32 6a ce be 29 69 30 be cb 2d 9f 3e
       0.30088368 -0.40315396 -0.17227615 0.31089625
000190 57 74 bc be a6 28 f3 3d 4c 7e a8 3e 59 19 72 be
       -0.3680751 0.118729874 0.32908857 -0.23642482
0001a0 30 bb 89 3e 9c 04 af bd c7 1f 34 be ab 5e 01 be
       0.26900625 -0.08545801 -0.17590247 -0.12633769
0001b0 e8 44 b4 be 5b 17 62 be f0 4e a0 3d 83 b6 a0 be
       -0.3520882 -0.22079222 0.07827556 -0.31389245
0001c0 0a 9a a5 be 24 74 e8 be 22 84 ef 3e ea 32 e1 3e
       -0.32344085 -0.45401108 0.46780497 0.43984157
0001d0 5e f8 d7 3e 5b 3b d4 be 8f 4e ac 3e 5a 07 c8 3e
       0.42181677 -0.41451535 0.33653685 0.3906811
0001e0 ac 5f 47 3e f0 28 a0 be 4d 50 98 be 26 ac c4 be
       0.1947009 -0.31281233 -0.29748765 -0.3841259
0001f0 e2 23 bf bd 2f cb f7 3c 18 ec 93 3e 39 ab a9 3e
       -0.09333016 0.030248253 0.28891063 0.33138445
000200 3a 7c f1 be ac 94 0a 3e 77 1b ae bd 8e b3 dc 3d
       -0.4716509 0.13533276 -0.08501332 0.10776435
000210 aa c3 f7 3e b8 18 fe 3e f6 73 9b 3d 74 c5 1e be
       0.48391467 0.49628234 0.07590477 -0.1550501
000220 47 93 04 3e 0a da 35 3e ea a8 12 be e8 f9 40 3d
       0.12946807 0.17758957 -0.14322248 0.04711333
000230 50 f9 4e be f2 61 2a 3e 3d 18 c2 be 38 b5 9b 3d
       -0.20212293 0.16638926 -0.37909117 0.07602924
000240 ea 75 dd 3e 18 4a 92 3c 11 ad 81 3e 46 56 f0 3e
       0.43254024 0.017857596 0.25327352 0.4694082
000250 1f aa fc be b2 f5 c2 bd 31 bf 81 3b 4d b8 f2 3e
       -0.49348542 -0.09519519 0.0039595594 0.47406235
000260 ec 1a 41 be d9 27 3c be 9d 39 98 be 4f e2 52 3e
       -0.18857926 -0.18374576 -0.29731455 0.20594142
000270 71 e4 8f be 6a 5b b4 3e 30 fb b7 3e d0 6c bf bc
       -0.28103974 0.35225993 0.35933828 -0.023367316
000280 c4 4f 9b be 50 c4 ae be 6f 54 39 3e 83 54 c6 be
       -0.30334294 -0.3413415 0.18098615 -0.38736352
000290 d6 ab da 3d 17 20 03 3f a5 01 b3 3d ca 7d 2e 3d
       0.10677306 0.5122084 0.08740548 0.04260043
0002a0 b5 72 44 be e4 99 8a 3d ca 38 88 be 20 8b a7 3e
       -0.19184382 0.067676336 -0.26605827 0.3272333
0002b0 2c 11 e2 3d b4 a3 92 be c7 75 99 be b7 70 00 bf
       0.110384315 -0.2864052 -0.2997267 -0.5017199
0002c0 ba a2 b3 3e 47 9e 63 3d 18 23 04 3f 26 bf c6 be
       0.35085088 0.055570867 0.5161605 -0.3881771
0002d0 f4 3c 9c be 0c f7 4e bd ca 92 af be 3e 67 8c 3e
       -0.30515254 -0.05052857 -0.3429168 0.27422518
0002e0 ab c3 f7 3d 59 33 00 3f d0 da c3 3d 42 7f d1 3e
       0.120978676 0.5007835 0.095632195 0.40917403
0002f0 0e 68 c3 3e 64 e3 82 3e 30 7c d2 3d f3 68 6e be
       0.38165325 0.2556411 0.10277593 -0.23282222
000300 20 61 73 bd 46 07 ac 3e 26 23 28 be 3a 90 97 3d
       -0.059418797 0.335993 -0.16419658 0.07400556
000310 db 5e 12 3e 7d 04 80 3e b5 46 78 bd 86 61 96 be
       0.14293997 0.25003424 -0.060614306 -0.2937128
000320 6b af fd be 1d e3 7d 3e 77 11 a0 3d b2 54 7c 3e
       -0.49547896 0.24793668 0.07815831 0.24641684
000330 6a 25 a9 be 34 25 ed 3e a9 fe df be f1 4b 1d 3e
       -0.33036357 0.46317446 -0.43748978 0.15361
000340 6d c2 ed 3e f0 ba a7 be 06 34 98 3d 26 01 56 3e
       0.46437398 -0.3275981 0.07431798 0.20898876
000350 07 57 00 3f 69 96 ff bd ff c9 98 be 1d 7f 25 be
       0.50132793 -0.1247986 -0.2984161 -0.16161771
000360 33 4c b1 3e 6d 5b 12 be c6 86 4f be 31 37 17 3e
       0.34628448 -0.14292689 -0.20266256 0.14767148
000370 85 41 f1 3d ba f8 bc 3e cc ef 7c be 51 50 a8 be
       0.11780075 0.36908513 -0.2470085 -0.32873777
000380 c8 c4 32 3e 0c c5 dd be 4a 60 89 3e 4c 7e 4f be
       0.17457879 -0.43314397 0.26831275 -0.20263022
000390 95 7c cb be 4d 6d cd 3d ac 2e e9 bd 50 09 00 be
       -0.39743486 0.10030613 -0.11385855 -0.12503552
0003a0 05 3c b1 be 84 1f 97 be 29 4e a8 be 35 4f 31 be
       -0.34616104 -0.29516232 -0.3287213 -0.17315371
0003b0 2a ac dd 3e c0 d9 98 be d2 01 ec be 56 3c 99 be
       0.43295413 -0.2985363 -0.4609514 -0.29928845
0003c0 9d 32 bc 3e 93 5e 2a 3e 4b a6 3d be 71 37 cd 3e
       0.36757365 0.1663764 -0.18520467 0.4008136
0003d0 68 97 04 3f 93 73 5f be 73 f1 70 3e 2a 96 9f 3e
       0.5179353 -0.21821432 0.23529606 0.31169254
0003e0 63 6c d9 bc bd 73 39 3e 49 af e6 be e4 b4 f2 3c
       -0.02654094 0.18110557 -0.45055607 0.029627271
0003f0 4c 76 1c 3e d7 01 88 bc 09 71 e9 3e 21 65 c0 3e
       0.15279502 -0.01660244 0.4559405 0.37577155

bias f4 [128]
000000 ee 82 82 3e 97 2e 3b bd f3 49 7a 3e 80 27 8a be
       0.25490516 -0.04569873 0.24442272 -0.2698326
000010 b1 15 22 3e 48 34 68 be 90 de e8 bd 2e b8 21 3e
       0.15828587 -0.22676194 -0.113705754 0.15792915
000020 2d fe dd be 74 25 97 be 4b 4f de bc cb 4b 29 be
       -0.43357983 -0.29520762 -0.02713742 -0.16532819
000030 cb e1 57 3d fc 0b e1 be 65 d8 93 3e fb 3e 2f be
       0.052705567 -0.43954456 0.28876033 -0.17113869
000040 2c ed ab 3d 09 0b e2 be 5c 04 c4 be c0 b4 ba be
       0.08394846 -0.44149044 -0.38284576 -0.36466026
000050 a2 e2 b1 be 09 ca 87 be d4 bb 81 3e 05 d5 af 3e
       -0.3474322 -0.26521328 0.25338614 0.34342209
000060 44 8c 08 be cc e3 b6 3d fe 01 46 3e bc 24 05 bd
       -0.13334757 0.089301676 0.19336697 -0.032505736
000070 57 af 61 3c 0f 94 e8 3e 0a 5a df 3e 45 84 bf 3e
       0.013774714 0.4542546 0.43623382 0.374056
000080 28 9f de 3e af 8d 69 be 79 15 d7 be 6c 94 14 bc
       0.43480802 -0.22807954 -0.4200857 -0.00906859
000090 9e 74 f6 3c 52 c2 e2 bd 23 15 b6 be 36 b7 43 3e
       0.030084904 -0.1107222 -0.35563 0.19112858
0000a0 f9 06 f8 bd 80 15 5e 3e 35 1d 18 be 2f 2f 0b bd
       -0.12110705 0.21687889 -0.14854892 -0.033980545
0000b0 06 e5 b0 bd 2f df a8 3e 86 4b c9 bd 18 83 81 3e
       -0.08637433 0.32982776 -0.09828858 0.2529533
0000c0 af f0 aa be 92 0e 14 be 0f 0f dc be bc ce 9e 3e
       -0.33386752 -0.14458683 -0.4298024 0.310171
0000d0 b3 79 ed be bb 08 f0 be 93 7f a6 be d5 85 bc 3e
       -0.46381912 -0.4688166 -0.32519206 0.36820856
0000e0 47 a3 c1 3e 7d 65 25 3e 46 7e 03 3f 59 96 2d 3e
       0.37819883 0.16151996 0.5136455 0.16951884
0000f0 57 15 aa 3d 79 3f 79 3e 9a 2f fb 3e e4 6a f5 3e
       0.083048515 0.24340619 0.49059755 0.47933114
000100 bf 1e 92 be 28 f6 97 3e 96 91 d2 bc 53 83 72 3e
       -0.28539082 0.2967999 -0.025704186 0.23682909
000110 95 d9 4c 3e 1c fe 69 3d f1 f6 04 3f 79 e2 b8 3d
       0.20004876 0.057127103 0.519393 0.09027571
000120 fd 1e 4c be e0 37 28 be 5d f9 9a 3e f5 e1 6e 3e
       -0.19933696 -0.16427565 0.30268374 0.23328383
000130 6f f4 fd be 1f 37 a3 3e c2 bd cc 3e 43 83 22 be
       -0.4960055 0.31877992 0.39988524 -0.15870385
000140 13 30 f3 3e e0 d2 7c 3e 74 01 9b 3e 89 88 24 3e
       0.47497615 0.24689817 0.30274546 0.16067709
000150 de 38 eb 3e 4a be d5 be 67 79 82 3b 41 40 df 3e
       0.45941824 -0.41746742 0.0039817574 0.4360371
000160 8b 85 e2 3d c4 86 06 3f 29 a4 73 bd 7f d0 f7 3e
       0.110606275 0.52549386 -0.059482727 0.48401257
000170 47 01 dc bd 07 9e ba bd a1 23 92 3e 8f 5c e9 3e
       -0.10742431 -0.091121726 0.28542808 0.4557843
000180 53 4e 60 be 38 3e 9a 3e 89 16 68 3e 52 9a d3 3e
       -0.21904878 0.30125594 0.22664846 0.41328675
000190 1b 0e 62 3e db 61 02 be d7 2a 89 be e8 f5 d3 3e
       0.22075693 -0.12732641 -0.26790497 0.4139855
0001a0 02 98 fe 3d 14 1d 01 3f dc 58 f0 3d 08 3d d7 be
       0.12431337 0.50434995 0.117356986 -0.4203875
0001b0 9b 37 8b be db 21 e0 be 7e 74 bf bc d9 29 de be
       -0.2719086 -0.4377583 -0.023370977 -0.43391302
0001c0 46 ff 63 be 88 35 dc 3c af 72 7c bd 3f e2 2c 3e
       -0.22265348 0.026880994 -0.06163281 0.16883181
0001d0 57 ae aa bd 0c 22 c8 3e 8e 4c 28 3e 65 3a 17 be
       -0.08334034 0.39088476 0.16435453 -0.1476837
0001e0 c5 20 1d 3e 53 28 5a 3e 4e f8 ec 3e f5 55 3b be
       0.15344532 0.21304445 0.4628319 -0.18294509
0001f0 65 0f f4 3e 5e ce 87 3e 20 d1 f1 be cb 95 bc be
       0.47667995 0.26524633 -0.47229862 -0.36833033

weight f4 [128, 128]
000000 fa 4c 98 bb 54 29 ca bc 85 9a a3 3c 4b 76 d2 bd
       -0.004647848 -0.02467791 0.019971142 -0.10276469
000010 ae fd 59 3d 33 b3 42 bd a1 cc 40 3d 0f aa 89 bb
       0.053220443 -0.04753418 0.04707015 -0.004201181
000020 60 c0 a2 3c 1f 0f 86 3d 6b 2d 0c 3e 5c 47 4d 3d
       0.019867122 0.06545853 0.136892 0.05011688
000030 67 d9 89 3d bb 17 8d bd 84 a5 66 bd 48 f1 62 bd
       0.06730919 -0.06889292 -0.05631019 -0.055405885
000040 4a f1 8c 3d 30 bf 20 bd 0d 75 a1 3b 11 dc ba bd
       0.0688196 -0.03924483 0.0049272836 -0.091240056
000050 9b ab 34 bd 72 9f d1 bc db 4f 50 bd d7 ef 89 3d
       -0.04410897 -0.025588725 -0.050857406 0.06735199
000060 4c 5c 7b 3d f5 aa 0d bd dc c3 5c bd 85 3c 5e bd
       0.061367318 -0.034586865 -0.053897724 -0.054256935
000070 22 a2 87 3d 8c aa 86 3d a3 18 75 3d 69 09 52 bd
       0.06622721 0.06575498 0.05983795 -0.051278505
000080 5c 5f 40 3d 28 1c 27 bd 54 e9 9f bc a0 55 10 bd
       0.04696594 -0.040798336 -0.01952044 -0.03523791
000090 03 65 21 bc 46 03 9c bc 3f d7 84 3c 94 5f b0 bd
       -0.009850743 -0.01904453 0.016215919 -0.0861198
0000a0 b7 12 4f 3d 93 de a2 bd 01 84 b1 bd de 56 84 bd
       0.050554957 -0.07952609 -0.08667756 -0.06461881
0000b0 0b 1c 5f bd 48 1e 27 3d 10 11 cd bc 7f 72 56 3d
       -0.054470103 0.040800363 -0.02503255 0.052355286
0000c0 70 57 68 3c 4b f9 9f 3d 4c 54 75 bd ba 91 0a 3d
       0.014181003 0.07811221 -0.059894845 0.033830382
0000d0 db e2 5e bb fa 8c 62 bd 51 b7 c3 3c 0d 7e 8c 3d
       -0.0034009728 -0.055310227 0.023891123 0.0685998
0000e0 97 b5 b6 3c e8 7d b1 bd 66 a2 82 3d 46 a3 b9 3d
       0.022303386 -0.08666593 0.06378631 0.09064345
0000f0 ea c9 7f bd e6 1a 0c 3d 45 15 92 bd 82 3f e2 bc
       -0.06244842 0.03420534 -0.07132963 -0.027618174
000100 ec 17 8c bd df f7 ff bb 38 74 47 bd 10 30 b6 bd
       -0.068405 -0.007811531 -0.04869482 -0.08895886
000110 9d ff 7f bd 25 31 83 3b c8 5d 6a bd 62 da 10 bd
       -0.06249963 0.004003661 -0.057218343 -0.035364516
000120 20 42 33 3b 5a 5e aa bd 7d 97 90 bc c5 6f 09 3c
       0.0027352646 -0.083187774 -0.01765036 0.008388464
000130 f5 8a a0 3d 93 19 51 3b dd dc e0 bc c9 74 4d 3d
       0.07839004 0.0031906113 -0.027449066 0.050160203
000140 61 7e a1 3d b5 2b 00 bd 79 90 2e bd 2b 08 41 bc
       0.07885433 -0.031291682 -0.04261825 -0.011781733
000150 c2 89 a3 bd 20 a6 de bb 67 d3 14 bc d4 96 7b ba
       -0.079852596 -0.006794706 -0.009083605 -0.0009597365
000160 57 41 1e bc dd cc aa bd a5 6a 6e bd 67 7d 3a bd
       -0.009659133 -0.08339856 -0.058207173 -0.04552975
000170 b5 89 2f 3d 33 81 72 3d df 10 18 bd 40 6f b8 bd
       0.042855937 0.059205245 -0.037125465 -0.09005594
000180 26 f9 b8 3c 8a 08 d0 3b 3c 33 e4 3c 0e 1f 21 bd
       0.02257974 0.006348674 0.027856462 -0.039336257
000190 25 97 92 bc 42 06 71 bc 95 ac 91 bc ff 51 11 bd
       -0.017894337 -0.014710965 -0.017782489 -0.03547859
0001a0 20 00 09 bd 24 9e 09 3d 16 a9 7d 3d b0 26 b9 3b
       -0.033447385 0.03359808 0.06192883 0.005650364
0001b0 ba 2f bc 3d a2 1f 06 3d d6 13 65 3d ff 2e fa bc
       0.091887906 0.03274501 0.05592712 -0.030539988
0001c0 b1 1f a9 bd 6f a2 82 bd 6f 75 ba 3d ef da 27 bb
       -0.08257998 -0.06378638 0.0910443 -0.0025612672
0001d0 eb bf b8 bd fa 99 9c bd 55 cc 93 3d d0 2e aa bb
       -0.090209804 -0.07646556 0.072167076 -0.0051935688
0001e0 6d 67 4c bc 74 b3 97 bd 33 df 9a bd c7 21 bc bb
       -0.0124758305 -0.07407275 -0.07562103 -0.0057413313
0001f0 e6 50 a3 3d 43 dd 51 bd dd 99 45 bd 6e 05 4c 3d
       0.079744145 -0.051236402 -0.04824244 0.049809866
000200 e8 d9 44 3d c5 d4 1b 3d 9f cc 60 3d e9 e5 f4 bc
       0.048059374 0.03804471 0.054882642 -0.029894786
000210 f9 1d 98 3d 3b c5 5c bd 72 96 66 bd c0 c0 f3 3c
       0.07427592 -0.05389903 -0.05629582 0.029754996
000220 07 54 e2 3b 8b fe 3f 3d 2f 0a 96 3d d7 39 4b bd
       0.0069069895 0.04687361 0.07326161 -0.049615707
000230 46 d4 fd bc b2 52 58 bd b7 fd 9d 3d 80 d2 ab 3c
       -0.030985009 -0.05281324 0.07714408 0.020974398
000240 5d 2d f6 3c 24 1e a9 3d 84 c3 89 bd d0 b9 c0 bb
       0.030050928 0.08257702 -0.06726745 -0.0058815256
000250 6c e8 80 3d cb 2b 6c 3d 1e c9 4f bc 3b 15 cf bc
       0.06294331 0.05765895 -0.012682227 -0.025278678
000260 fa df 8f bd 58 84 9e bd 73 98 d8 3d 61 9f 2e bd
       -0.07025142 -0.07740086 0.105759524 -0.042632464
000270 8a cc 86 3d 94 e3 c6 3c e6 b8 2f 3d 6d 53 f1 bc
       0.065819815 0.02427844 0.042900942 -0.029458726
000280 8b 93 87 3c c8 5d 49 bc 38 68 b4 3a 45 4e 8c bd
       0.016549846 -0.012290426 0.001376397 -0.06850866
000290 4d 81 a6 3d 8a 05 94 3d 67 e3 d4 3b 22 fb 9b bd
       0.08130131 0.07227619 0.006496835 -0.07616259
0002a0 a5 c5 9b 3d e0 38 5f bc a8 22 3a 3d a4 12 05 3d
       0.07606057 -0.0136244 0.045443207 0.03248848
0002b0 9a df af 3c 48 07 8e 3c bb 9e ab bc 3f af a5 3d
       0.021468926 0.017337456 -0.020949712 0.08090066
0002c0 be 5b b6 bd 95 e3 89 bd 32 e6 3a 3d e9 b4 e3 3c
       -0.08904217 -0.06732861 0.045629688 0.027796226
0002d0 81 20 53 bd c3 24 56 bd 54 07 5e 3d 09 53 87 bd
       -0.05154467 -0.052281152 0.054206207 -0.066076346
0002e0 fe 77 b9 bd 56 88 6f 3c 9a eb f3 3c 25 63 33 3d
       -0.0905609 0.014619907 0.02977543 0.043795723
0002f0 fa 2b d0 3b 9c f5 15 bc 60 13 5c bd 1e dd 87 3d
       0.0063528987 -0.009152796 -0.053729415 0.06633972
000300 35 88 96 bc 42 38 11 bc 9f 9a 8d bc 12 bb c1 bd
       -0.018375495 -0.008863511 -0.017285643 -0.09459509
000310 78 1d 65 bd 6c 6d 99 bc cc f2 16 bc bd 05 02 bd
       -0.055936307 -0.018728934 -0.009213161 -0.031743754
000320 30 b7 6e bd 45 0f 88 bd 27 7b 34 3d bd a2 8f 3d
       -0.05828017 -0.066435374 0.04406276 0.07013462
000330 4d 18 77 3d e3 fa 2a bc f5 d3 dc 3c ac 01 0f 3d
       0.06032591 -0.010435793 0.026956538 0.034913704
000340 af 19 ac 3d 52 2b d7 bd 9a 4e 70 3d 42 fc 9e bc
       0.08403336 -0.105063096 0.05866871 -0.019407395
000350 24 aa b3 bb 19 8c 03 bd 7f ac 33 3d db b4 99 3d
       -0.005482929 -0.03211603 0.043865677 0.075051986
000360 32 41 3f 3d d7 92 03 bc 8f 4d ab 3c 84 96 42 3d
       0.046693034 -0.008030615 0.020911006 0.047506824
000370 26 b4 b1 3c 3d 6b fb bc 1e 3b bc bd 41 f7 c8 bc
       0.021692347 -0.030690784 -0.09190963 -0.024531962
000380 12 6d 4a bd 8f 5d 68 3d 32 11 9e 3d 15 f8 28 3d
       -0.049420424 0.05672985 0.077181235 0.041252214
000390 31 8f c7 3d 0b 28 08 bd 24 f9 81 bd 74 88 9a 3c
       0.097441085 -0.033241313 -0.06346348 0.018863894
0003a0 59 41 02 bd df 4b 37 bc fd 7f 96 3d a8 ca f7 ba
       -0.0318006 -0.011187523 0.073486306 -0.0018905001
0003b0 7c ce 56 bd 00 e0 70 3d aa ce f4 bb ec ca 64 3a
       -0.052443013 0.058807373 -0.0074709253 0.00087277475
0003c0 82 89 7e 3d a8 c8 57 3d 72 c6 04 bd 70 4a 3d 3d
       0.062142856 0.052681595 -0.032415815 0.046213567
0003d0 d7 eb 90 3b 3d da 37 bd a2 ac 7b 3c 1e ef 47 bd
       0.0044226456 -0.044885863 0.015360983 -0.048812024
0003e0 b2 ed 27 3d 93 71 f2 bb 38 26 d3 3c 57 47 90 bc
       0.04099817 -0.007398793 0.02577506 -0.017612142
0003f0 83 9a b5 bd db e2 19 3d 93 87 30 bd 9e 85 74 3c
       -0.088673614 0.03756986 -0.043098044 0.014924435

bias f4 [128]
000000 45 26 6a 3d cd 81 ea bb fa 95 71 bd f1 25 da bc
       0.057165403 -0.0071565867 -0.05898092 -0.02662942
000010 98 a2 2d 3c 52 f3 3c 3d 12 d9 15 3c 20 73 f7 3b
       0.010597847 0.046130486 0.009145992 0.0075515658
000020 6c 77 cd 3c bc ca 39 3d 16 e6 28 bd 78 fe 88 3d
       0.025081359 0.04535936 -0.041235052 0.06689161
000030 04 b2 18 3d b1 ec db 3c e8 01 50 bd 1a 07 80 bd
       0.037279144 0.026846262 -0.050783068 -0.062513545
000040 ff 02 c7 3d f8 8e b0 3d bd 79 9f 3d 8b 97 a8 bd
       0.09717368 0.08621019 0.077868916 -0.082320295
000050 1e 85 2b 3d ba 29 9f bc e7 b2 86 bc 5b f7 93 3d
       0.041874997 -0.019429076 -0.01644273 0.07224914
000060 1b 90 89 3c c0 37 48 bb 17 bc 73 3c 2f f9 6f 3d
       0.016792348 -0.0030550808 0.014876387 0.05858725
000070 4a 6d 1c 3d f4 86 36 3d 2d e1 d2 3b 95 24 b0 3c
       0.038190164 0.044562295 0.0064355345 0.021501819
000080 fa b9 84 bd be 9a 2d bd 81 d5 9a bd 35 48 ab 3d
       -0.06480785 -0.0423839 -0.07560254 0.08363382
000090 47 1b 1d 3d d3 88 5d bd c8 86 ae bc 71 d8 30 bd
       0.03835609 -0.054085564 -0.021304503 -0.043175165
0000a0 4a 24 80 bd 00 6a 6e bd da 1a 30 3d 56 7d 82 bd
       -0.062569216 -0.05820656 0.042994358 -0.06371562
0000b0 5a 28 d7 3c a3 69 49 bd 04 d3 82 3d 1f e2 48 bd
       0.026264358 -0.04917301 0.06387904 -0.04904377
0000c0 70 20 c4 bc fe 40 6d bd fb 5a 2d 3d 12 26 30 3d
       -0.023941249 -0.05792331 0.042323094 0.043005057
0000d0 74 ba a7 bd 0b 3e db 3c 78 e3 b4 3d a7 dd d1 bc
       -0.0818986 0.026762983 0.08832449 -0.025618387
0000e0 16 ae b5 3d d3 ae c4 bc b0 d5 91 bc d8 60 d2 3b
       0.08871095 -0.024009144 -0.01780209 0.006420236
0000f0 ae 9b ea bb 09 9c 90 bd ee e5 a2 bd 4c f2 6e bd
       -0.0071596717 -0.07061011 -0.07954012 -0.05833654
000100 d5 6b 97 bd de 03 14 bd 39 ed ae 3d 56 eb b7 bd
       -0.07393614 -0.0361365 0.085413404 -0.08980434
000110 c0 31 a5 3d 40 a6 64 3d f7 6d b0 3d 54 6f 36 3c
       0.0806613 0.05582261 0.08614724 0.011134941
000120 28 c7 03 3a 27 30 8d bd e5 e3 ad 3d bb 0c 2f 3a
       0.000502693 -0.0689395 0.08490733 0.0006677617
000130 02 16 16 bb 53 52 82 bd f0 df 93 3c 8c b4 e8 3b
       -0.0022901301 -0.06363358 0.018051118 0.007101601
000140 b7 92 cf 3d c9 ba c8 bc ff 2a 53 3c e2 19 b6 3d
       0.101354055 -0.024503129 0.012888669 0.088916555
000150 51 06 17 bd f3 06 f1 3c e9 b8 5e 3d ae 7d 8d 3d
       -0.03687126 0.029422259 0.054375563 0.06908737
000160 f3 54 87 3d 48 43 c9 3c 08 bb 69 3d 44 9b f8 bc
       0.06608 0.024568215 0.057063133 -0.030347474
000170 32 76 84 3d 97 d0 8f 3d bc 8b 77 3d 7b 7c 9e 3d
       0.064678565 0.07022207 0.060435995 0.077385865
000180 46 c3 a2 3d af fb 47 bd d6 85 36 3d 2b d5 83 3d
       0.07947402 -0.04882401 0.04456123 0.06437143
000190 a3 95 73 bd da 0b a4 bd af be b6 3c 1b c2 a3 3c
       -0.059468877 -0.08010073 0.022307722 0.019990018
0001a0 32 46 6f bd f6 1e ed 3c 0f 3c 6e bd 0c 54 f1 bb
       -0.058416553 0.028945427 -0.058162745 -0.0073647555
0001b0 94 8d c8 3d 10 76 39 bd d1 54 a6 3d f6 0b 03 3d
       0.09792629 -0.04527861 0.08121646 0.03199383
0001c0 b8 ee 20 bd e3 46 6c 3d 85 3d 0c 3d aa 27 8c bd
       -0.03929016 0.05768479 0.034238357 -0.06843503
0001d0 8a 78 c4 3d 03 79 22 ba 6e c1 b1 3c f7 d0 cb 3c
       0.095933035 -0.0006197842 0.02169868 0.024879916
0001e0 4e 20 a5 3d 3e a4 bd 3a 66 30 6d 3d bb a2 bd bc
       0.08062802 0.0014468504 0.057907484 -0.023148885
0001f0 f7 7b eb bc 72 44 b9 bd 12 2c 6a bc 55 50 7e 3d
       -0.028745634 -0.09046258 -0.014292734 0.06208833

weight f4 [1, 128]
000000 08 ca 3c 3d d9 47 af 3c f0 09 98 bc 37 a5 6d 3c
       0.04609111 0.021396564 -0.018559426 0.014504722
000010 1e 8a 99 3d 7a 1a 0c 3d 00 5c a0 3d 44 40 64 bd
       0.07497047 0.034204938 0.078300476 -0.05572535
000020 94 0a 3a bd 2b 39 64 bd 28 a5 36 bc a9 c8 0c 3d
       -0.045420244 -0.055718582 -0.011147775 0.034371052
000030 e4 f1 95 bd 71 e5 d4 bd 16 67 98 3d 30 ec 50 bd
       -0.073215276 -0.10395325 0.07441537 -0.051006496
000040 96 84 7d bd e6 0b 9a 3d 2f 62 04 3d ea f2 1c 3d
       -0.061894022 0.07521801 0.032320198 0.0383176
000050 88 6b 9a 3d 54 c8 37 bd 9f 17 f1 bc 9d cc b0 bd
       0.07540041 -0.044868782 -0.029430209 -0.08632777
000060 9c 94 b2 bd fe 77 5f 3d 92 f8 7f bd 1a 1c 24 3c
       -0.08719751 0.054557793 -0.062492914 0.010016466
000070 dc ef 98 bc 28 8f 85 3d 23 0b bd bd 7d 8a 84 bd
       -0.018669061 0.065214455 -0.0923064 -0.06471727
000080 a1 14 b1 3c 4c 88 9f 3c 53 f4 44 bd 14 90 b6 3d
       0.021616282 0.019474171 -0.04808457 0.089141995
000090 26 d0 84 3d 97 73 da 3d 3e 4b 59 3d 05 5f 07 bd
       0.06485014 0.10666578 0.053050272 -0.033049602
0000a0 64 6a b1 bd dd f1 98 bd 6a 96 e5 bc 23 83 15 bd
       -0.086628705 -0.07468007 -0.028025825 -0.036502015
0000b0 ff 06 28 bd ee 37 52 bd 6e 12 c5 3d fb 98 58 3d
       -0.041022297 -0.05132287 0.09622656 0.05288027
0000c0 dd b6 da 3d e0 fc 05 bd df 8a 96 bd 1e 27 2e 3c
       0.1067941 -0.032711864 -0.07350706 0.010629443
0000d0 8c eb 54 3d ef 44 9f bd d9 74 7f 3d 82 d8 7a bd
       0.051982448 -0.0777682 0.062367294 -0.061241634
0000e0 bf 78 2f bd 5f 7c 1b 3d 3d 2a c6 bd a1 a8 26 bd
       -0.04283976 0.037960406 -0.09676025 -0.04068816
0000f0 84 78 b2 bd 8e 02 89 bd 86 ef 54 3d a0 80 f8 bc
       -0.08714393 -0.066899404 0.05198624 -0.03033477
000100 2e 49 31 3d 0a e6 8b bd ef 29 81 3d 1e 98 95 bd
       0.04328268 -0.06830986 0.06306826 -0.07304405
000110 2b 09 92 bd 5e 9d bc 3d c2 56 d3 3c 23 9a 99 3d
       -0.07130655 0.09209703 0.025798205 0.07500102
000120 40 3c 3e 3d 09 9f 2c 3d 8c fc 37 bd b5 b3 97 3d
       0.046444178 0.042143855 -0.04491858 0.07407323
000130 2f 11 45 3d e7 f3 95 bd 3f fb 0d bd 0e 46 3e bd
       0.04811209 -0.07321911 -0.034663435 -0.046453528
000140 aa 71 23 bd 7c c2 9d 3d 7f fb 86 3d fd 7d 95 bd
       -0.03990332 0.077031106 0.06590938 -0.07299421
000150 7d 1c c6 bc df a2 01 bd 3c e8 a4 3d 51 51 87 3d
       -0.024183506 -0.031649467 0.08052108 0.06607307
000160 1a 27 5a bd 72 dc 93 bd e8 41 8c 3d 2e 97 2f 3d
       -0.053259946 -0.07219781 0.06848508 0.042868786
000170 35 55 a7 3d c6 c5 ef bc 44 ae af 3d 17 c5 ad 3d
       0.08170549 -0.02926911 0.085781604 0.084848575
000180 ac bd 86 3d 65 54 b0 3d 10 87 8c 3c 9e b8 a5 3d
       0.06579146 0.08609847 0.017154247 0.080918536
000190 f5 d5 96 bd 0c 42 b1 bd 98 b6 c8 3d 87 f4 ea 3d
       -0.07365028 -0.086551756 0.09800452 0.11472421
0001a0 b4 27 a8 3d e1 1c 8a bd 5c 83 81 bd b6 96 b0 bc
       0.08210698 -0.067437895 -0.06323883 -0.02155624
0001b0 a7 1f 7c bd 0d 8d c8 bd 2b d0 8c 3d 83 e0 97 bd
       -0.061553624 -0.09792528 0.068756424 -0.07415869
0001c0 ad 4b 9f bd 33 62 40 bd 06 ab 69 bc 31 90 84 bd
       -0.07778106 -0.04696865 -0.014261967 -0.06472815
0001d0 a4 9b 2d bd 03 a2 36 3d 29 2a 8e 3d f9 0b 8c bd
       -0.04238476 0.0445881 0.06941635 -0.06838221
0001e0 6f cc 73 bd 2e be c6 3d e4 a0 b2 3d 42 df 34 3b
       -0.059521135 0.09704243 0.08722094 0.0027598892
0001f0 50 b3 ac 3d 03 b8 78 3c f2 78 a8 3d 87 16 20 3d
       0.08432639 0.015180591 0.082261935 0.039083984
