save/data.pt (torch, 72511 bytes, 5 tensors)

weight f4 [128, 4]
0	0xbe71a5fd	-0.23598476
1	0x3e556b18	0.20841634
2	0xbda14cf8	-0.07876009
3	0x3ec0e284	0.37672818
4	0xbee9e3a5	-0.45681491
5	0x3e89f351	0.26943448
6	0xbe9c88f4	-0.30573237
7	0xbece6ffd	-0.40319815
8	0x3ea73147	0.32654783
9	0xbeb43303	-0.3519517
10	0xbd9cd8b7	-0.076585226
11	0x3e6e0859	0.23245372
12	0x3ea91bf0	0.33029127
13	0xbcd2110a	-0.02564289
14	0xbe5a2b94	-0.21305686
15	0xbeedb0e5	-0.46424022
16	0x3e17b114	0.14813644
17	0xbce3e5e3	-0.02781958
18	0xbe54691e	-0.20743224
19	0xbedcb923	-0.43109998
20	0x3dab466d	0.08363042
21	0xbe11742f	-0.14204477
22	0x3e70ae63	0.23504023
23	0x3dd707b5	0.10499517
24	0xbebccbfe	-0.36874384
25	0xbe8923c9	-0.26785114
26	0xbe8d055e	-0.27543157
27	0x3ebcd3a5	0.36880222
28	0xbe5046d2	-0.20339516
29	0xbeedfc39	-0.46481493
30	0xbd7463fe	-0.059665672
31	0xbe908752	-0.2822824
32	0xbecb9952	-0.39765412
33	0x3eb8c3b5	0.36086813
34	0x3eab7836	0.3349015
35	0xbeacebb7	-0.33773586
36	0x3d8156d3	0.063153885
37	0xbd2a3d49	-0.041562352
38	0xbef4defe	-0.4782638
39	0xbeb8847c	-0.36038578
40	0x3ed5f3dc	0.41787612
41	0x3ef857a1	0.48504356
42	0x3de97a97	0.11400335
43	0xbec2e450	-0.38064814
44	0x3e706781	0.23476984
45	0xbe8e66b1	-0.27812722
46	0x3e53cd45	0.20683773
47	0x3e3f2a22	0.18668416
48	0x3ecc1188	0.39857125
49	0x3ea05c1b	0.3132027
50	0xbe1b22a4	-0.15149933
51	0xbeed1f65	-0.46313015
52	0x3ec51033	0.38488922
53	0x3d83e0eb	0.06439384
54	0x3e642824	0.22280937
55	0xbe550a42	-0.20804694
56	0x3e36572b	0.1780669
57	0xbeb5ad65	-0.35483852
58	0xbeceae84	-0.4036752
59	0x3e8fef1b	0.2811211
60	0x3e8451db	0.258437
61	0x3eb3f359	0.35146597
62	0x3ebaadc0	0.36460686
63	0x3f04d9a8	0.5189462
64	0x3d73a261	0.05948103
65	0x3e126448	0.14296067
66	0x3e470a36	0.19437489
67	0x3e9cf715	0.3065726
68	0x3ebc396f	0.36762568
69	0xbe0dec9e	-0.13859794
70	0xbe57cf5d	-0.21075197
71	0xbef8d775	-0.4860188
72	0xbd2d0258	-0.042238563
73	0xbe47b71b	-0.19503443
74	0xbe9440da	-0.28955728
75	0x3d6c2d16	0.057660185
76	0xbdac5483	-0.08414557
77	0xbe42f0f5	-0.1903723
78	0xbe682bee	-0.22673008
79	0x3eb4271e	0.35186094
80	0x3e5c2e20	0.2150197
81	0x3e99f5a5	0.30070224
82	0x3e26098f	0.16214584
83	0xbe4061d2	-0.18787315
84	0xbd761964	-0.060082808
85	0x3ecb83a7	0.3974888
86	0x3ed1b4fa	0.40958387
87	0x3ea4a9a9	0.3216069
88	0x3ecea824	0.40362656
89	0xbe8954b6	-0.26822442
90	0x3deee1c5	0.11664156
91	0x3ef76628	0.48320127
92	0x3e929449	0.28628758
93	0xbe8099d1	-0.25117353
94	0xbeef30d9	-0.46716955
95	0xbdb3fa9d	-0.08788035
96	0xbe7cee6f	-0.2470033
97	0xbe48ffde	-0.19628856
98	0x3eab880a	0.33502227
99	0x3dc6f62e	0.09714924
100	0x3d409e16	0.047025762
101	0xbc046132	-0.008079814
102	0xbee9143d	-0.45523253
103	0x3df38106	0.11889844
104	0x3d16a003	0.036773693
105	0x3eac1390	0.33608675
106	0xbe8b816d	-0.27247182
107	0x3e954e01	0.29161075
108	0x3ed06c0a	0.40707427
109	0xbe277a99	-0.16355361
110	0xbe2200ce	-0.1582062
111	0xbeb3322d	-0.3499922
112	0x3e0c984d	0.13729973
113	0xbe8877c5	-0.26653877
114	0x3ec64439	0.38723925
115	0xbee33b99	-0.44381407
116	0xbe75ab15	-0.23991044
117	0x3d27064a	0.040777482
118	0xbdd935ae	-0.10605942
119	0x3defd544	0.11710599
120	0xbe8b1192	-0.27161843
121	0xbebb8b6f	-0.36629817
122	0xbd0ed7d2	-0.03487379
123	0x3edd21b3	0.43189773
124	0xbb10fca6	-0.0022123246
125	0xbea2f1ad	-0.3182501
126	0xbabb4558	-0.0014287634
127	0x3e40f2fc	0.18842691
128	0x3e0ced4f	0.13762401
129	0x3e840140	0.25782204
130	0xbd6be38d	-0.057590056
131	0xbee36a42	-0.44417006
132	0xbcbe5134	-0.02323208
133	0xbce54c8a	-0.027990598
134	0x3eb8c6c9	0.3608916
135	0xbe380749	-0.17971529
136	0xbefc145c	-0.49234283
137	0xbe8d12f4	-0.27553523
138	0xbe28663c	-0.1644525
139	0x3efc9f7a	0.4934042
140	0x3edb2299	0.42799833
141	0x3e921446	0.28531092
142	0xbdc73046	-0.09726004
143	0xbe64d19b	-0.22345583
144	0xbe458768	-0.19289935
145	0xbc326c57	-0.010890088
146	0xbed4321b	-0.41444477
147	0x3dbf0193	0.09326472
148	0xbe25bfb6	-0.16186413
149	0x3dd28e63	0.10281064
150	0x3df90583	0.121592544
151	0xbee9f0c0	-0.4569149
152	0x3e806102	0.2507401
153	0x3e7c71fd	0.24652858
154	0xbecb7967	-0.3974106
155	0xbe9f6985	-0.31135193
156	0xbe92cd2d	-0.28672162
157	0x3ef5b3d6	0.47988766
158	0x3e2f7b36	0.17136845
159	0x3e5f7c00	0.21824646
160	0x3e858735	0.26079717
161	0x3ee8ec69	0.45492867
162	0x3e90130e	0.28139538
163	0x3eafbd60	0.3432417
164	0x3e2b07ea	0.16702238
165	0x3e42809a	0.1899437
166	0x3de02ace	0.10945664
167	0xbe52c811	-0.20584132
168	0xbe968f2a	-0.294061
169	0x3ebcba17	0.36860725
170	0xbcd95e8b	-0.02653434
171	0xbed01a93	-0.40645275
172	0x3ed2fe95	0.41209856
173	0xbd756625	-0.059911866
174	0xbe3c5561	-0.18391944
175	0xbd090308	-0.033450156
176	0x3e990988	0.29890084
177	0x3eaef88b	0.34173998
178	0xbea5772a	-0.32317477
179	0xbe4ded2c	-0.20110005
180	0xbede3558	-0.43400073
181	0xbdc3bc7f	-0.09557437
182	0x3e6e30ad	0.23260756
183	0xbef6e41c	-0.4822091
184	0x3e345ad8	0.17612779
185	0xbee68a4c	-0.45027387
186	0x3ce897f3	0.028392768
187	0x3e1ca98e	0.15299055
188	0x3bca39aa	0.006171425
189	0x3de83027	0.11337309
190	0xbe317b28	-0.17332137
191	0x3e0056c0	0.12533092
192	0xbed2bc39	-0.41159227
193	0xbe6cb643	-0.23116402
194	0x3e994f31	0.2994323
195	0xbe975faa	-0.29565173
196	0xbdb5f9da	-0.08885546
197	0xbeb2b25c	-0.34901702
198	0xbe8b5818	-0.27215648
199	0x3d80c131	0.06286848
200	0x3e81ee27	0.25377008
201	0x3dcf67e4	0.101272374
202	0xbec1642e	-0.37771744
203	0x3efd7131	0.4950042
204	0xbee196d1	-0.44060376
205	0xbdaa9917	-0.08329981
206	0x3ead8278	0.33888602
207	0xbec92088	-0.39282632
208	0x3e41bee5	0.18920477
209	0xbecb9672	-0.39763218
210	0xbca3334f	-0.019921927
211	0x3bc510e2	0.0060139755
212	0x3ed25c98	0.41086268
213	0x3eb48135	0.35254827
214	0xbe78d133	-0.24298553
215	0xbe4d9194	-0.20075065
216	0x3e6d1b9f	0.23155068
217	0xbed4b76e	-0.41546196
218	0xbec0a096	-0.37622517
219	0xbe60947a	-0.2193164
220	0xbc1d745d	-0.009610263
221	0x3cf1aaf4	0.029500462
222	0xbdb545ec	-0.08851227
223	0xbef7f3c9	-0.4842818
224	0xbe1f8ac7	-0.15580283
225	0x3e1e8dca	0.15483776
226	0xbcbb929a	-0.022897054
227	0xbeceaad4	-0.40364707
228	0x3ef7ab91	0.48373082
229	0xbd4208a1	-0.04737151
230	0xbee379c8	-0.4442885
231	0xbe69a0d4	-0.22815257
232	0xbcbde7b0	-0.023181766
233	0x3ed78450	0.42093134
234	0x3dc1c4a5	0.09461335
235	0xbe2ae10b	-0.1668741
236	0x3f03a127	0.51417774
237	0xbc8f2f32	-0.01747856
238	0xbe74883b	-0.23880093
239	0xbe8e0fc0	-0.2774639
240	0x3e761d6c	0.24034661
241	0xbed63448	-0.41836762
242	0xbdcdd633	-0.10050621
243	0x3eec4d21	0.46152595
244	0xbd60aa7d	-0.05485009
245	0xbeb14235	-0.34620824
246	0x3e13c324	0.14429909
247	0x3bf6ebc7	0.007535431
248	0xbec3b81c	-0.38226402
249	0xbe98d4fa	-0.29849988
250	0xbea075e5	-0.31339946
251	0x3ef2a98c	0.4739498
252	0x3dd985f9	0.106212564
253	0x3ee3dbfa	0.44503766
254	0xbe313684	-0.17305952
255	0xbede581e	-0.43426603

bias f4 [128]
0	0x3edc72e0	0.43056393
1	0xbe75dc89	-0.24009909
2	0x3e416c04	0.18888861
3	0xbd7fd083	-0.06245471
4	0xbe7b5f5c	-0.24548095
5	0xbe14b748	-0.14523041
6	0x3e1a6a1a	0.15079537
7	0xbeb9c3dd	-0.36282244
8	0xbef0b71e	-0.47014707
9	0xbd0524db	-0.03250585
10	0xbe3514e1	-0.17683746
11	0x3cee2353	0.029069578
12	0x3d1de83c	0.038551554
13	0xbe4feafe	-0.20304486
14	0x3ddcb391	0.10776437
15	0xbe760257	-0.2402433
16	0x3e14aad0	0.14518285
17	0x3efde365	0.4958755
18	0xbe7e2bfb	-0.24821465
19	0x3ebcf2b8	0.3690393
20	0xbed01a1e	-0.40644926
21	0x3ef9f17a	0.48817044
22	0xbede7d1f	-0.43454835
23	0xbedb6309	-0.42848995
24	0x3effebdc	0.49984634
25	0x3d4b26e8	0.04959765
26	0xbcf25695	-0.029582301
27	0x3e17278d	0.14761181
28	0x3e90a1f4	0.2824856
29	0x3ee31767	0.44353792
30	0x3eef5199	0.46741942
31	0xbee8f1cd	-0.4549698
32	0xbe808886	-0.2510416
33	0xbdc0d626	-0.094158456
34	0x3e1dad29	0.15398087
35	0x3e63e508	0.22255337
36	0xbdc45897	-0.0958721
37	0x3b94e101	0.004543424
38	0xbea46ac7	-0.32112715
39	0x3eae0e49	0.33995274
40	0x3dbe5c9e	0.09295009
41	0xbef01045	-0.46887413
42	0xbe198073	-0.14990406
43	0x3ef9a2dd	0.48757067
44	0xbefb1b0b	-0.4904407
45	0x3ec5bbe2	0.38619906
46	0xbef9f127	-0.48816797
47	0x3d9ed2d2	0.077550545
48	0x3e97ee30	0.2967391
49	0xbd546213	-0.051851343
50	0x3eb45c50	0.3522668
51	0x3ec96c6e	0.39340538
52	0x3ea78bcc	0.32723844
53	0xbe9a4798	-0.30132747
54	0xbe89e0fb	-0.2692946
55	0x3ed52546	0.4163
56	0x3bb55151	0.0055333753
57	0xbd2cb78f	-0.042167243
58	0x3eab8ffe	0.33508295
59	0xbebc341d	-0.3675851
60	0xbeb75732	-0.35808712
61	0x3ee9372f	0.45549914
62	0xbee0d3ea	-0.43911678
63	0xbea58d3c	-0.32334316
64	0xbeb894b8	-0.36050963
65	0x3ee07e24	0.43846238
66	0x3ec93c38	0.39303756
67	0x3e9c5e02	0.30540472
68	0xbe262da0	-0.16228342
69	0x3ea8ab40	0.32943153
70	0xbece830c	-0.40334356
71	0xbeb5d803	-0.35516366
72	0x3e34d136	0.17657933
73	0xbefc8b2a	-0.49324924
74	0xbe4956d0	-0.19662023
75	0x3e2473ce	0.16059801
76	0x3ba29c2e	0.0049624657
77	0x3e84ce6c	0.25938737
78	0x3d14fd9e	0.03637468
79	0xbef19792	-0.4718595
80	0xbdfb68be	-0.12275837
81	0xbe761f01	-0.24035265
82	0x3cc073af	0.023492662
83	0x3c1cf9e8	0.009581067
84	0x3daf340b	0.08554848
85	0xbe50f6c9	-0.20406641
86	0x3d1cd63c	0.038290247
87	0xbe31fa28	-0.17380583
88	0x3ee8179a	0.45330507
89	0xbd969b15	-0.07353798
90	0xbe81a5cc	-0.25321805
91	0x3e9551f1	0.2916408
92	0xbe6e5a74	-0.23276693
93	0xbe2b7d93	-0.16747122
94	0x3e13d93a	0.14438334
95	0xbe73f3ee	-0.2382352
96	0xbe5bc069	-0.21460117
97	0x3db5f003	0.08883669
98	0x3e998af3	0.29988822
99	0x3edfda65	0.4372131
100	0xbd54f682	-0.0519929
101	0x3e8ab182	0.27088553
102	0xbee22d2b	-0.44175085
103	0x3e49b0c7	0.19696341
104	0xbdadd224	-0.08487347
105	0x3efd7fff	0.49511716
106	0xbd95779d	-0.07298205
107	0xbe76a206	-0.24085245
108	0xbe03f0bb	-0.128848
109	0xbebad3df	-0.3648977
110	0x3d8f030e	0.069830045
111	0xbdd24981	-0.10267926
112	0xbdea8d66	-0.11452751
113	0x3ee399a0	0.44453144
114	0x3e330a26	0.1748434
115	0x3e80b1e6	0.25135726
116	0x3ea25556	0.3170573
117	0xbeacb550	-0.3373208
118	0x3e1ddce1	0.1541629
119	0x3e0e1835	0.13876422
120	0x3ec687d7	0.38775513
121	0x3e623778	0.22091472
122	0xbecc1482	-0.39859396
123	0x3ecad346	0.39614314
124	0x3ec985ef	0.39359996
125	0x3d86828e	0.0656787
126	0x3ec5ce3b	0.38633904
127	0xbe7bbc8b	-0.24583642

weight f4 [128, 128]
0	0xbd349001	-0.044082645
1	0x3d499f6a	0.049224295
2	0x3c8c5ddc	0.0171346
3	0xbd83ce38	-0.064358175
4	0x3cefabc4	0.029256709
5	0xbd721479	-0.059101555
6	0x3d2d7001	0.042343143
7	0xbda3621b	-0.079776965
8	0x3d67f033	0.056625556
9	0x3d836b9d	0.0641701
10	0xbc037a06	-0.008024698
11	0xbce88d5a	-0.028387714
12	0x3cfce837	0.030872447
13	0x3d5f806b	0.05456583
14	0x3da5dcb1	0.08098734
15	0xbdba37b3	-0.09092655
16	0x3d9389d2	0.072040215
17	0xbd571db2	-0.052518554
18	0xbce635a4	-0.02810175
19	0xbd8765a4	-0.06611183
20	0xbcd2a8e7	-0.025715305
21	0xbd39658b	-0.045262855
22	0x3d8cd5c5	0.06876711
23	0xbc950d08	-0.01819469
24	0xbd983bc1	-0.07433272
25	0xbaa7e400	-0.0012809038
26	0xbb9f70c0	-0.004865736
27	0x3ceeac58	0.029134914
28	0xbc4d68c0	-0.012537181
29	0x3d60a183	0.05484153
30	0x3d03f823	0.032219063
31	0x3d142f5c	0.036177978
32	0xbdbe377c	-0.092879266
33	0x3d893ddf	0.06701254
34	0xbdac770c	-0.08421144
35	0x3d0a0e51	0.03370506
36	0xbd1ce5ad	-0.038304973
37	0xbd0709b1	-0.032968227
38	0xbcbcf2b8	-0.023064956
39	0x3d604e2e	0.054762058
40	0xbd86867c	-0.065686196
41	0x3db1edc5	0.08687929
42	0x3d25d168	0.04048291
43	0xbc8df14c	-0.017326973
44	0xbcd79276	-0.026314955
45	0x3d9a8706	0.07545285
46	0x3d0b07d8	0.033943027
47	0x3c9071de	0.017632421
48	0x3c3cb226	0.011517083
49	0x3d210a96	0.039316736
50	0x3d5277a2	0.051383622
51	0xbd620b79	-0.055186722
52	0xbd9f9520	-0.07792115
53	0xbd116776	-0.03549906
54	0x3c5c4418	0.013443969
55	0xbd8a62ec	-0.06757149
56	0xbdc66dea	-0.09688933
57	0xbdb0f2af	-0.08640038
58	0x3d467ad6	0.04845699
59	0x3d32673e	0.04355549
60	0xbd7ee463	-0.062229525
61	0x3d7ff021	0.062484864
62	0xbcccbcb4	-0.024992324
63	0xbdc5acf5	-0.096521296
64	0xbc760358	-0.015015446
65	0xbd8b19c4	-0.06792024
66	0xbd9c7f2a	-0.07641442
67	0x3d455573	0.048177194
68	0xbdafd668	-0.085858166
69	0xbdb3a2ab	-0.08771261
70	0xbcf33b42	-0.029691342
71	0xbbe2d3b0	-0.006922208
72	0xbc5bbaa1	-0.013411195
73	0xbc5dda10	-0.01354076
74	0x3daa3959	0.083117194
75	0xbb7fadc0	-0.0039013475
76	0xbd947bb6	-0.072501585
77	0xbd748d55	-0.059705097
78	0xbc9523e4	-0.01820559
79	0xbccb1f6d	-0.024795258
80	0xbbbe22b4	-0.005802477
81	0x3cc348da	0.02383845
82	0xbc932280	-0.017960787
83	0xbd95585d	-0.072922446
84	0x3d480e56	0.048841797
85	0x3d40653e	0.046971552
86	0xbbb2ec1d	-0.005460276
87	0x3d380642	0.044927843
88	0xbdbc5f75	-0.091978945
89	0xbc311c85	-0.010810022
90	0xbd4360af	-0.047699627
91	0x3da1c6a9	0.078992195
92	0xbd908426	-0.07056455
93	0x3ce87f82	0.028381113
94	0x3d980711	0.07423223
95	0x3d73669e	0.059424035
96	0xbcae3c6c	-0.021269046
97	0xbd6b625a	-0.057466842
98	0xbd80d449	-0.0629049
99	0x3bc73cab	0.00608023
100	0xbca8d9ea	-0.020611722
101	0x3ccf2464	0.025285907
102	0x3d6da2b9	0.058016513
103	0xbdb49845	-0.088181056
104	0xbda4ead8	-0.080526054
105	0xbb83c722	-0.004021541
106	0x3a50d777	0.0007966677
107	0x3d5a8d02	0.05335713
108	0x3d626af2	0.055277772
109	0xbced7087	-0.028984321
110	0xbd283a6b	-0.041071337
111	0x3d4e08ae	0.050301246
112	0xba9dc9c0	-0.0012038276
113	0x3c130ffc	0.008975979
114	0x3b91d5a8	0.0044505186
115	0x3d765bf5	0.06014629
116	0xbc73c338	-0.014878087
117	0x3d114446	0.0354655
118	0xbd79e60c	-0.061010405
119	0xbd01f567	-0.031728175
120	0x3bc7559b	0.006083203
121	0x3d6e53ae	0.058185272
122	0x3d167f84	0.036742702
123	0x3d75fb8c	0.060054347
124	0x3c0be06a	0.008537391
125	0xbc866e4c	-0.016410016
126	0x3b48956c	0.003060664
127	0xbd9975b7	-0.074931554
128	0x3d0859a1	0.0332886
129	0xbd870bd4	-0.06594053
130	0xbc3cc205	-0.011520867
131	0xbd18c770	-0.037299573
132	0xbcd8ef05	-0.02648116
133	0x3dccc912	0.099992886
134	0xbd7c720e	-0.06163221
135	0xbda1668e	-0.07880889
136	0x3d2a0f50	0.04151851
137	0x3d5cccd9	0.053906295
138	0x3d07562d	0.033041168
139	0x3cb32b8f	0.021871356
140	0xbd938bab	-0.07204374
141	0xbd595e44	-0.053068414
142	0x3db29ac0	0.087209225
143	0x3dc0d56d	0.09415708
144	0x3d4506ea	0.048102297
145	0xbd6bb437	-0.057544913
146	0x3db308a7	0.08741885
147	0x3d9b50b8	0.07583755
148	0xbd4c471c	-0.049872503
149	0xbce73382	-0.028222803
150	0xbd255792	-0.040366717
151	0x3d930757	0.07179134
152	0xbc315ae2	-0.010824891
153	0x3dbc7f27	0.0920394
154	0xbc0f94a3	-0.008763465
155	0xbd0840c0	-0.033264875
156	0x3d9956d7	0.074872665
157	0x3caa542d	0.020792091
158	0x3d8072b1	0.06271876
159	0x380f0221	3.409584e-05
160	0x3d056f5a	0.032576896
161	0xbd1e85a3	-0.038701665
162	0xbd426386	-0.047458194
163	0x3b7f2c91	0.0038936476
164	0xbce4a211	-0.02790931
165	0xbd415f7f	-0.047210213
166	0x3be90bd1	0.0071120043
167	0x3c963e41	0.018340232
168	0x3d20d3c8	0.03926447
169	0x3de320f8	0.11090273
170	0x3d8bef91	0.06832803
171	0x3d326f70	0.043563306
172	0x3c0d3b80	0.008620143
173	0x3d6c624b	0.057710927
174	0x3dc2b4c9	0.09507138
175	0x3d568f99	0.05238304
176	0xbdc795bd	-0.09745357
177	0x3c8db877	0.017299874
178	0x3cdc6d46	0.026907574
179	0x3d89f1e4	0.0673559
180	0xbc2419c7	-0.010015911
181	0xbb40ecf2	-0.0029438105
182	0xbd98e320	-0.07465196
183	0x3d6d5205	0.057939548
184	0x3b7f8dee	0.0038994509
185	0x3d85f42a	0.06540711
186	0xbc4d4cb0	-0.012530491
187	0x3cc0e37f	0.023545979
188	0x3d9635f1	0.07334507
189	0xbd8b807a	-0.06811614
190	0x3d818dfb	0.06325909
191	0xbd3adfb8	-0.04562351
192	0xbca21ecb	-0.019790074
193	0x3d142fb6	0.036178313
194	0xbd6ae99d	-0.057351697
195	0x3d7ebb58	0.062190384
196	0x3d22abfa	0.03971479
197	0x3d5edf84	0.05441238
198	0x3dc33318	0.0953123
199	0x3ca3fe7c	0.020018809
200	0xbc3a6158	-0.011375748
201	0x3cd9d232	0.026589487
202	0x3d7f94c3	0.06239773
203	0xb9f79d41	-0.00047228675
204	0xbc97a9f6	-0.01851366
205	0xbc614a5b	-0.013750638
206	0x3d23e71a	0.040015317
207	0x3d512f3c	0.051070437
208	0xbd1e5753	-0.038657498
209	0x3bd0496f	0.00635641
210	0xbd21dbcc	-0.039516255
211	0xbd4dfda4	-0.05029072
212	0xbdaca1b0	-0.08429277
213	0xb981962a	-0.00024716678
214	0xbd1e2eee	-0.038618974
215	0x3da40c40	0.08010149
216	0xbcf0d1e2	-0.029396955
217	0x3d787775	0.060660798
218	0xbdb8cc16	-0.09023301
219	0x3d1914f2	0.03737349
220	0x3dccf450	0.100075364
221	0xbda4cd93	-0.08047023
222	0x3ced520a	0.028969783
223	0xbcebf6da	-0.028804231
224	0x3d1b2690	0.037878573
225	0xbdb3bb41	-0.0877595
226	0xbd3fbac0	-0.046808958
227	0xbd969190	-0.073519826
228	0x3bce099a	0.0062877657
229	0xbc0a2d92	-0.008433716
230	0xbdb4368d	-0.08799467
231	0xbd52d445	-0.051471967
232	0xbd92e00b	-0.07171639
233	0x3da88dd7	0.08230179
234	0x3d13109a	0.035904504
235	0x3d278af6	0.040904008
236	0xbd7aa04c	-0.061188027
237	0x3c77a9d5	0.015116175
238	0x3d3ed04c	0.046585366
239	0xbca0ce15	-0.019629518
240	0xbc863516	-0.016382735
241	0x3d383481	0.044971947
242	0x3d123bc0	0.035701513
243	0xbd19f8f7	-0.037590947
244	0xbd8286f6	-0.06373398
245	0x3d61357c	0.054982647
246	0xbcd56204	-0.026047714
247	0x3cbf435c	0.02334755
248	0x3cbf2c49	0.023336546
249	0xbd18847e	-0.03723573
250	0x3c94725c	0.018120937
251	0x3d9bd9fb	0.07609936
252	0x3d9686d4	0.07349935
253	0xbbc9d18c	-0.006159013
254	0xba11b38e	-0.0005558067
255	0xbdb26caf	-0.08712136

bias f4 [128]
0	0xbd67701c	-0.0565034
1	0xbca25519	-0.019815968
2	0x3d49ab44	0.049235597
3	0x3a345962	0.0006879774
4	0x3db0a8cf	0.08625948
5	0xbcb0998a	-0.021557588
6	0xbd24c05e	-0.04022252
7	0x3d058947	0.03260162
8	0xbda5c020	-0.080932856
9	0x3c439f32	0.011939811
10	0x3d5b9548	0.053609163
11	0x3b98b730	0.0046605095
12	0x3d878bfb	0.06618496
13	0xbce841cf	-0.028351692
14	0xbd53f6d5	-0.05174907
15	0xbd54744e	-0.05186873
16	0x3db2c267	0.087284856
17	0x3da1a745	0.07893232
18	0xbd00cb80	-0.031444073
19	0xbda82ea0	-0.08212018
20	0x3d8c4f42	0.06851055
21	0xbd9e8737	-0.07740634
22	0xbc3da610	-0.011575237
23	0xbd6fed98	-0.058576196
24	0x3d1eaf21	0.038741235
25	0xbc608d37	-0.013705543
26	0xbd4a01e1	-0.049318198
27	0xbdbf3b81	-0.09337521
28	0xbd2ff944	-0.042962328
29	0x3d3bb97f	0.0458312
30	0x3d2e0040	0.042480707
31	0x3dc125a9	0.09431011
32	0x3da1fb1b	0.07909223
33	0xbd808e69	-0.062771626
34	0xbcc575f0	-0.024104089
35	0x3d2bfb0f	0.041987475
36	0xbd9f22e1	-0.077703245
37	0xbbe52175	-0.006992514
38	0x3da36d8b	0.07979878
39	0xbd724077	-0.05914351
40	0xbd13f963	-0.036126506
41	0x3d794cb0	0.06086415
42	0x3dad19bc	0.08452174
43	0x3d048913	0.032357287
44	0x3d9a118b	0.07522877
45	0x3d95bba3	0.073111795
46	0x3d90b866	0.07066421
47	0xbbdd823f	-0.0067599113
48	0x3d4e3169	0.05034009
49	0x3d6a07d0	0.057136357
50	0xbd44c9cd	-0.048044015
51	0xbd759bab	-0.05996291
52	0xbcc9e017	-0.024642987
53	0x3d8b594f	0.06804144
54	0xbd78ba07	-0.060724284
55	0xbc922b70	-0.017842978
56	0x3c802b08	0.015645519
57	0x3d0e2f01	0.034712795
58	0xbc2c5700	-0.010518789
59	0xbc7f46b6	-0.015580824
60	0xbc467fc0	-0.012115419
61	0xbd099385	-0.03358795
62	0xbba322d4	-0.004978517
63	0xbd542f44	-0.05180289
64	0xbd6cee6e	-0.05784457
65	0x3b8c4b30	0.004281424
66	0xbd4447bc	-0.047919974
67	0xbd854922	-0.065080896
68	0x3db16de9	0.08663542
69	0xbda8783d	-0.08226059
70	0xbc4f5db2	-0.012656616
71	0xbd1e4e8e	-0.038649134
72	0xbd73e3cf	-0.059543427
73	0xbb94606e	-0.004528097
74	0x3bac4ef5	0.005258436
75	0x3dc71986	0.09721665
76	0x3b54357a	0.0032380507
77	0xbdb1aec5	-0.08675913
78	0x3da00d3c	0.07815024
79	0x3bc7f282	0.006101907
80	0x3dcbfad0	0.09959948
81	0xbd150fde	-0.036392085
82	0x3d92fce9	0.07177145
83	0xbc4775d0	-0.012174085
84	0xbc9f0486	-0.019411337
85	0x3d2b0912	0.041756697
86	0x3d8af19c	0.067843646
87	0x3d349f7d	0.044097412
88	0xbc4c4df2	-0.0124697555
89	0x3da4b1e2	0.08041741
90	0xbcdd3a19	-0.027005242
91	0x3d4daf11	0.050215784
92	0xbd875948	-0.06608826
93	0x3c271487	0.010197765
94	0xbd94e264	-0.07269743
95	0xbd5da926	-0.05411639
96	0x3d014896	0.031563364
97	0xbc7cd4e0	-0.015431613
98	0xbd6f4eb9	-0.058424685
99	0x3d4d5a0e	0.05013471
100	0xbc715860	-0.014730543
101	0x3d53d9b9	0.05172131
102	0x3c6430c6	0.013927644
103	0x3da0adbb	0.078456365
104	0x3d1a01fe	0.037599556
105	0x3d1f2058	0.038849205
106	0xbd14e674	-0.03635259
107	0x3d78a27f	0.060701843
108	0x3d2c640d	0.042087603
109	0xbcf73377	-0.030175908
110	0x3d4b256c	0.049596235
111	0xbd0871d0	-0.033311665
112	0xbd69fadc	-0.057124004
113	0xbd0450c0	-0.03230357
114	0xbda70e12	-0.081569806
115	0x3cc8dd69	0.02451964
116	0x3c81df4c	0.015853547
117	0x3d01d42c	0.031696483
118	0x3da48449	0.08033044
119	0x3d6e686a	0.058205046
120	0x3d09f8f5	0.03368469
121	0x3d1b555b	0.0379232
122	0xbc7bb9ab	-0.015364091
123	0xbc3ff0ff	-0.011715173
124	0x3d92a33f	0.07160043
125	0xbb58b11e	-0.0033064554
126	0x3cfb3b6c	0.030667983
127	0x3cb32608	0.02186872

weight f4 [1, 128]
0	0x3d08e8e5	0.03342523
1	0x3dce579d	0.10075305
2	0x3daac59e	0.08338474
3	0x3da8398e	0.08214103
4	0xbd84b2c6	-0.06479411
5	0xbda9961d	-0.08280585
6	0xbd18b82f	-0.037285026
7	0x3d577c0c	0.052608535
8	0xbdb1087d	-0.08644197
9	0x3d8983b0	0.067145705
10	0xbd4a5235	-0.049394805
11	0xbda4abca	-0.08040579
12	0x3da8c093	0.082398556
13	0x3cd52701	0.026019575
14	0xbd0965e5	-0.03354444
15	0xbde31b0c	-0.11089143
16	0x3d04dadb	0.03243528
17	0x3dc21bd9	0.09477968
18	0x3cf6636e	0.030076709
19	0xbd656c85	-0.056011695
20	0xbd06db2f	-0.032923874
21	0xbd5db279	-0.054125283
22	0x3bbaf81a	0.0057058455
23	0x3d8003df	0.06250738
24	0x3d29345b	0.041309696
25	0xbd91aab3	-0.071126364
26	0xbd6abf2e	-0.05731123
27	0xbd9ff7d9	-0.07810945
28	0x3d89f521	0.06736208
29	0x3d43941f	0.04774868
30	0xbd77caee	-0.060496263
31	0x3cc9a68f	0.024615554
32	0x3dab0995	0.08351437
33	0x3cbd9370	0.023141593
34	0xbd7c7a31	-0.06163997
35	0x3d5daf33	0.05412216
36	0xbc5a1ab4	-0.013312031
37	0xbda53dfd	-0.08068464
38	0xbd8d97bb	-0.06913706
39	0x3d69b062	0.057052977
40	0x3d5a92cb	0.05336265
41	0x3cbd6d79	0.02312349
42	0x3dd02652	0.10163559
43	0x3d94fd17	0.072748356
44	0x3da6213d	0.081118084
45	0x3c2e1cc8	0.010626979
46	0x3d84b586	0.06479935
47	0xbdc45b8f	-0.09587776
48	0xbd90af98	-0.07064742
49	0x3d83f843	0.064438365
50	0xbc9c8c26	-0.019109797
51	0x3d438fd0	0.047744572
52	0xbd8ccf9d	-0.068755366
53	0xbdd3d3a8	-0.103431046
54	0xbce86834	-0.02837
55	0xbd4b0e8b	-0.049574416
56	0x3b91e930	0.004452847
57	0xbdd5ef2e	-0.104460105
58	0xbdb0a621	-0.086254366
59	0xbdd0952c	-0.10184702
60	0x3daf9362	0.08573033
61	0xbd2983b6	-0.041385375
62	0xbd3e1263	-0.046404254
63	0xbd279f41	-0.04092336
64	0x3d0d05f3	0.0344295
65	0xbdb02b5d	-0.08602021
66	0x3db7390f	0.0894643
67	0xbdd0b61e	-0.10190986
68	0xbd85bcd0	-0.06530154
69	0x3d0a4fae	0.033767395
70	0x3da971f7	0.0827369
71	0xbd6e54e6	-0.058186434
72	0x3d37bf7a	0.04486034
73	0xbc6386a3	-0.01388708
74	0x3d812564	0.0630596
75	0x3d3a0591	0.045415465
76	0xbd9950fc	-0.0748615
77	0xbcebb062	-0.02877063
78	0x3d97bf2c	0.0740951
79	0xbdb70ea4	-0.08938339
80	0x3cc84e55	0.024451414
81	0xbd990fb3	-0.074736975
82	0x3dc52f7d	0.09628198
83	0x3d760b0a	0.06006912
84	0xbd18d0d4	-0.03730853
85	0xbd18a3cd	-0.037265588
86	0xbd6d9159	-0.057999942
87	0x3db2e023	0.08734157
88	0xbd4f16a5	-0.050558705
89	0xbd4f5b86	-0.050624393
90	0x3cb29046	0.02179731
91	0xbd2cbb65	-0.0421709
92	0xbb94a551	-0.004536309
93	0x3d359921	0.04433549
94	0x3dd252a0	0.10269666
95	0x3d09f80e	0.03368383
96	0x3d8a29d9	0.06746263
97	0xbcb6b88c	-0.022304796
98	0xbd8e01bb	-0.06933924
99	0x3dcf6275	0.10126201
100	0xbd934c2e	-0.071922645
101	0xbd32b925	-0.0436336
102	0xbd2575c9	-0.04039553
103	0xbd1e5329	-0.038653526
104	0x3c9b3aa3	0.018948859
105	0xbdcd475f	-0.100233786
106	0xbd3cc0b7	-0.046082225
107	0xbdcb148d	-0.09916029
108	0xbaf79317	-0.0018888441
109	0x3dad84d6	0.08472602
110	0xbd4c1cbc	-0.04983209
111	0x3cfbcf2d	0.030738438
112	0x3d0610ac	0.032730743
113	0xbd48b045	-0.04899623
114	0xbdaa1e64	-0.08306578
115	0xbd82b562	-0.06382252
116	0xbd9d285f	-0.07673716
117	0xbd0d03a9	-0.03442732
118	0xbdc74c59	-0.09731359
119	0xbdbbbfaf	-0.0916742
120	0xbd8d0ebe	-0.068875775
121	0xbd896605	-0.06708912
122	0xbd8ac3b7	-0.06775611
123	0x3db1722c	0.08664355
124	0xbd285f52	-0.04110653
125	0xbcc5aae5	-0.02412934
126	0xbd656262	-0.05600203
127	0xbd03f32a	-0.03221432
