save/data_5.pt (torch, 72015 bytes, 5 tensors)

weight f4 [128, 3]
-0.18101403 0.28204352 0.36334306 -0.4984217 0.37876207 -0.38074157 -0.5300321 -0.20220634
-0.5095922 0.44658378 -0.34098706 0.2895591 -0.57078165 0.16999288 -0.017001113 -0.14767765
0.44357127 -0.3595106 0.50604045 -0.47864556 -0.4936862 -0.23056108 -0.044464596 -0.16648757
0.0032234183 -0.2591492 0.36747423 -0.5304288 0.51156324 -0.34084117 -5.6913523e-05 -0.38243362
-0.37314054 -0.49917534 -0.08230737 0.2513062 0.2877579 0.0070302864 -0.32218271 -0.1429715
0.2704865 -0.29914087 -0.17440414 -0.16671199 0.49234006 -0.102818385 -0.14671771 -0.2292203
-0.04968697 -0.26371735 -0.12809062 -0.32571658 0.37178728 -0.3848638 -0.2215453 0.45365924
0.08779493 0.14989819 -0.4768195 -0.3211393 -0.18378165 -0.16253772 0.08932615 -0.46451816
-0.5089517 0.038476784 0.4562965 0.16570629 0.41442442 0.3354838 0.21757351 0.36665225
0.5261367 0.16707797 -0.038321562 0.37955645 0.12042776 0.3600137 -0.08367059 0.118339956
-0.28975344 0.041817665 -0.030189276 -0.18992358 -0.23856983 -0.54601216 -0.5276818 -0.05120311
-0.46283966 0.35407764 -0.5982789 -0.2739662 0.07373341 -0.31032532 0.064876705 -0.19367021
0.5728731 0.12525575 0.108903244 0.31081045 0.113626465 -0.44049543 -0.30694988 0.5489447
-0.5362249 0.5771074 -0.3549921 0.28534105 -0.17930272 -0.5422892 -0.27761132 0.3142307
0.17222989 -0.3240747 0.081157915 -0.38019347 0.49745277 0.08937968 0.47373864 0.50047934
-0.03043582 -0.036783043 0.5877846 -0.51796955 -0.41654038 -0.4978288 0.28475153 0.051596634
-0.5768118 0.2302151 0.48909575 -0.014925919 -0.5624208 0.22344099 -0.23888269 0.22950147
-0.004225393 -0.09269972 -0.37973145 0.34448218 -0.0075221835 -0.44688243 0.0040161572 0.14382216
0.25028324 -0.4503252 0.46695364 -0.2555354 0.33619002 0.43008208 -0.18475664 -0.4809126
-0.5445846 -0.26349568 0.056542497 -0.09804639 0.06478022 0.11367586 -0.44506967 0.4845646
-0.17020205 0.37912843 0.17916185 0.5175653 -0.022250356 -0.3031449 -0.38078216 -0.44152832
0.39523175 0.18956792 -0.2580076 0.32017237 -0.33957756 0.28214043 0.20125867 0.43763116
-0.32963386 -0.0065206136 0.5595824 -0.12242651 -0.40276578 -0.22449794 0.3868704 -0.5265069
-0.4565849 -0.3555594 0.24760829 -0.5160485 0.2112431 -0.51539695 -0.21220532 -0.013417254
0.033471435 0.29583475 -0.4476058 0.12465169 0.013325134 0.16118768 0.2624354 0.522614
0.5219578 -0.5560674 -0.0039307512 -0.12371578 -0.12138647 -0.39171728 0.460121 -0.18365632
0.24470557 -0.19348598 0.3586574 -0.18963364 0.51950735 0.05691715 0.11882797 0.35351908
-0.3924303 -0.61036974 0.36131704 0.5208213 0.323957 0.23028477 -0.4925835 0.38114804
0.302693 -0.4855787 0.06545619 -0.12220778 -0.23106775 0.19873798 0.08770114 0.06353626
0.05339974 -0.35176337 0.11822674 -0.37636745 -0.47854564 0.5323878 -0.47801685 -0.20782872
-0.16784139 0.14028844 -0.0027901204 -0.28274003 -0.5577911 -0.39195788 -0.43355823 0.43332005
-0.024932465 0.13405609 0.5794439 -0.15933149 -0.5914695 0.38453022 0.4504249 0.26130086
00000000: be5b 39be 0268 903e 1a08 ba3e 2131 ffbe
00000010: 1aed c13e 8ff0 c2be 2fb0 07bf 2e0f 4fbe
00000020: a274 02bf a1a6 e43e db95 aebe 1741 943e
00000030: bf1e 12bf 9d12 2e3e eb45 8bbc cf38 17be
00000040: c61b e33e c611 b8be de8b 013f 0811 f5be
00000050: 70c4 fcbe 3418 6cbe 8220 36bd b87b 2abe
00000060: fc3f 533b 34af 84be 9525 bc3e 2fca 07bf
00000070: cff5 023f bc82 aebe 6eb6 6eb8 57ce c3be
00000080: 470c bfbe e993 ffbe c490 a8bd 35ab 803e
00000090: 0155 933e 515e e63b 22f5 a4be 1f67 12be
000000a0: 357d 8a3e fe28 99be 0097 32be 8cb6 2abe
000000b0: ff13 fc3e 7292 d2bd 2b3d 16be bab8 6abe
000000c0: 9084 4bbd f605 87be 302a 03be 53c4 a6be
000000d0: e75a be3e de0c c5be c5dc 62be 0646 e83e
000000e0: d4cd b33d e97e 193e af21 f4be 5f6c a4be
000000f0: 4231 3cbe 4a70 26be a1f0 b63d 53d5 edbe
00000100: a94a 02bf d599 1d3d b29f e93e e9ae 293e
00000110: 702f d43e 88c4 ab3e 97cb 5e3e d8b9 bb3e
00000120: e5b0 063f 7d16 2b3e 12f7 1cbd 3955 c23e
00000130: d4a2 f63d b753 b83e 7c5b abbd 385c f23d
00000140: 905a 94be 0049 2b3d 804f f7bc 547b 42be
00000150: a64b 74be 74c7 0bbf 2816 07bf 5aba 51bd
00000160: 52f9 ecbe aa49 b53e ce28 19bf 4c45 8cbe
00000170: 8b01 973d f6e2 9ebe 14de 843d 7c51 46be
00000180: d0a7 123f 0b43 003e aa08 df3d 8c22 9f3e
00000190: feb4 e83d 9e88 e1be 8928 9dbe a487 0c3f
000001a0: 0946 09bf 50bd 133f 86c1 b5be 3918 923e
000001b0: 229b 37be 77d3 0abf 1223 8ebe d9e2 a03e
000001c0: 085d 303e 1eed a5be 1f36 a63d b8a8 c2be
000001d0: 21b2 fe3e b20c b73d df8d f23e 6a1f 003f
000001e0: 8a54 f9bc d1a9 16bd 0d79 163f a799 04bf
000001f0: c844 d5be 6be3 febe f4ca 913e fe56 533d
00000200: f0a9 13bf 82bd 6b3e c26a fa3e d78b 74bc
00000210: cffa 0fbf b7cd 643e aa9d 74be 6f02 6b3e
00000220: 2a75 8abb 5ad9 bdbd 296c c2be f85f b03e
00000230: a67c f6bb c6cd e4be f899 833b 1e46 133e
00000240: 2025 803e 0691 e6be 8c14 ef3e 89d5 82be
00000250: 1921 ac3e b833 dc3e d830 3dbe 2d3a f6be
00000260: e569 0bbf e8e8 86be 1b99 673d 8ccc c8bd
00000270: 7eab 843d e4ce e83d 2ce0 e3be da18 f83e
00000280: 7249 2ebe 1f1d c23e 3476 373e 297f 043f
00000290: 6146 b6bc cf35 9bbe e1f5 c2be 0010 e2be
000002a0: d15b ca3e 181e 423e 9219 84be a2ed a33e
000002b0: 1cdd adbe b674 903e c116 4e3e 3111 e03e
000002c0: c5c5 a8be dfaa d5bb cb40 0f3f c0ba fabd
000002d0: 5137 cebe cae2 65be e113 c63e 28c9 06bf
000002e0: 7fc5 e9be e20b b6be 078d 7d3e c11b 04bf
000002f0: 1c50 583e 0ef1 03bf 5a4c 59be 0bd4 5bbc
00000300: 5819 093d a777 973e 962c e5be 6349 ff3d
00000310: aa51 5a3c 620e 253e ef5d 863e 08ca 053f
00000320: 079f 053f 6f5a 0ebf 88cd 80bb b35e fdbd
00000330: 7899 f8bd 2b8f c8be fb94 eb3e 6710 3cbe
00000340: 1994 7a3e 3021 46be f1a1 b73e 522f 42be
00000350: 6ffe 043f f521 693d 145c f33d 7400 b53e
00000360: a0ec c8be 3141 1cbf 8cfe b83e 8b54 053f
00000370: b1dd a53e c5cf 6b3e e833 fcbe d625 c33e
00000380: 94fa 9a3e c59d f8be e50d 863d 1348 fabd
00000390: 069d 6cbe f881 4b3e a89c b33d 4c1f 823d
000003a0: b0b9 5a3d 541a b4be dc20 f23d 3cb3 c0be
000003b0: ef03 f5be 914a 083f a0be f4be 0dd1 54be
000003c0: 9dde 2bbe c6a7 0f3e 74da 36bb 4dc3 90be
000003d0: 66cb 0ebf b4ae c8be 58fb ddbe 20dc dd3e
000003e0: 2b3f ccbc 0046 093e 6f56 143f cb27 23be
000003f0: 8c6a 17bf 25e1 c43e 189e e63e 3ac9 853e

bias f4 [128]
0.26902395 -0.49046454 0.19291525 0.19277023 -0.32417917 0.031914826 -0.088380866 -0.17548737
0.3203628 -0.014138104 -0.30273876 -0.018682076 0.3221889 0.26711687 0.3289281 -0.31829974
-0.56315446 -0.30578718 -0.4108528 0.24674873 0.27684322 -0.06931913 0.37268698 0.27179843
-0.22965245 -0.0640107 0.05090488 -0.54923403 -0.33127302 -0.23471577 0.34285507 0.247992
0.26267684 -0.09031158 -0.30845612 0.41562063 0.55695814 -0.14214335 -0.49942213 -0.28889194
0.17522709 -0.1633744 -0.20504871 0.28381148 -0.4235848 0.08626111 0.32337555 -0.11942992
-0.50399387 -0.37497333 0.12080624 -0.019962344 -0.3340292 -0.22939467 -0.4929377 0.5641063
0.4315554 -0.42287207 0.4129542 0.0830908 0.071795315 -0.42381868 -0.021483976 0.29482278
-0.22051361 -0.3141181 0.17827806 -0.041815225 0.21716926 0.1571094 -0.08092302 -0.37000325
0.026264787 -0.21629973 -0.26285124 -0.20279177 -0.51484376 0.5203588 0.53266233 -0.4425054
0.43542853 0.4033709 0.09158399 -0.16765141 -0.26030594 -0.45399925 -0.17944364 0.4182532
0.13006195 -0.212688 -0.3137744 -0.29831603 -0.06389329 -0.4143368 0.35068733 0.4411977
-0.12756379 0.51094544 0.5370024 0.26949373 -0.25320703 -0.5045891 0.53789425 -0.007001802
-0.073964946 -0.45026603 -0.49851152 0.5648544 -0.3425621 0.028124122 0.026915161 -0.13138852
-0.25274006 0.19348651 -0.022097837 0.5306008 -0.464824 0.4623502 -0.29639217 0.2636257
-0.038936507 0.5188671 0.05985533 0.38329607 0.53607744 0.45398414 0.5390784 -0.053172413
00000000: 82bd 893e 2b1e fbbe 938b 453e 8f65 453e
00000010: d0fa a5be 1fb9 023d 0701 b5bd f6b2 33be
00000020: 9806 a43e 82a3 67bc 9300 9bbe 270b 99bc
00000030: f2f5 a43e 8bc3 883e 4469 a83e 2ff8 a2be
00000040: e42a 10bf 2390 9cbe 4c5b d2be b3ab 7c3e
00000050: 65be 8d3e 30f7 8dbd d4d0 be3e 2a29 8b3e
00000060: 032a 6bbe 0b18 83bd a381 503d 9a9a 0cbf
00000070: 9e9c a9be 5559 70be b38a af3e 9df1 7d3e
00000080: 947d 863e 47f5 b8bd f6ed 9dbe 3acc d43e
00000090: cf94 0e3f 078e 11be 42b4 ffbe a5e9 93be
000000a0: bb6e 333e 9e4b 27be 4af8 51be bd4f 913e
000000b0: 1be0 d8be aaa9 b03d 7b91 a53e ad97 f4bd
000000c0: be05 01bf 81fc bfbe 4369 f73d 1288 a3bc
000000d0: e005 abbe 70e6 6abe 5562 fcbe 4569 103f
000000e0: d4f4 dc3e b082 d8be bc6e d33e 822b aa3d
000000f0: 6c09 933d c3fe d8be 2aff afbc 03f3 963e
00000100: 52ce 61be 16d4 a0be 868e 363e 7146 2bbd
00000110: 9e61 5e3e 49e1 203e f8ba a5bd 1171 bdbe
00000120: 4029 d73c ad7d 5dbe 7094 86be a5a8 4fbe
00000130: cdcc 03bf 3c36 053f 8f5c 083f 1190 e2be
00000140: 7df0 de3e a186 ce3e 6390 bb3d d0ac 2bbe
00000150: d246 85be 9772 e8be 13c0 37be 4925 d63e
00000160: f62e 053e e2ca 59be 0aa7 a0be e1bc 98be
00000170: 7cda 82bd f423 d4be 4a8d b33e aae4 e13e
00000180: 15a0 02be 52cd 023f fd78 093f 15fb 893e
00000190: 5aa4 81be c02c 01bf 70b3 093f 5f6f e5bb
000001a0: ef7a 97bd 4589 e6be e73c ffbe 4c9a 103f
000001b0: 4d64 afbe 8f64 e63c 2f7d dc3c b68a 06be
000001c0: 2567 81be 5421 463e 8606 b5bc 74d5 073f
000001d0: 69fd edbe 2ab9 ec3e b7c0 97be f3f9 863e
000001e0: e37b 1fbd 79d4 043f dd2a 753d 623f c43e
000001f0: 5f3c 093f 9c70 e83e 0b01 0a3f 51cb 59bd

weight f4 [128, 128]
0.037812326 0.049117412 0.06819652 0.008782666 0.0092682885 -0.03625229 0.061643932 0.018654881
0.018351493 0.02803884 -0.016522087 -0.092748664 0.052098252 0.04157553 0.0019122219 -0.012279237
0.04424668 -0.05359515 0.052281365 0.04407895 -0.081166476 0.07521489 -0.043848753 0.010708127
-0.060275406 0.093614995 0.06038874 -0.034744177 0.05104694 0.028560888 0.039836537 -0.015690116
-0.033852547 -0.00645915 0.022335915 0.035257462 -0.05803407 0.047886405 -0.021907805 0.061081477
-0.060876895 -0.038661525 0.005283276 -0.031306412 0.005174158 -0.026947262 0.045972604 -0.073570624
-0.08673629 0.08973622 -0.023825264 0.022821952 -0.0077005173 0.044042036 -0.008139657 -0.01168748
-0.030895635 -0.044586904 0.08521548 -0.06752026 -0.048880093 0.02841116 0.050134603 0.07700097
0.0029833561 0.06966583 -0.043840107 0.025309468 -0.08994456 0.06595915 0.022516172 0.034809865
-0.012367917 0.029140862 -0.009226552 -0.016465392 -0.07241917 0.029149055 -0.0048865136 0.06836064
0.035341624 0.05863539 0.064849995 -0.02330635 -0.032152303 0.094801955 -0.019721286 -0.00395548
-0.037297815 -0.06320606 0.016174566 -0.00046639744 -0.08175646 -0.020718204 -0.0186653 0.0072184117
0.07342973 0.060465567 0.057608854 -0.0052992464 -0.009143679 -0.005284138 0.019334957 -0.08366137
-0.0946179 0.08444641 0.02880156 0.07832054 -0.038868524 -0.0756888 -0.05501009 0.038365718
0.04570843 -0.034884427 0.03259803 -0.08478476 -0.08354011 0.033705954 0.071890466 -0.03304911
-0.007967282 0.04337608 -0.050106257 -0.0058875373 0.08214504 0.048701167 0.018693037 0.07334849
0.022980187 0.073257364 -0.0588341 -0.04247546 -0.062744334 -0.08075339 -0.032359373 -0.059118442
0.0017180864 0.06625115 0.083825134 0.07526856 -0.0103613045 0.031324983 0.015184745 -0.03417715
0.044675373 -0.06471038 0.03886068 -0.05843618 0.08354686 -0.008676821 0.060339082 0.03192236
-0.009933636 -0.032554734 0.012959571 0.056341417 0.021847863 0.06595696 -0.06887752 0.04351809
0.000908084 -0.048922244 -0.026984042 -0.05278486 0.011232074 -0.055319436 -0.0032135963 0.0033150585
-0.0023641468 -0.06424628 0.045895472 -0.074598245 -0.0749239 -0.08620132 0.08991242 0.05709499
0.03904339 -4.8194534e-06 0.051065873 -0.06589552 0.0461497 -0.013651545 -0.013991283 0.07624535
-0.029667012 0.030365359 0.013288974 0.045585267 -0.022100866 0.0001314455 -0.12402021 0.026859527
0.0062572267 0.0060577765 0.017041389 0.09561339 0.018281398 0.023310045 -0.04728974 -0.039927784
0.016388884 -0.049882162 -0.01584735 -0.064914495 0.01627437 0.02574673 -0.0069683786 0.02074471
-0.00077934394 0.06834688 0.055777293 -0.0055866013 0.005796852 -0.08116156 0.0345553 -0.07296732
0.043534063 -0.0574218 0.038991977 0.05506955 0.021512428 0.11224157 -0.07804139 -0.041616336
-0.017698271 -0.06630313 0.069278166 0.073254734 0.06390025 0.036418788 0.09616914 -0.058627516
0.0047078677 0.05717292 -0.020284133 -0.067577615 -0.03576942 0.017263392 -0.09307907 0.049588118
0.080135636 0.016125973 0.035747834 -0.0131631 -0.05202693 0.005566271 0.011572627 -0.106064044
-0.007836114 0.07071861 -0.06153917 0.051761035 -0.043279607 0.020761963 0.041097958 -0.040469352
00000000: 19e1 1a3d 572f 493d 9eaa 8b3d 2ce5 0f3c
00000010: 05da 173c 487d 14bd 597e 7c3d 1fd2 983c
00000020: df55 963c b6b1 e53c 5459 87bc 03f3 bdbd
00000030: fa64 553d 1a4b 2a3d 85a3 fa3a da2e 49bc
00000040: 023c 353d 9786 5bbd fc24 563d 218c 343d
00000050: 9c3a a6bd 440a 9a3d c09a 33bd 2471 2f3c
00000060: 58e3 76bd 38b9 bf3d 2f5a 773d e94f 0ebd
00000070: 9916 513d 86f8 e93c a32b 233d 8f88 80bc
00000080: f8a8 0abd 47a7 d3bb cff9 b63c 216a 103d
00000090: 22b5 6dbd 8924 443d ff77 b3bc 9230 7a3d
000000a0: 0d5a 79bd 8c5b 1ebd 551f ad3b 273b 00bd
000000b0: fc8b a93b 81c0 dcbc c54d 3c3d 32ac 96bd
000000c0: cca2 b1bd a0c7 b73d 332d c3bc 1af5 ba3c
000000d0: 9f54 fcbb 6c65 343d 325c 05bc d87c 3fbc
000000e0: d818 fdbc c2a0 36bd 7485 ae3d 1048 8abd
000000f0: 7e36 48bd 85be e83c f159 4d3d afb2 9d3d
00000100: 6984 433b f5ac 8e3d af91 33bd cd55 cf3c
00000110: da34 b8bd 9715 873d d673 b83c ca94 0e3d
00000120: cea2 4abc d1b8 ee3c f72a 17bc 6ee2 86bc
00000130: 8050 94bd 00ca ee3c 0c1f a0bb aa00 8c3d
00000140: 61c2 103d aa2b 703d 13d0 843d f5ec bebc
00000150: 22b2 03bd 8727 c23d 898e a1bc f99c 81bb
00000160: 98c5 18bd 2e72 81bd 8680 843c ce86 f4b9
00000170: ee6f a7bd 39b9 a9bc f9e7 98bc 6d88 ec3b
00000180: 5462 963d beaa 773d 43f7 6b3d 4da5 adbb
00000190: 5fcf 15bc 9026 adbb 5864 9e3c a756 abbd
000001a0: 08c7 c1bd 3df2 ac3d 40f1 eb3c 8566 a03d
000001b0: 9a34 1fbd bb02 9bbd 4352 61bd 5f25 1d3d
000001c0: c338 3b3d f9e2 0ebd 8385 053d a2a3 adbd
000001d0: 1417 abbd 410f 0a3d 4f3b 933d 815e 07bd
000001e0: 3489 02bc 1eab 313d 383c 4dbd 3eec c0bb
000001f0: a93b a83d e07a 473d 2422 993c bc37 963d
00000200: f240 bc3c f507 963d 06fc 70bd bffa 2dbd
00000210: 1a80 80bd 0962 a5bd 438b 04bd 2e26 72bd
00000220: 6a31 e13a afae 873d 83ac ab3d 6726 9a3d
00000230: 76c2 29bc a04e 003d 70c9 783c 57fd 0bbd
00000240: 86fd 363d e086 84bd 602c 1f3d c75a 6fbd
00000250: 9e1a ab3d 3a29 0ebc 1d26 773d 05c1 023d
00000260: b0c0 22bc 1d58 05bd 6154 543c 42c6 663d
00000270: 4afa b23c 7114 873d a80f 8dbd 0640 323d
00000280: 7c0c 6e3a b162 48bd a30d ddbc f034 58bd
00000290: bc06 383c a296 62bd 339b 52bb 7441 593b
000002a0: cdef 1abb 8e93 83bd e4fc 3b3d f7c6 98bd
000002b0: b471 99bd 518a b0bd 0124 b83d 70dc 693d
000002c0: f6eb 1f3d cab6 a1b6 732a 513d 3bf4 86bd
000002d0: 7807 3d3d bbaa 5fbc b23b 65bc 8626 9c3d
000002e0: 3c08 f3bc c6c0 f83c ffb9 593c 9eb7 3a3d
000002f0: e00c b5bc a2d4 0939 4ffe fdbd 8308 dc3c
00000300: 6c09 cd3b 5080 c63b 629a 8b3c f4d0 c33d
00000310: dfc2 953c b5f4 be3c e3b2 41bd 518b 23bd
00000320: fb41 863c 3d51 4cbd 4dd2 81bc e4f1 84bd
00000330: d451 853c ceea d23c ff56 e4bb cff0 a93c
00000340: e34c 4cba 73f9 8b3d bb76 643d cf0f b7bb
00000350: 85f3 bd3b 0838 a6bd dc89 0d3d e46f 95bd
00000360: c650 323d 1f33 6bbd 0db6 1f3d 9c90 613d
00000370: d53a b03c e9de e53d 2ad4 9fbd e475 2abd
00000380: f7fb 90bc efc9 87bd b6e1 8d3d 9406 963d
00000390: 22de 823d de2b 153d 53f4 c43d 6823 70bd
000003a0: 7544 9a3b 272e 6a3d e92a a6bc 2266 8abd
000003b0: f582 12bd f56b 8d3c 3da0 bebd e91c 4b3d
000003c0: 271e a43d 9e1a 843c 526c 123d 0baa 57bc
000003d0: 311a 55bd 4465 b63b 1e9b 3d3c 1b38 d9bd
000003e0: 0b63 00bc ebd4 903d 7f10 7cbd 6103 543d
000003f0: f545 31bd fe14 aa3c 5556 283d 31c3 25bd

bias f4 [128]
0.081870325 0.037565883 0.07784464 -0.08670256 -0.053911626 -0.0050511486 -0.06416605 0.04525136
0.015560409 0.058781873 -0.07466532 0.055003423 -0.061592698 -0.07021452 0.050431192 0.025450308
0.014202165 0.10396388 -0.0054176645 0.055028923 -0.028237112 -0.017070338 0.07503877 -0.051764365
-0.07712089 0.0114614265 0.09722886 -0.0193434 0.01158204 0.10754146 0.07321792 0.076275095
-0.02361934 -0.03911394 0.075519145 -0.033249874 0.02629379 0.032341026 -0.0768407 -0.05156837
-0.065361656 -0.02605718 -0.079314955 0.07180822 0.028502718 0.07228761 0.08028876 -0.07546523
0.07670518 -0.078027114 0.066057235 -0.066877834 -0.08685205 -0.045316912 0.03427627 -0.08717715
0.040942445 -0.048648093 0.072301775 0.014379999 0.036998972 0.030644506 -0.051973812 0.004746894
-0.03736806 -0.0037922165 0.035939913 -0.018674621 0.07474534 -0.04655577 0.017811067 -0.0022362808
0.028723305 -0.084860824 -0.0048352256 -0.08059101 0.024252016 0.07081718 0.016148282 -0.057152595
-0.07353817 -0.0725936 -0.02240004 -0.042033684 -0.06866898 0.06753319 0.015421133 0.034406904
-0.06498718 0.007878885 0.09706799 -0.08289693 0.015226652 0.10520862 -0.04221436 -0.011842911
0.0549042 -0.007925399 0.08806104 0.10103372 -0.067931674 -0.019413155 -0.012136232 0.068668626
-0.06709109 -0.029712657 0.07329825 0.053743023 0.037678402 0.05729391 0.028900096 -0.03144929
-0.03944819 -0.056512136 0.0014809162 0.061364874 -0.0673806 -0.067683615 0.041190445 -0.046118166
0.04036817 0.024976453 0.0066831843 0.02314261 -0.0054951245 0.038970042 -0.0451587 0.07414284
00000000: a1ab a73d afde 193d 036d 9f3d 1d91 b1bd
00000010: 70d2 5cbd 1b84 a5bb 7d69 83bd 7d59 393d
00000020: 16f1 7e3c 43c5 703d 22ea 98bd 454b 613d
00000030: a048 7cbd a1cc 8fbd f090 4e3d 2a7d d03c
00000040: 33b0 683c 04eb d43d aa86 b1bb 0266 613d
00000050: 8451 e7bc 18d7 8bbc edad 993d df06 54bd
00000060: 8ff1 9dbd b5c8 3b3c ed1f c73d 0d76 9ebc
00000070: 99c2 3d3c b23e dc3d 47f3 953d 1e36 9c3d
00000080: 597d c1bc f035 20bd c8a9 9a3d 0531 08bd
00000090: 1366 d73c 0678 043d a85e 9dbd 5b39 53bd
000000a0: 55dc 85bd de75 d5bc e16f a2bd 3010 933d
000000b0: 887e e93c 870b 943d 6f6e a43d 848d 9abd
000000c0: 9b17 9d3d aecc 9fbd 0449 873d 3ff7 88bd
000000d0: 7ddf b1bd 3a9e 39bd 4665 0c3d ef89 b2bd
000000e0: 44b3 273d 3943 47bd f412 943d 169a 6b3c
000000f0: 3c8c 173d 300a fb3c 7ee2 54bd d58b 9b3b
00000100: 400f 19bd d686 78bb bb35 133d 85fb 98bc
00000110: 1614 993d 43b1 3ebd 84e8 913c 918e 12bb
00000120: 234d eb3c 83cb adbd d070 9ebb e60c a5bd
00000130: 2aac c63c 9908 913d 6749 843c d718 6abd
00000140: 2e9b 96bd f4ab 94bd 4a80 b7bc 832b 2cbd
00000150: 52a2 8cbd d74e 8a3d eba8 7c3c 41ee 0c3d
00000160: 0018 85bd 7016 013c 95cb c63d dec5 a9bd
00000170: 3579 793c 9e77 d73d f7e8 2cbd c508 42bc
00000180: 3ae3 603d 88d9 01bc 5959 b43d c4ea ce3d
00000190: c31f 8bbd 5608 9fbc 0cd7 46bc 23a2 8c3d
000001a0: 0e67 89bd f567 f3bc 651d 963d a521 5c3d
000001b0: ab54 1a3d 05ad 6a3d e5bf ec3c f9d0 00bd
000001c0: 6d94 21bd 4579 67bd 4d1b c23a bc59 7b3d
000001d0: d7fe 89bd b59d 8abd 50b7 283d 67e6 3cbd
000001e0: 1859 253d 6b9b cc3c 9dfe da3b 9295 bd3c
000001f0: 7210 b4bb 0d9f 1f3d 54f8 38bd 34d8 973d

weight f4 [1, 128]
-0.07531722 0.02099323 0.09682553 0.054441646 -0.043329507 -0.07497321 -0.07974136 0.047658257
0.10108446 0.074864194 0.037686177 -0.100653335 0.02584248 0.06770295 0.09697646 0.018945329
0.03221806 -0.027101489 0.0378386 -0.037631974 0.087189905 0.023230538 -0.07749491 0.056299828
0.0033043723 -0.04192004 -0.04199638 -0.08126521 -0.11826381 -0.027120814 0.07147087 0.038252812
0.030654436 -0.007895845 0.056273863 -0.061681263 -0.10441829 0.024051704 0.029520258 -0.005599966
0.049860023 -0.03628967 0.008474241 -0.06552894 -0.08917138 -0.040577777 0.06011743 0.04477047
0.0942009 0.10764536 0.093758926 -0.061689038 -0.018993229 -0.09794936 0.0906869 0.069620736
0.021959443 0.066666216 -0.06482317 0.029920649 0.063449085 -0.01230614 -0.028144665 -0.03550282
-0.053434037 0.09214269 0.05673075 -0.0663102 -0.015292359 -0.07650938 -0.048227955 -0.033169698
0.04022167 -0.005330242 -0.0320468 -0.076243855 0.031137472 -0.032097053 -0.040102497 -0.034657016
0.03125565 -0.049240943 -0.088891394 -0.057269484 0.07615463 -0.045090523 -0.06201084 0.025568724
-0.062010802 0.028523726 -0.11226795 0.07591207 0.037250757 -0.09438752 -0.090651564 -0.076630495
0.088856205 0.039873414 -0.07228141 -0.041496146 0.07703163 -0.06549535 -0.05642604 0.10995398
0.076089166 -0.06678986 -0.059884295 0.069309406 0.028140571 0.093016036 0.08992879 -0.08639863
0.06848676 -0.076452136 -0.052133266 0.055153247 0.11211714 0.017217739 0.018101294 0.045438506
0.09117436 0.09819821 -0.08633675 -0.0766655 0.098231904 0.021268016 0.03918008 0.0893288
00000000: ea3f 9abd fff9 ab3c 774c c63d 34fe 5e3d
00000010: 487a 31bd 8e8b 99bd 704f a3bd 4e35 433d
00000020: 5f05 cf3d 6652 993d d25c 1a3d 5623 cebd
00000030: 9cb3 d33c d8a7 8a3d 989b c63d 3c33 9b3c
00000040: 16f7 033d f103 debc a6fc 1a3d fc23 1abd
00000050: 9f90 b23d f84d be3c a7b5 9ebd a69a 663d
00000060: 2b8e 583b 59b4 2bbd 6504 2cbd 606e a6bd
00000070: 4c34 f2bd 782c debc 525f 923d fbae 1c3d
00000080: 031f fb3c 935d 01bc 6c7f 663d 7ea5 7cbd
00000090: 42d9 d5bd 1408 c53c 78d4 f13c eb7f b7bb
000000a0: 063a 4c3d 7aa4 14bd 8bd7 0a3c 0934 86bd
000000b0: 7c9f b6bd e234 26bd b23d 763d 3e61 373d
000000c0: 67ec c03d 2c75 dc3d ae04 c03d a5ad 7cbd
000000d0: b097 9bbc ad99 c8bd 0eba b93d 5195 8e3d
000000e0: 4ae4 b33c 4c88 883d 03c2 84bd 261c f53c
000000f0: 98f1 813d b19f 49bc a48f e6bc 686b 11bd
00000100: a6dd 5abd 4fb5 bc3d 815e 683d a4cd 87bd
00000110: cd8c 7abc f3b0 9cbd ad8a 45bd f3dc 07bd
00000120: 7abf 243d 50a9 aebb 8143 03bd bd25 9cbd
00000130: 0314 ff3c 3378 03bd 8442 24bd 84f4 0dbd
00000140: ed05 003d dfb0 49bd b10c b6bd 6893 6abd
00000150: f5f6 9b3d d7b0 38bd 14ff 7dbd 8075 d13c
00000160: 0aff 7dbd 97aa e93c bdec e5bd ca77 9b3d
00000170: 4094 183d 3e4e c1bd 87a7 b9bd 73f0 9cbd
00000180: 3efa b53d 4e52 233d 4708 94bd ddf7 29bd
00000190: c2c2 9d3d 6d22 86bd fe1e 67bd 8d2f e13d
000001a0: a3d4 9b3d 1fc9 88bd 3c49 75bd 17f2 8d3d
000001b0: 0e87 e63c 317f be3d 962c b83d c4f1 b0bd
000001c0: c942 8c3d f092 9cbd b189 55bd 5fe8 613d
000001d0: ac9d e53d 370c 8d3c 2a49 943c ba1d 3a3d
000001e0: 9fb9 ba3d 251c c93d 52d1 b0bd cd02 9dbd
000001f0: cf2d c93d 433a ae3c 4b7b 203d 05f2 b63d
