save/high_speed_machining_energy_model.pt (torch, 73191 bytes, 5 tensors)

weight f4 [128, 4]
00000000: 12c3 aebe f63a c2be c08c 043c d60c a23e
00000010: c51f 983e af17 b83e e156 fd3a a7d7 cd3e
00000020: 3384 b03e c5c2 dd3e efd8 a3bd 73a4 d5be
00000030: e000 a73e 9f30 afbe dc6a 543e 67e3 1fbe
00000040: 12b5 853d 7fea 8fbe eca2 a2be 4d1f ebbe
00000050: 4fd1 a0be 7f67 9b3e 639d 8b3d 0d80 d23e
00000060: ac6b e2be 169f b13e 90f3 91be 59c4 d53e
00000070: b5e6 8ebd 9843 ef3d 4d26 a83e 49b5 183d
00000080: ef08 82be 1bcc 42be e26c b9bd f399 233c
00000090: c922 e03d fa08 f6bd 9786 90be 8078 b63c
000000a0: 5c09 b0be 6f11 e9be cb9e 9fbe 93ab a33e
000000b0: 102c 05bd cb30 a33e 3042 d0be 4df0 b5be
000000c0: 54cd ba3e ba9e 233e 2eaf 68be f4ea 2fbe
000000d0: 95d8 d5be f627 d4be c1ec 85be 7d26 20be
000000e0: f0f3 b2bc 10c5 0fbe 5903 6fbe e245 8abd
000000f0: cfa9 a4bc 68fd d03e 0248 ccbd c179 e1be
00000100: bb52 d5be d4b2 f33e 36d1 7dbe e2cb f5be
00000110: 5c92 c8be 28ec 513d 97d3 3e3e c756 65be
00000120: 8db6 b73e 3ca0 cfbe 4bab 8abe dbd6 d03e
00000130: 87f8 ef3e c977 4cbe 7b85 90be 35cd b93e
00000140: 9547 603e 4989 f53e 0ae5 d73e 7eb7 a8be
00000150: 5b4c ff3d 5a71 c53e 572d 15be d34f 54bd
00000160: 9493 cd3e dc74 1c3e e18a 43be 7a3e c93e
00000170: 5fe2 f3bd eea5 6dbe d984 8fbd b16c a73e
00000180: 90a5 c2bc 7cae cb3e d723 ce3e 93ec ae3e
00000190: 3cf1 8b3e 5a0a a3be dfa4 27be f6f1 cb3c
000001a0: f5cf d7be 6d09 31be 2deb 5fbd f078 bbbe
000001b0: 9237 e33e 1c2e 9b3d 9898 9abe d609 a5be
000001c0: 60bc 67be 0749 7ebd 395c 10bc 50fe f6be
000001d0: c19a 5ebe b10a d7be f26d e2be f764 f4be
000001e0: 98df 05be db2e 9ebe 7710 91be 49cd f73e
000001f0: f12b e93e b070 a8be aeb1 bd3d b07b e7be
00000200: 553d 9d3e 0907 c6be f7d8 013e 7d26 8dbe
00000210: 645f 673e 2c72 3e3e 56df 913e 87d3 e73e
00000220: eca3 1e3e d395 e43e 9a0b 82be 9d18 ddbd
00000230: 1764 22bd dce6 05bd b052 d03e a63a 82be
00000240: 7a5f f53d c6cb 983e 927e 303c 12e7 623e
00000250: b858 5d3d db30 bd3d b9f9 1bbe 447f aebc
00000260: ae72 12be 2f9b 7bbe 5c81 eb39 ece4 d2be
00000270: b314 72be 3dfc fcbc 58d4 463e 79a3 e73d
00000280: 7be5 f0bd f3eb 84be 86f4 e43e 1700 a43c
00000290: 9c90 27be f866 8a3d d009 0c3e 0bab 73be
000002a0: 29bb dabe 4596 d33c 2821 f2be 63e7 fcbe
000002b0: 6f99 683e 8774 0d3e 44b1 c53e 34ee e7be
000002c0: 7663 fc3d 40ce c03e 71c3 1ebe ae2b dabd
000002d0: 0aa4 02bf 0dd0 a8be be34 5bbe 6303 f9be
000002e0: 8764 a9be daaa 73be 9cf1 d0be 17c3 b83e
000002f0: dca9 4cbe f399 e1bc 0716 7dbe 8200 2f3e
00000300: 7546 c03e 400f 02bf 3d39 e9bd 5bd9 b1bd
00000310: fa32 adbe aa3a 3dbe 3fa4 a0bc e66f 85be
00000320: df9d a63e 6fe5 a4bd 57c9 b5be 7bff dbbe
00000330: d16b 1cbe 369c dc3e d2d6 a5be f688 60be
00000340: ecf1 f23e ecba 913c 5da7 aebe 4063 ff3e
00000350: 377c a43e 190a 9b3e 1a76 9d3e 28af 80be
00000360: c686 fb3e 81e2 f83e 49c8 903e fb4a 99be
00000370: daa4 52bd b888 87be c705 a6be deb0 a33c
00000380: ddbf 61be f3ec fdbe 9578 243c 9828 d73e
00000390: cd93 8abe 6516 003f 70cf 48bd ad3c 8dbe
000003a0: 6bab c03e 0679 da3e ec00 02bf 31a4 e6be
000003b0: f090 09be df03 cbbe 8b17 d33e 6b16 663e
000003c0: 140e 20be 6c4f 8cbe 32f2 c43e de8c 7ebe
000003d0: 5468 a9be 5f79 803e a836 b6be ce7c d1be
000003e0: 9631 233d 9472 3c3a 52ef 9fbe 7c11 adbe
000003f0: 18ab 4ebe 12ec 39bd c6ab 2e3d 1b61 a03e
-0.34133202 -0.3793561 0.008090198 0.31650418 0.29711738 0.3595557 0.001932826 0.40203592
0.3447586 0.4331266 -0.08000361 -0.41727027 0.32617855 -0.34216782 0.20743889 -0.15614091
0.06528677 -0.28108594 -0.31764925 -0.45922318 -0.3140969 0.303524 0.068171285 0.4111332
-0.44222772 0.34691685 -0.28506136 0.41751364 -0.069775976 0.11682814 0.3284172 0.037282262
-0.2539744 -0.19023173 -0.09053971 0.009985435 0.10944135 -0.12013431 -0.28227684 0.022274256
-0.3438214 -0.45521113 -0.31175837 0.31966838 -0.032512724 0.31873164 -0.40675497 -0.35534897
0.36484778 0.15978518 -0.22723076 -0.17179471 -0.417668 -0.41436738 -0.2615719 -0.15639682
-0.021844834 -0.14040017 -0.23341121 -0.0675161 -0.020100502 0.40818334 -0.09974672 -0.44038203
-0.4166468 0.47597373 -0.24786839 -0.48007113 -0.39174163 0.051250607 0.18635403 -0.22396384
0.35881463 -0.40551937 -0.2708381 0.40788922 0.468693 -0.1996757 -0.28226838 0.36289373
0.21902306 0.47956303 0.4216693 -0.32952493 0.124657355 0.38563043 -0.14568077 -0.05183394
0.40151656 0.15278953 -0.19095947 0.39305478 -0.11908411 -0.23207828 -0.070077606 0.32700112
-0.023760587 0.3978156 0.4026172 0.34164867 0.27332485 -0.31843835 -0.16371487 0.02489565
-0.42150846 -0.17288752 -0.05466764 -0.36615705 0.44378334 0.07577154 -0.30194545 -0.32234067
-0.22630453 -0.062081363 -0.00881105 -0.482409 -0.21738721 -0.42000344 -0.44224507 -0.4773328
-0.13073575 -0.30895123 -0.28332874 0.48398808 0.45541337 -0.32898474 0.09262405 -0.45211554
0.30710855 -0.38677242 0.12680422 -0.27568427 0.22594982 0.1859824 0.28490704 0.4527857
0.15492219 0.44645557 -0.25399476 -0.1079571 -0.039646234 -0.032690868 0.40688086 -0.2543537
0.11981101 0.29842967 0.010772364 0.22158459 0.054039687 0.09237834 -0.1523198 -0.02130092
-0.1430156 -0.24570917 0.00044919073 -0.4119028 -0.23640709 -0.030881995 0.1941694 0.11310477
-0.1176252 -0.25961265 0.44717807 0.020019574 -0.16363758 0.06757921 0.13675618 -0.23795716
-0.42720917 0.02582849 -0.4729092 -0.49395284 0.2271478 0.13813983 0.38611805 -0.45298922
0.12323658 0.37657356 -0.15504242 -0.106528625 -0.51031554 -0.3297123 -0.21406838 -0.48635396
-0.3308451 -0.23795643 -0.40809333 0.36086342 -0.19986671 -0.027539229 -0.24715434 0.17090037
0.37553754 -0.5080452 -0.113878705 -0.086840354 -0.33827955 -0.1847941 -0.019609569 -0.26061934
0.3254232 -0.080515735 -0.35505173 -0.42968354 -0.15275504 0.4308793 -0.32390457 -0.21927246
0.47450197 0.017789327 -0.34112063 0.4988041 0.32126018 0.3028114 0.30754167 -0.25133634
0.4912626 0.4861031 0.28277805 -0.29940018 -0.051426746 -0.26471496 -0.32426283 0.019981798
-0.22045846 -0.4959484 0.010038515 0.42023158 -0.27065888 0.5003417 -0.049025953 -0.27585354
0.37630782 0.4267046 -0.50782657 -0.45047143 -0.13434196 -0.3965139 0.412289 0.2246949
-0.1563037 -0.27404344 0.3846603 -0.24858424 -0.3308741 0.250926 -0.35588574 -0.4091553
0.03984221 0.00071887043 -0.31237274 -0.33802402 -0.20182455 -0.04539115 0.042644285 0.31324086

bias f4 [128]
00000000: 8e9d f2be c6bd 79be 3d18 f53e 1fb7 a8be
00000010: fd3c 163e 4f63 44bc bba0 fc3c ec9f 0c3e
00000020: 799e 77be 22ac 743e 2310 f6be 2eed a83d
00000030: f7a9 96bc 97c7 d6be aec8 b53e 8779 f6be
00000040: bbb0 ed3e bd68 a4bd ab16 813e 9604 eabe
00000050: 577f 9d3e 0340 b7bd 468f 9abe 35ad 5d3e
00000060: 1188 47be 48b6 c03e 7470 423e 9164 e13e
00000070: 4701 d13e e6d7 b9bd d999 803e 8496 a23e
00000080: 5337 f33e f071 edbe 2e02 9dbe 9328 bcbe
00000090: 78c1 203e 17df 6f3e 1890 ea3e b798 1cbd
000000a0: d8d4 06be 34b8 333e 7126 5a3e 4108 cebe
000000b0: 87e3 9dbe f9ad d2be ed1d ae3c 6306 dabd
000000c0: e105 ff3e 5acd 9ebe db65 90be 5e5a 83be
000000d0: 0448 95bc 7352 023d 9835 9f3c b1de c1be
000000e0: e441 e63e 014a 463e b28a 713d 8ef0 c63e
000000f0: a186 d8be dc8c f1bc 7037 1abe 89a6 013f
00000100: 2f3c efbd e42d 743e 7838 323e 3e1f 24bd
00000110: 2ed6 46be 3010 d23e d985 0fbe b83f 2d3c
00000120: 0412 543e 907f d73e c29d b0be 65a0 e2bd
00000130: 5eeb 053d 8f9d b0be c2a7 673e 0bd1 003f
00000140: 546c d43e c0bf 47be 42e9 413e 1fd6 b63e
00000150: e042 93be a61d d0be 7411 a33e 115f d2be
00000160: 7cdd c43e 169e ea3e aa7a 1dbe d298 293e
00000170: e082 143e c999 d3be 8cdd d43e 5ec4 893d
00000180: 8a1f 5d3e ea26 c7be c77e 7c3e 229e af3e
00000190: f274 9bbd ac91 03be 5180 3bbe a245 48be
000001a0: 4255 143d c793 e3be 0c6e be3e 34e2 f4be
000001b0: 20ad 2c3e 1447 e4be faf8 33be 9749 0cbd
000001c0: afbb e3be 8b75 5b3e 258d 583d c524 45bd
000001d0: 18c8 79be 9a68 f6bd 165d 873e 44fa c53e
000001e0: dc81 dc3d e42a a93e ae92 e53e 3daf 6abe
000001f0: c011 5dbe 6249 8cbd f0a6 9abd 8bd2 26be
-0.4738583 -0.24388799 0.47870055 -0.3295221 0.14671703 -0.011986568 0.030838361 0.1373288
-0.24181546 0.23893788 -0.48059186 0.082483634 -0.018391592 -0.4194915 0.3550467 -0.48139593
0.46423897 -0.0802779 0.25212607 -0.45706624 0.30761215 -0.08947756 -0.30187434 0.21648104
-0.19485499 0.3763907 0.1898821 0.4402204 0.40821287 -0.090743825 0.25117376 0.3175546
0.47503147 -0.4637599 -0.30665725 -0.36749706 0.15698802 0.23424946 0.4581306 -0.038231578
-0.13167131 0.17550737 0.21303727 -0.40240672 -0.30837652 -0.41148356 0.021254504 -0.106457494
0.49809173 -0.31016046 -0.2820271 -0.25654882 -0.018222816 0.03181691 0.019434735 -0.37865213
0.44972146 0.19364168 0.05897016 0.38855404 -0.42290214 -0.029486112 -0.1506021 0.5064474
-0.11681401 0.23845631 0.17404354 -0.040068857 -0.1941764 0.41027975 -0.14015903 0.010574274
0.20709997 0.4208951 -0.3449536 -0.11065749 0.032695167 -0.34495208 0.22622588 0.50318974
0.41488898 -0.1950674 0.18936637 0.35710236 -0.2876196 -0.4064762 0.31849253 -0.41088155
0.3845023 0.45823735 -0.15378824 0.16562203 0.1450305 -0.41328266 0.41575277 0.06726907
0.21594062 -0.38896877 0.24657737 0.34300333 -0.07590665 -0.12848538 -0.18310668 -0.19557813
0.03621412 -0.44448683 0.37193334 -0.4782883 0.16862917 -0.44585478 -0.17575446 -0.03424987
-0.4447913 0.21431558 0.05286898 -0.04813077 -0.24392736 -0.1203167 0.26438206 0.386675
0.10766956 0.33040535 0.4483847 -0.2291841 -0.21588802 -0.06849934 -0.07551372 -0.16291253

weight f4 [128, 128]
00000000: bbb4 b13d cc6b acbd be4e 8bbd 30a7 b7bb
00000010: ad5f 903d 8a9e 93bd 0e30 da3c 0878 06bc
00000020: 9ac6 863d 205f 4abd a182 6fbd 4fc8 c33c
00000030: f750 51bd d188 c23c f721 44bd 9609 783d
00000040: d70b 45bd a82d 8fbd 76eb 833d b22a e43b
00000050: c7b7 7bbd ce75 d63c 4553 5a3d ba91 a8bc
00000060: 7b2d 8dbd e392 7dbd 18de 01bd 8f1e bebb
00000070: 8a2f 49bc 0a43 403d 9006 86bd c259 8c3d
00000080: 1c2e 6fbd 5a4b 413b dacb 77bd 8498 97bc
00000090: 3ae5 f93c 8ac9 bbbc d6fa 1fbc c4ea abbd
000000a0: 6e2a d43d e6ad 9d3d bfda c5bc ee74 623d
000000b0: 03bb 903d ea6e d43c 520f 9f3d 4e3e 6e3d
000000c0: 4f5a 05bd cb84 ae3c 7ff0 02bc 21a9 aabc
000000d0: 9ba7 1abd 87ad 5c3d 874e 563d b0c2 8bbd
000000e0: fb38 303c 3d58 ff3c 4c82 02ba 7091 b73c
000000f0: 8b34 863d 6190 0cbc 60ec 193c 7117 b8bd
00000100: 8822 673d 8409 9dbd cf49 483c 1928 a13d
00000110: b966 903c 0373 80bd ada8 95bd e380 2d3d
00000120: 5913 0abd f09d 97bc 6377 2dbd b903 5abd
00000130: 577d 52bd 16b2 3f3d 25cd abbd fbc3 a03d
00000140: c105 e4bc a832 5f3c c949 87bd 76e0 42bd
00000150: 9d46 0f3b 67c1 d53d 2dc2 82bd bf32 c23d
00000160: d9ea 0938 9c57 9438 5910 61bd e50a 513d
00000170: 0005 24bd 124a 9a3c 345f 213d bc14 6fbd
00000180: 8e22 883d edff 6fbd 0bbe 4a3d a2cc a33d
00000190: f177 9e3d 8dc9 703d 6ad7 683d a253 6a3d
000001a0: f1bb a5bc 4e78 053d b0ff 7abc 5212 dbbc
000001b0: c30c 85bd ce1b 7a3d 93fc 1fbd 1d88 893c
000001c0: f0ef 893c c592 963d 22a8 17bd 5273 07bd
000001d0: 18cf fcbc 9135 abbd 1562 b13c 81da 973d
000001e0: dad4 ea3c 6806 bf3c 227c 193c 71d9 ac3d
000001f0: 8c25 b7bd 75ac 613d ff94 80bc 2d44 733d
00000200: a263 643d e8bc 04bd 3ca8 f1bb 4325 c13c
00000210: cca8 9ebd f0d6 78bc 34b1 f23b ebc7 813d
00000220: 2e50 0cbd dbd4 953d cfa2 f3bb b4d5 163d
00000230: 3cec eabc 7170 863d 5066 8dba f514 283d
00000240: 9c53 b53d be2a cc3d 1d19 8ebc 3e1d bc3c
00000250: 64c8 413b d9ea 1bbd e268 a03d 9dfa abbc
00000260: c931 b3bd f0ad bc3d 6a7d c1bc 3c0b 073d
00000270: 967c 073d d6fe 14bd 9b97 aabb fe50 92bd
00000280: 1467 953d a446 6ebd 3cca d7bd 6033 9dbc
00000290: 0283 83bc c970 f7bc f34d d83c a573 313c
000002a0: 0ccd c43c 9833 643d b8fc dbbc bc1c 9dbd
000002b0: 4e4f cabd fcd5 39bc 1e09 fb3c cdcf 323d
000002c0: 0051 3d3c b629 a0bd daf0 d83c 8635 a53d
000002d0: 1eb3 78bb 13d3 493d 81f0 8fbb e073 fc3c
000002e0: bc9c 1c3d 68d4 643d f19e 2c3d 8bfb 30bd
000002f0: ad13 9abd 5925 433d eec6 633d 7e92 463d
00000300: 9bdb 8a3d 6aa8 c23d a43e 50bc 7b63 9fb9
00000310: a070 0dbd 5dcb 5fbb 4aac 0a3d ac23 653d
00000320: 6811 9c3c dfd0 783d 2031 0f3c 3434 b53c
00000330: eb93 8fbd c8e6 acbc 4718 18bd 7a72 e1bb
00000340: 8511 a7bd d25a 0abc 3bf9 65bd 8a19 89bd
00000350: 8dee a2bd b613 91bd 89ed 9b3d 3ac3 5dbd
00000360: 7804 8b3b ab71 91bc 96e8 bf3c 5097 003c
00000370: 3d0f 0e3c 35c0 883d 7006 58bd bc4c a7bc
00000380: 919e 97bd 0f14 14bc 51b0 253d 17ca 44bc
00000390: f5e9 3a3a 00ee c83d e63d e2bb 5ef9 8e3d
000003a0: 01b7 dc3c e376 2fbd fdf9 a8bd 8bd4 883d
000003b0: bb13 84bd 61f1 a2bd 7cff 46bb 3d53 8bbd
000003c0: d48d 6e3d e03e 833d 0937 c03c 72f6 ca3c
000003d0: 9856 ba3d 896a 4a3c 181e 173d abe9 80bd
000003e0: 752f c63c ecd8 32bd d412 b1bc e8f3 8ebd
000003f0: 5759 5ebd ace0 52bd 9aec 423d 0e65 ba3d
0.0867705 -0.08418998 -0.06802128 -0.005604647 0.07049499 -0.07207973 0.026634242 -0.008207329
0.06580849 -0.049407125 -0.058474187 0.023899226 -0.051102605 0.02374688 -0.047883954 0.060556017
-0.048106994 -0.0699113 0.06441395 0.0069630975 -0.06145456 0.02617922 0.05330207 -0.0205773
-0.0689344 -0.06190766 -0.031705946 -0.0058019827 -0.012279401 0.046938933 -0.065442204 0.068530574
-0.058393583 0.0029494376 -0.060497142 -0.018505342 0.030504812 -0.02292325 -0.009764394 -0.08394387
0.10359655 0.07699184 -0.024152158 0.055287294 0.0706692 0.025931794 0.07766594 0.058164887
-0.032556828 0.021303555 -0.007991909 -0.0208326 -0.037757497 0.053876426 0.052320983 -0.06824243
0.010755773 0.031170005 -0.0004978522 0.022408217 0.065529905 -0.0085793445 0.009394735 -0.08988846
0.056429416 -0.076678306 0.012224629 0.07868976 0.017627107 -0.06271937 -0.07307563 0.042359244
-0.033709858 -0.018507928 -0.042350184 -0.053226206 -0.051389065 0.046800695 -0.083887376 0.0784988
-0.027834775 0.013622917 -0.0660587 -0.047577344 0.0021862157 0.10437279 -0.06384692 0.09482335
3.2882064e-05 7.0735085e-05 -0.05494723 0.05103578 -0.04004383 0.018834148 0.039397433 -0.058369383
0.06647216 -0.05859368 0.049497645 0.07998015 0.07737721 0.058785964 0.05684606 0.057208665
-0.020231219 0.032585435 -0.01531975 -0.026742134 -0.06496575 0.061061673 -0.039059233 0.016788537
0.016838044 0.07352213 -0.03702558 -0.033068962 -0.030860469 -0.08359826 0.021653214 0.07414723
0.028665949 0.023318484 0.0093679745 0.08439911 -0.089427084 0.05509611 -0.015696047 0.05939119
0.05575908 -0.032406718 -0.0073747914 0.023577338 -0.07747039 -0.015187964 0.007406378 0.063369595
-0.034256153 0.073159896 -0.00743518 0.036824897 -0.028677098 0.06564415 -0.0010787938 0.04103561
0.08853838 0.0996909 -0.01734596 0.022963163 0.0029568905 -0.038065765 0.07832505 -0.020993525
-0.0874973 0.092128634 -0.023619372 0.0329697 0.0330778 -0.036375843 -0.005206061 -0.07144354
0.07295051 -0.058172837 -0.1053662 -0.019189537 -0.01605368 -0.030205147 0.026404357 0.010830794
0.024023555 0.055713266 -0.026853904 -0.07671496 -0.098784074 -0.011342522 0.030643996 0.043655206
0.011554956 -0.07820456 0.026482034 0.080668494 -0.003794856 0.04927356 -0.004392684 0.030816972
0.03823541 0.05586663 0.042143766 -0.04320864 -0.07523284 0.04764304 0.055609636 0.04847955
0.06780168 0.09504779 -0.012710247 -0.00030400962 -0.034531236 -0.0034148314 0.033855714 0.055942222
0.019051269 0.06074607 0.00873974 0.022119619 -0.07010635 -0.021106139 -0.037132528 -0.0068801017
-0.081576385 -0.008444505 -0.056145888 -0.06694324 -0.07955656 -0.07083838 0.076136656 -0.05414126
0.004242476 -0.017754396 0.023426335 0.007848576 0.008670625 0.066772856 -0.052740514 -0.020422332
-0.07403291 -0.0090379855 0.04045135 -0.012011073 0.0007130199 0.0981102 -0.0069043515 0.06981157
0.026942732 -0.04283799 -0.082508065 0.06681164 -0.06449076 -0.079561956 -0.0030364683 -0.06802986
0.058240727 0.06408477 0.023463743 0.024775717 0.09098548 0.0123545015 0.036893934 -0.06294569
0.024192551 -0.043663904 -0.021615423 -0.06980115 -0.05428442 -0.051483795 0.047588922 0.09101306

bias f4 [128]
00000000: c049 1ebd 8600 803d 6448 fdbc f32f 993c
00000010: df76 d6bc fb54 46bd d1ae bebc 75a2 ae3d
00000020: 8784 81bd 6fcf 1bbd bda8 893d cd7b 5cbd
00000030: 2953 11bd bb2e 243d 2753 acbd cedf b43d
00000040: e067 8b3d 6ca3 84bd c022 11bd 8ca9 09bd
00000050: 9a4a b1bd 3f95 25bd d383 983d 136a 9ebd
00000060: 89e2 9bbd b575 a63d d403 e1bc b745 2e3d
00000070: 9726 a13c 6358 173c 7c53 063c 6ab4 53bc
00000080: f163 7d3d 4ab7 8abd 8d8a fdbc ba27 9cbd
00000090: e30b 1c3c bb13 74bd 2964 053d bdad b0bd
000000a0: 2ba1 0dbd d171 8fbd aa05 b53d 6a40 d6bc
000000b0: f775 5dbc 963a 0cbd db8e 66bd 8b8f cb3c
000000c0: 0421 413b 0a88 e03c 8c71 83bd e99d 913d
000000d0: 6f6f a0bd e499 a73d 4775 e43b 9ef5 843d
000000e0: 167f 8fbd 45a6 5d3b 8b59 93bb 706b 923b
000000f0: 6594 39bd bbaa fc3c 7d96 0dbd ed6b 40bd
00000100: df03 f0bb 5e45 c43c 4df8 83bc dd3c 2e3d
00000110: 47a8 94bd ba82 153c d278 5dbd 424a 48bd
00000120: 4d6e 53bd 843b 6abd a037 d33c bb25 a83d
00000130: 6483 5d3c 89c7 9e3d 4581 843d 0789 40bc
00000140: cb8a 9ebb 9fd4 fc3b e220 9a3d d0c1 633d
00000150: 7ef2 7d3d b113 853d 938b 6abd 175a 193d
00000160: 3d9b 1bbd 949a 8b3d 88a0 6c3d 76d0 e3bc
00000170: a244 8e3d 55be 023b a60f 763d 2468 963d
00000180: 1dc5 163d 4943 f63b 6760 9d3d 4d3b 7b3d
00000190: 4b97 82bd 4a4d 843d 443d ac3c 06c2 aabd
000001a0: 9c8e 82bd 6b85 d23b 83cd be3d 8b19 b13d
000001b0: 429a 11bc 3d45 a9bd 8fc1 913d 6ca2 643d
000001c0: fccc a43d d8db f33b 2607 d63b 1bea 3dbd
000001d0: 6453 013d 0c20 543b 5d4d ca3c dbff fe3a
000001e0: decb d33c 15c0 5d3d aa06 293d 68a8 c139
000001f0: 85a8 90bc dc60 7f3d d69f a33c 19f8 873d
-0.038644552 0.062501 -0.030918308 0.018699622 -0.026179729 -0.048420887 -0.023276718 0.0852708
-0.06324106 -0.03803962 0.067216374 -0.053829003 -0.0354797 0.04008363 -0.084142976 0.0883175
0.06806922 -0.06476483 -0.03543353 -0.033608958 -0.08656807 -0.040425535 0.074470185 -0.07735076
-0.076115675 0.081279196 -0.027467646 0.042546954 0.019671721 0.009237382 0.008198615 -0.012921432
0.06186289 -0.06773241 -0.030949855 -0.07624765 0.009524318 -0.05958913 0.032566223 -0.08626888
-0.03457753 -0.07004131 0.08838971 -0.026153762 -0.013516895 -0.03423556 -0.05628858 0.02484872
0.0029469142 0.027408618 -0.06418142 0.07110197 -0.07833754 0.08183649 0.0069719884 0.0649216
-0.070066616 0.0033821028 -0.0044967583 0.004468374 -0.045307536 0.03084313 -0.034567345 -0.046977926
-0.00732468 0.023958858 -0.01610961 0.042538512 -0.07258659 0.009125406 -0.0540703 -0.048898943
-0.051618863 -0.057185665 0.02578336 0.082103215 0.0135200955 0.07752902 0.06469969 -0.01175142
-0.0048383228 0.007715776 0.07525803 0.055604756 0.061998837 0.064978965 -0.057262015 0.037439432
-0.037989844 0.06816593 0.057770282 -0.027809363 0.069466844 0.0019949873 0.060073517 0.07344082
0.036809076 0.0075153452 0.07684403 0.06133585 -0.06376513 0.06460054 0.021025307 -0.08337788
-0.06374857 0.006424596 0.09316542 0.0864745 -0.008886876 -0.08265159 0.071169965 0.05581896
0.0804691 0.007441979 0.006531614 -0.04636584 0.031573668 0.0032367734 0.024695093 0.0019454913
0.025854047 0.05413826 0.04126612 0.000369373 -0.017658481 0.06234823 0.019973677 0.06639118

weight f4 [1, 128]
00000000: 015f ce3c e76e 85bd 584b 13bc 9333 9d3d
00000010: 8c76 463d 1fad 1dbd 43e5 e0bc 9f1a 10bd
00000020: 9b98 2abd 02bd 90b9 9055 00bd 07b3 d83c
00000030: 4dfa b23d dd10 9c3d 4325 ca3d d65a babd
00000040: a10c 173d 17dd 943d 3f01 64bd 9824 a13d
00000050: c66e 5d3d 0134 84bd d5a6 963d fa6e 5e3c
00000060: 12d5 72bd b21f 9bbc 60fd 3d3d 683e d23d
00000070: cc03 a0bc 3c20 863d 9e5e a43d 312a 623d
00000080: 8312 873d d15d e43c 13af 693d 40c4 fe3c
00000090: 6f80 a83d 93e5 483d 64c8 c83d b132 433d
000000a0: e040 8abd 7b7e 9e3c ff59 14bd 95a2 acbd
000000b0: 5451 683c 9f21 b2bd f2eb 4e3d 9d0f 76bd
000000c0: d3e4 5c3d 21c0 fcbc 91b0 b93d 68c0 143c
000000d0: 7aec 1fbd 52e8 623c b10a 93bd df9a d8bc
000000e0: 2d29 833d 3b59 0b3d c3cc b1bd b523 7bbd
000000f0: da6e abbd 55f2 89bd 0356 723d 4d04 78bd
00000100: fdd3 2a3d 9c24 13bd 3769 acbc 1afb 9dbd
00000110: 5d9d 2ebd a768 a2bc 720b 7e3d def1 743d
00000120: c186 283d 37ce 803d 883c aebd a5c0 9abc
00000130: 8232 f23c f7f4 79bd 5d38 c43d dc70 aebd
00000140: 48de 783d 22f7 963d ee66 ea3c e035 8fbd
00000150: b691 02bd a7a1 91bd 1b64 1cbc 47a5 cbbc
00000160: 3287 45bd 408d ec3c 1268 6c3d c06e 3a3d
00000170: 9c05 8cbc d8bb b0bc 83f8 ffbc 6472 2bbc
00000180: e71e b0bb ad33 77bc c588 393d 770d b8bc
00000190: e677 b9bd a033 ae3b da04 59bd db8e a03d
000001a0: 46f4 a53d 276f 65bd 44e3 59bd 0181 e4bc
000001b0: fa36 003d c04d bc3c 8722 3abd b739 143d
000001c0: 1f03 653d d1b1 a93c 73a0 393d a6b2 873d
000001d0: 5e9e 36bd cc8c 9e3d 7522 20bd 9987 843c
000001e0: 91e9 9bbc 5446 d33d ecd2 893d 5364 c3bd
000001f0: adec 97bd ced3 753d 7974 74bd c151 883d
0.025191786 -0.065152936 -0.008990131 0.076758526 0.0484529 -0.03849518 -0.02745307 -0.035181638
-0.041649442 -0.00027606642 -0.0313316 0.026452554 0.08739147 0.07620404 0.09870388 -0.09099357
0.03687728 0.07268732 -0.05566525 0.07868308 0.05406072 -0.064552315 0.073560394 0.013576264
-0.05928523 -0.018936012 0.046384215 0.10265809 -0.01953306 0.06549117 0.08025859 0.055216018
0.06595328 0.027876766 0.05705173 0.031099439 0.08227622 0.049047064 0.098038465 0.047655765
-0.06750655 0.01934742 -0.03621864 -0.084294476 0.014179546 -0.08697819 0.050517984 -0.060073484
0.05392916 -0.030853333 0.090668805 0.009079076 -0.03904388 0.013849335 -0.071797736 -0.026441036
0.06404338 0.034020644 -0.08681633 -0.06131335 -0.08370753 -0.06735674 0.05916406 -0.060550977
0.041706074 -0.035923585 -0.021046264 -0.077139094 -0.042630542 -0.019825293 0.062022634 0.059800975
0.041144136 0.06289332 -0.08507639 -0.018890688 0.0295651 -0.061024632 0.09581063 -0.0851762
0.06075886 0.073713556 0.028613534 -0.06992698 -0.031877242 -0.07110911 -0.009545351 -0.024859084
-0.048224635 0.028875947 0.057716437 0.045515776 -0.017092519 -0.021573946 -0.03124643 -0.010464285
-0.0053747776 -0.015088004 0.04529645 -0.022467358 -0.09056072 0.005316213 -0.052983142 0.078397475
0.08103232 -0.056014206 -0.053195253 -0.027893545 0.03130243 0.022986293 -0.045443084 0.036187854
0.05591118 0.020714672 0.045319032 0.06625871 -0.044584624 0.077416986 -0.03909536 0.01617794
-0.019032272 0.103161484 0.06729683 -0.0954062 -0.07418189 0.060016446 -0.05968139 0.06656218
