save/laser_cleaning_energy_model.pt (torch, 72631 bytes, 5 tensors)

weight f4 [128, 3]
000000 c1 f0 1a be 35 59 10 bf c5 f4 a3 bb 1a 55 6e bd
       -0.15130903 -0.5638612 -0.005003544 -0.058186628
000010 fa 73 be bb 44 a7 05 3f c1 07 44 be 77 15 f8 3e
       -0.0058121653 0.5220835 -0.19143583 0.48453876
000020 53 e7 8e 3e d5 55 61 3b f6 da 1c 3f 2e 3d e4 3e
       0.2791086 0.0034383435 0.6127161 0.44577926
000030 6e 62 04 be 2b 2f 0f 3d 13 8b c0 bd f7 82 e4 be
       -0.12928173 0.034957092 -0.09401526 -0.44631168
000040 79 e2 08 bf 8e 63 37 3e 4a 47 23 3f aa f5 c3 be
       -0.5347057 0.17909071 0.63780653 -0.38273364
000050 85 38 a1 be 73 98 09 3f d3 c2 1a bf 99 0a 45 be
       -0.31488433 0.53748244 -0.6045353 -0.19242324
000060 f1 8e 15 3f 2f 29 20 3e 2f 76 0d bf c4 a5 e6 be
       0.58421236 0.1564071 -0.5525846 -0.45048344
000070 af ef 3d 3e 92 3f ea be 91 9e d2 be 62 eb 14 3f
       0.18548463 -0.45751625 -0.41136602 0.58171666
000080 d6 07 e6 3d 9a 05 f0 be 43 00 d3 be 2f e7 08 3f
       0.11231963 -0.46879274 -0.41211137 0.5347776
000090 e5 c5 c6 3e a5 15 20 3f 97 26 3c be d3 ab 0d 3f
       0.38822857 0.62533027 -0.18374096 0.5534031
0000a0 be ed 6f 3e 82 b4 08 bf a5 65 17 3f cc 53 c5 bd
       0.23430535 -0.53400433 0.5913947 -0.096351236
0000b0 95 8d cb be 01 ff 02 bf 70 27 ff 3e 1a e8 0d 3e
       -0.39756456 -0.51170355 0.49834776 0.13858071
0000c0 c5 46 31 3e f1 7f e4 be 8f 56 c9 bd 73 5a ab be
       0.17312153 -0.44628862 -0.09830963 -0.33467445
0000d0 de 7e fb 3e 0d 9a 79 3e 1d 3e 37 3e a9 3c d0 be
       0.4912023 0.24375172 0.17894788 -0.4067128
0000e0 2d 88 35 3e 9b 83 98 3e 5b d7 84 be ff 0b a8 3c
       0.17727728 0.29787907 -0.25945553 0.020513533
0000f0 70 e1 e9 bd 2b 97 03 bf b2 47 02 3e 63 0f d6 be
       -0.11419952 -0.5140254 0.12722662 -0.41808614
000100 01 8b f5 3e 9a b3 a4 be 94 6c 02 bf 53 f9 30 be
       0.47957614 -0.32168275 -0.5094693 -0.1728261
000110 9d 84 8b 3e 1c 5e c3 bd ab 4a 08 3e fa 56 db be
       0.27249613 -0.09539434 0.13309734 -0.42839795
000120 75 18 95 3e 3c be 8d 3d 35 5b 85 be 2c 93 87 3e
       0.29120222 0.0692105 -0.26046148 0.2647947
000130 3f 23 11 be 56 c4 e7 bd 31 95 1a 3e 58 3b 1f bf
       -0.14173602 -0.11316745 0.15095975 -0.62199926
000140 dc 30 e5 be e5 75 1b bf c0 62 84 be 2c e0 df bd
       -0.4476384 -0.6072677 -0.2585659 -0.10931429
000150 1b 63 0a 3f 13 2c 18 bf 64 10 f6 bd f5 b9 ec 3e
       0.5405747 -0.5944225 -0.12014845 0.46235624
000160 20 2d 10 3f e6 f5 06 bf b3 f3 fc be 4e 85 1f be
       0.56318855 -0.5271896 -0.49404678 -0.15578195
000170 f4 d0 f8 bc b6 f5 c8 bd ca 3f 6e 3e c4 c0 83 3e
       -0.030373074 -0.09812491 0.23266521 0.25733006
000180 bc db da be 6b 38 70 3e 8b 9a 05 3f 94 ac c4 3d
       -0.4274577 0.23459022 0.5218894 0.09603229
000190 98 fb 12 be bf 5a 5c 3e be f7 08 3e fa 9d 16 3e
       -0.14353788 0.21518992 0.13375756 0.14708701
0001a0 d9 72 04 bf c4 64 1f 3f 9d 35 0d bf 0f 4e 65 3e
       -0.51737744 0.6226313 -0.5515993 0.22393058
0001b0 15 6a b1 3e f9 7f 00 3e 3a b6 68 3e 18 bd 13 bf
       0.34651247 0.12548818 0.22725764 -0.5771041
0001c0 ca f8 d8 3e 9e 6a b0 be d3 72 07 3e 39 23 c8 3e
       0.4237731 -0.34456342 0.13227396 0.39089373
0001d0 ed 59 0d 3e ec 57 0b bf bf 82 c2 bb d5 b3 d4 3e
       0.13803835 -0.54431033 -0.0059359963 0.4154345
0001e0 08 23 a3 3e dd 01 83 be 8f 39 0e bf 4c 71 a6 3e
       0.31862664 -0.2558736 -0.5555658 0.32508314
0001f0 e1 09 cb bd 77 97 18 3e 57 7c c1 bd 48 87 77 be
       -0.099139936 0.14901529 -0.09447544 -0.241727
000200 eb b1 47 be 90 67 a7 3e a4 46 cc be 3e e3 03 3f
       -0.19501464 0.326962 -0.39897645 0.5151862
000210 c0 65 bf bd 5b 67 36 be 4c 56 94 be 6b 2a df be
       -0.09345579 -0.17812864 -0.2897209 -0.4358705
000220 0f 96 9d be 8e 14 d8 3d 04 6d ed be 0a 72 ee 3e
       -0.30778548 0.105507955 -0.46372235 0.4657138
000230 0d d7 ed 3e 57 17 94 3e f0 91 6e bd ae 6e 8a 3e
       0.46453133 0.28924057 -0.058244646 0.27037567
000240 63 71 ef 3d c7 fd 1c bf 23 07 08 bf 75 54 47 be
       0.11691549 -0.61324733 -0.5313589 -0.19465812
000250 f4 06 9d 3e cf fe 96 be 10 53 9f be 5f af 09 bf
       0.30669367 -0.2949128 -0.3111806 -0.5378322
000260 b2 43 05 3e 1f 0d 81 3c 8b b9 95 be 65 32 2b be
       0.13014105 0.015753327 -0.2924312 -0.16718443
000270 46 89 02 bf 64 8c 12 3f d3 a4 1d be d7 18 e5 3e
       -0.5099071 0.5724547 -0.15394907 0.44745514
000280 b9 7f 7d 3e de 1f 90 be f8 f5 9f be 1f e1 eb bd
       0.24755754 -0.28149313 -0.31242347 -0.11517548
000290 23 00 23 be d3 de 45 3d 9d 24 11 3f b8 19 90 be
       -0.15918021 0.048308205 0.5669649 -0.28144622
0002a0 ba f9 4e 3e 96 d6 4b 3d 34 0e 07 bd 91 2e 88 be
       0.2021245 0.049765192 -0.03297253 -0.26598027
0002b0 44 a3 bf be 07 b6 f1 3e f5 a1 d2 3e 1a 30 19 3f
       -0.3742925 0.47209188 0.41139188 0.5983902
0002c0 72 f9 01 bf 27 98 13 3f ee 57 1a be a9 76 fa be
       -0.5077125 0.5765404 -0.15072605 -0.48918656
0002d0 6f 52 18 bf c1 fd 9b 3e 5a 54 3d 3e 30 bc 74 3e
       -0.59500784 0.30467036 0.18489209 0.23899913
0002e0 62 46 ba 3e 8f 74 fc be 1d d7 97 3e 80 44 75 be
       0.36381823 -0.49307677 0.29656306 -0.23951912
0002f0 85 55 99 3d ab a4 ad 3e 41 c2 b9 3e b8 b8 1c 3f
       0.07487015 0.33914694 0.36281016 0.6121936
000300 56 9f 5c 3e 8f cd 9a 3e dd ca 01 3e 18 31 63 bd
       0.21545157 0.30234954 0.12675042 -0.05546674
000310 48 9f 17 3f 9d a5 9e 3e e4 5e d4 3e d7 7d c5 be
       0.5922742 0.30985728 0.41478646 -0.3857257
000320 f9 61 ff be 9e 1b 93 3e a8 39 07 bf ca a8 5e be
       -0.49879435 0.28732008 -0.5282235 -0.21744075
000330 31 32 20 be ed 71 1d bf 6e de de be 7a e1 a5 be
       -0.15644147 -0.6150196 -0.43529075 -0.32398587
000340 bb 07 1b 3d 95 e0 b8 bd 9c a3 b8 3e e0 a7 15 3f
       0.03784917 -0.090272106 0.36062324 0.5845928
000350 06 37 4a bb c5 9c f9 3e aa 3d b0 3e a9 99 a3 3d
       -0.003085555 0.48752418 0.34422046 0.07988293
000360 5c b9 4c 3e e0 7a b3 3e ee ee 2c be e0 08 b5 3d
       0.19992584 0.35054684 -0.1688802 0.088395834
000370 43 46 ca 3e 5d e5 80 bc dd b2 1c be ef 30 b7 be
       0.3950673 -0.015734369 -0.15302606 -0.3577952
000380 c1 24 3e 3e 36 65 07 bf 3d b9 08 3f 08 a4 c2 be
       0.18568708 -0.5288881 0.5340765 -0.3801577
000390 d1 f0 18 bf 05 39 18 bf 57 47 aa 3d 2d 90 88 3e
       -0.59742457 -0.59462005 0.08314388 0.26672497
0003a0 d5 75 3e be 91 61 f3 bc 5d c0 9b 3d 05 8d 61 3d
       -0.18599637 -0.02970961 0.0760505 0.055066127
0003b0 21 fd 00 bf 99 34 da 3d 3d 0a ac bd d4 b3 16 be
       -0.50386244 0.106545635 -0.0840039 -0.14717036
0003c0 cc cf 11 3d 18 db e7 be 17 a3 ec 3e 40 a9 52 bd
       0.03559856 -0.45284343 0.46218178 -0.05143094
0003d0 0b 3a 99 3e ad b8 65 3e 11 f3 d2 be 12 40 0d 3f
       0.29927096 0.2243373 -0.4120107 0.5517589
0003e0 f9 af b1 be 75 02 3c be 8f 33 d8 be f1 2b b1 be
       -0.3470457 -0.18360312 -0.42226836 -0.34603837
0003f0 81 29 cb be 22 06 d3 be fe 8a c8 3e ac d9 0a bf
       -0.39680102 -0.41215616 0.39168543 -0.5423839

bias f4 [128]
000000 a6 db 80 bd cf d5 b3 be ff 59 f3 be 2a 3f 02 3f
       -0.062918946 -0.3512406 -0.475296 0.5087763
000010 59 07 9e be 6b 20 a9 3d 02 1b e4 3e 37 6b f3 3e
       -0.3086498 0.08258136 0.44551855 0.47542736
000020 09 a2 e0 3e e6 2c 0e bf 4e c2 b7 3e 9e 6c d2 be
       0.43873623 -0.5553726 0.3589043 -0.41098493
000030 fb b2 0d be 9d 77 c8 3d b2 2b ea 3e 33 42 b9 bd
       -0.13837807 0.097884394 0.45736462 -0.090458296
000040 3d 84 2a 3e a1 87 5d 3e f8 bc 06 bf 30 4a 86 39
       0.16652007 0.2163377 -0.52632093 0.00025613746
000050 12 ce db be fe 5a 8a 3e 2d a4 20 3f e9 74 c9 3e
       -0.42930657 0.27022547 0.6275051 0.39347008
000060 df 0c 96 be 04 0e db 3e 3c 7c 52 be 57 24 a1 bd
       -0.29306695 0.4278413 -0.20555204 -0.078682594
000070 53 a9 8f be 90 fb fe 3e 68 b9 f9 be 24 bf d6 3d
       -0.28058872 0.49801302 -0.48774266 0.10485676
000080 dc de 0e 3f d0 59 92 be 31 80 1e 3f d8 4b b9 3e
       0.55808806 -0.28584146 0.61914355 0.36190677
000090 f6 43 75 be 3e 44 81 be 72 69 87 be a0 35 85 3d
       -0.23951706 -0.25247377 -0.26447636 0.06504369
0000a0 c1 df 44 bd cb 68 07 3f 50 98 5b bc 5a 57 c2 3e
       -0.04806495 0.52894276 -0.013403013 0.3795727
0000b0 03 75 b8 be 7b 26 c1 be 7b 8c fe be 3d 46 6d 3e
       -0.36026773 -0.3772467 -0.49716553 0.23171325
0000c0 b0 05 8f be ec 13 e8 3b d6 f5 3b be aa 13 22 be
       -0.27934027 0.007082453 -0.18355498 -0.15827814
0000d0 9f bb 82 be fa e5 b0 be 53 89 e9 be 0d 42 a1 3e
       -0.2553377 -0.34550458 -0.45612583 0.31495705
0000e0 6b a4 b6 3d c0 67 d3 be 08 c5 c0 be a8 ca 13 3f
       0.08918079 -0.41290092 -0.37650323 0.57731104
0000f0 67 f1 df 3d 35 c6 78 be e9 bb a9 3d 8b 8b 0f 3e
       0.10934716 -0.2429436 0.08287794 0.14018075
000100 6b 27 01 be 84 9d b2 3e 7d b2 bb 3e b8 c2 cc be
       -0.12612693 0.348858 0.36659613 -0.3999231
000110 ec e4 50 3e 16 0d cf be dc d8 4a 3e 4d 45 01 bf
       0.20399827 -0.4043967 0.19809288 -0.5049637
000120 68 dd f8 3e 8d e4 ec be a9 b5 25 3e fc 45 b3 bd
       0.4860642 -0.4626812 0.16182579 -0.08753583
000130 29 ea 95 3d fd 97 03 3e bf db c8 be 4a b9 d9 3e
       0.07320053 0.12850948 -0.39230153 0.42524177
000140 b9 5f 25 be f8 02 ed bd ad 56 1d be e6 05 a6 3e
       -0.16149797 -0.11572832 -0.15365095 0.32426375
000150 b6 39 a6 be ae 9e ee bc fd 1b 18 3f 59 08 77 be
       -0.32465905 -0.029128399 0.59417707 -0.24124278
000160 2c e0 01 bf cc 6c 9b 3c 19 d7 1f 3f 3d b2 16 3f
       -0.50732684 0.018972777 0.6243759 0.5886572
000170 30 03 11 3f 88 ac f7 be 83 02 8c be 6a ec 11 bf
       0.5664549 -0.48373818 -0.27345666 -0.57001364
000180 27 9a 75 be b9 2f c5 3e be 33 ff be 36 44 cf 3e
       -0.23984586 0.38512972 -0.49844164 0.40481728
000190 6a ce 1d 3f 3c 28 14 3f 11 64 8d be 51 62 0e 3f
       0.6164309 0.5787389 -0.27615407 0.5561877
0001a0 ab 13 c2 be 0b 65 9e be d3 69 35 be a8 9a c9 be
       -0.3790563 -0.30936465 -0.1771615 -0.39375806
0001b0 34 5d b5 3d df 15 a8 be 92 c6 b1 3e 85 88 bb 3e
       0.08855668 -0.32829186 0.3472181 0.36627594
0001c0 a0 d3 a7 bc 95 8c 14 3e 56 6a bd 3e 53 fe ea be
       -0.020486653 0.14506753 0.3699519 -0.4589716
0001d0 59 47 71 be 45 03 84 be 21 e3 c0 3e 60 2b 0f bf
       -0.23562373 -0.25783744 0.37673286 -0.5592556
0001e0 98 e4 60 3e 81 47 26 be 42 26 a6 3d 85 94 e0 3e
       0.21962202 -0.16238214 0.08112766 0.4386331
0001f0 42 60 22 3e 93 bd 31 be f1 a1 d4 bd 7a f4 a9 be
       0.15857032 -0.17357473 -0.1038245 -0.33194333

weight f4 [128, 128]
000000 cc dd 3d bd 9c 4f ac bd 4f ed 7a 3b b8 3a 0e bd
       -0.0463541 -0.08413622 0.003828842 -0.034723967
000010 cc 4c c0 bb 72 a4 74 3d e9 8a 4b 3d 60 d2 8b 3b
       -0.00586853 0.05972714 0.049693022 0.004267022
000020 12 96 66 3d 62 83 d3 bd f2 9c 0a bb 6e 44 36 3d
       0.056295462 -0.10327794 -0.0021150676 0.044498853
000030 44 cf 3f bd eb d1 78 3b 49 b8 49 bd a9 0f 9c bd
       -0.046828523 0.0037966918 -0.049248014 -0.076201744
000040 42 a7 78 bd d5 b0 1a 3d 9d 45 93 bc 13 77 95 bd
       -0.060706384 0.037766296 -0.01797753 -0.07298102
000050 71 44 e2 3d 22 20 52 3d 45 a0 c4 3d 64 41 b8 bc
       0.110482104 0.051300175 0.096008815 -0.022492118
000060 45 19 2b bc d3 14 56 bd 59 f5 a7 3d 66 a1 08 3c
       -0.010443036 -0.052265953 0.08201093 0.008339262
000070 a2 8c 64 bd a4 3e 8d 3d 66 50 80 bd 8f b0 cf 3d
       -0.05579818 0.068967134 -0.06265335 0.10141098
000080 4d ce 2d 3d 2e c4 ff 3c 81 97 8e bd fc b8 4c 3d
       0.042433072 0.031221475 -0.06962491 0.049981102
000090 19 ab a1 bd 7b e0 8a bd 3a e3 45 bd 07 24 5c 3d
       -0.078939624 -0.067810975 -0.048312403 0.053745296
0000a0 c9 1e f5 bc f3 a5 05 3d 9e 2d e7 3b 22 16 2b 3d
       -0.029921906 0.032628965 0.0070549985 0.041769154
0000b0 e7 3c 3e 3d a4 37 83 bd 3b 43 a8 bd fa ac 2e 3d
       0.0464448 -0.06407097 -0.08215948 0.042645432
0000c0 5a 8c 83 bd 37 c7 b0 bd 8b 6b ce 3c 71 29 d7 3b
       -0.06423254 -0.08631747 0.025197765 0.0065662195
0000d0 a9 fa 85 bc f6 1d b5 bd b4 0d d7 bc 87 ac 48 bd
       -0.016354876 -0.08843605 -0.026251651 -0.04899266
0000e0 68 a3 ff bc 8a 7e 25 bd 36 0b 60 bd 72 87 98 3d
       -0.031205848 -0.04040388 -0.05469819 0.07447709
0000f0 fe bd 7e 3d a5 f1 3c 3d f3 8f f4 3c 50 0b da 3b
       0.06219291 0.046128888 0.029853797 0.0066541806
000100 e2 ed c7 3b 39 7d 93 bc 5a 58 1d bd 57 65 2e bd
       0.006101356 -0.018004047 -0.038414337 -0.042577114
000110 ac a1 79 3d e7 5d 86 bd 3a dd 3f 3d b0 77 3c bd
       0.060945198 -0.06560879 0.046841837 -0.04601258
000120 57 ea 6c bd 73 58 16 3d 1e ba cd 3c 13 23 7d bc
       -0.05784067 0.036705445 0.025113162 -0.015450257
000130 78 d9 15 3d 5b 52 92 3d cc 33 1a 3c e3 91 1c 3d
       0.036584347 0.07144614 0.009411763 0.038225066
000140 20 d0 05 3c 63 40 d4 bb 1f d6 c9 bd 43 5d e7 bb
       0.008167297 -0.006477402 -0.098552935 -0.007060678
000150 18 e1 b4 bd e3 64 86 3d 2f 1d 29 bd 66 bf 89 3d
       -0.08831996 0.06562211 -0.041287597 0.067259595
000160 9d cd 7e bd 7f fd fc bc 21 56 0c bd 18 0e c9 3c
       -0.062207807 -0.030882595 -0.034261826 0.024542853
000170 f4 41 56 bb 2e c2 56 3d 7d 05 89 3c d6 c6 b8 bd
       -0.003269312 0.052431278 0.01672625 -0.090223
000180 71 9b c6 3d 2f e1 84 3d 56 28 64 3c f2 e3 87 3c
       0.09697617 0.06488263 0.013925632 0.016588185
000190 d2 b3 e0 bb dc b7 33 bd 37 90 4e 3d 74 46 56 3d
       -0.0068573738 -0.043876514 0.050430503 0.052313283
0001a0 76 0c 3e 3d f4 07 7e 3d 88 b3 35 3d 90 6b 43 3d
       0.046398602 0.062019303 0.044360667 0.04771
0001b0 a9 44 b9 3c 15 85 d7 bb 86 63 06 bd 95 a8 88 bd
       0.022615748 -0.006577144 -0.032809757 -0.066727795
0001c0 0f 87 95 3d 92 52 5c bd 7b 13 ae 3d 7a 35 6b bd
       0.07301151 -0.053789683 0.08499809 -0.057424046
0001d0 6d b4 b0 3c 90 f0 93 3c 0c 80 22 bd 6f 18 d4 3c
       0.021570409 0.018059045 -0.039672896 0.025890557
0001e0 58 64 10 3d ad f6 38 3c 02 cd 44 3c 37 ce 9d bb
       0.035251945 0.011289281 0.012011768 -0.0048158425
0001f0 19 cc 4f 3d 50 1c 21 3d ef 19 84 bd 5f 52 89 bd
       0.050731752 0.03933364 -0.06450259 -0.06705164
000200 fe c6 5c 3d 63 62 11 bd 04 35 15 3d 44 62 be 3c
       0.05390071 -0.03549422 0.036427513 0.023240216
000210 b0 6f b3 3b e8 f5 1b 3c ba 7e 61 bd f8 b5 5d bc
       0.0054759607 0.009519078 -0.055052496 -0.013532154
000220 e6 f9 68 3d f0 c4 57 bd 34 24 2b bd 2f 69 96 3d
       0.056878947 -0.05267805 -0.041782573 0.07344281
000230 bd 82 4c bd 34 ed d0 bc 59 1a 9e 3d c3 a5 82 3d
       -0.04992937 -0.025503732 0.07719869 0.06379273
000240 43 39 a4 3d 80 e7 ba 3a 80 45 1f 3b a0 47 0b bc
       0.08018734 0.0014259666 0.00243029 -0.008500963
000250 a3 78 8a 3d 34 5f b4 bd 50 f3 05 3c a6 1c 19 3d
       0.06761291 -0.08807221 0.008175686 0.037380837
000260 c3 43 04 bd c0 ca f6 3b 70 eb e9 3c 76 d5 76 bd
       -0.032291185 0.007531494 0.028554648 -0.060262166
000270 b4 51 c0 bc c0 26 2c bd 6d 74 b2 3d f9 ff 93 3d
       -0.02347646 -0.042029142 0.08713613 0.07226557
000280 12 6e af bd 30 fc 12 bc 12 b1 3e 3d c8 0d 2c bc
       -0.08565916 -0.008971259 0.046555586 -0.010501333
000290 aa a8 6f 3d ee 2a 7d 3d fa 01 5d 3d 00 63 a0 b9
       0.05851046 0.06180852 0.053956963 -0.0003059134
0002a0 6c 6f f2 3c 45 b1 97 bd 74 85 86 bd 8d 47 93 3d
       0.029594146 -0.07406858 -0.06568423 0.071913816
0002b0 82 70 8c bd 4c d5 90 bc 10 2a 50 bd 61 10 6f bd
       -0.06857397 -0.017679833 -0.050821364 -0.05836523
0002c0 d5 59 b0 3d 3a 99 52 3d ca 85 3b 3d 00 69 2d ba
       0.08610884 0.05141566 0.045781888 -0.00066150725
0002d0 40 36 82 bd 00 09 e4 b9 5d ac 9e 3d 20 59 aa bb
       -0.063580036 -0.00043494254 0.077477194 -0.005198613
0002e0 fc 4b b1 bd 3a 5b 54 3d 72 ce a8 bd d8 26 93 bd
       -0.08657071 0.051844813 -0.08242501 -0.07185143
0002f0 e3 35 67 bd 42 14 a8 bd 80 81 80 ba e0 fe 56 3b
       -0.056447875 -0.08206989 -0.0009804219 0.0032805726
000300 78 62 1d bd 20 8b 8a 3c d0 d1 e6 bb 1e 93 53 bd
       -0.038423985 0.016912043 -0.0070440546 -0.051653974
000310 a0 b0 6c bb d7 e3 9c 3d e4 20 44 bd 64 79 81 3c
       -0.003611602 0.076606445 -0.04788293 0.015804954
000320 27 a9 96 3d 27 1d b2 3d a2 47 92 bd 6a 3a ab bd
       0.07356482 0.086969666 -0.07142569 -0.08360751
000330 7b 91 36 bd c3 ae 77 bd 08 19 50 bc 10 6f f8 bc
       -0.044572335 -0.0604694 -0.01270128 -0.030326396
000340 46 63 29 3d 80 04 98 bc 9a 26 5b bd 4a 00 59 3d
       0.04135444 -0.018556833 -0.05350361 0.05297879
000350 5a dd 14 3d b2 f1 3b 3d 80 93 95 bb 48 6b 68 3c
       0.03634391 0.045884795 -0.0045647025 0.014185734
000360 a0 3e 5b 3b d0 61 30 3c 44 72 e4 3c 51 df 65 bd
       0.0033454075 0.010765508 0.027886517 -0.056121174
000370 ec 7b be 3c 04 63 f5 3c 25 83 92 3d af fb 7f bd
       0.02325245 0.02995444 0.0715392 -0.062495884
000380 88 ea 0f bc 9f cd 9a bd c0 03 0e bc c2 bf 32 3d
       -0.008783944 -0.0755875 -0.008667886 0.043639906
000390 25 01 ab 3d 40 f7 d7 ba 0a 80 39 3d 0e 9c 3c 3d
       0.08349828 -0.0016476884 0.045288123 0.046047263
0003a0 f8 4e ce 3c 40 e1 7a bd c4 fb 8c bc 1c 32 ee 3c
       0.02518414 -0.06124997 -0.017209895 0.029076628
0003b0 0c aa ed 3c c2 be 38 bd e6 cf 22 bd 61 cf 84 bd
       0.029011749 -0.045103796 -0.03974905 -0.06484867
0003c0 12 e5 5f bd 13 63 30 bd bc c1 77 bd 7a 4c 1f 3d
       -0.054661818 -0.043063235 -0.060487494 0.038891293
0003d0 b8 f5 b0 bc 68 bd 57 bc e9 ef 9b bd aa 87 89 bd
       -0.021601543 -0.013167717 -0.076141186 -0.06715329
0003e0 1c 9c 0a 3d ed 86 0f bd 56 0e 0c bd d0 f4 bf 3c
       0.033840284 -0.035040785 -0.03419336 0.023432165
0003f0 2f dd aa bd 3e 45 2a bd 00 53 dd 3a 94 80 e5 3c
       -0.08342969 -0.04156994 0.0016885698 0.028015412

bias f4 [128]
000000 bb 00 69 3d 44 9b ae 3c 92 b8 84 3d 44 01 ea 3c
       0.056885462 0.02131427 0.064805165 0.028565057
000010 04 3b 71 3c 90 6f 72 bd 45 fc a5 bc e7 0c 05 bd
       0.014723543 -0.059188426 -0.020261893 -0.032483008
000020 ad a7 89 3c 7d 16 d3 3b 2c 9b b3 3c 14 1f d8 bc
       0.016803587 0.00644189 0.021924578 -0.026382007
000030 ce d0 b7 3c 15 d9 8d 3c f1 a3 62 3d 3c d3 d6 bb
       0.022438433 0.017315427 0.055332128 -0.006555943
000040 20 61 28 bc b0 b1 b2 3d de 3e b2 bb 92 20 77 3d
       -0.010277063 0.087252975 -0.0054396233 0.060333796
000050 bc 78 e7 3d 36 dc 54 3d 50 5b 85 bb 4f 4c d6 3d
       0.11302325 0.051967822 -0.004069723 0.104637735
000060 7a 4a ff 3c 25 42 c2 3d 41 99 0c bd 6c 89 93 3c
       0.031163443 0.09485272 -0.03432584 0.018009864
000070 70 34 ab bc c5 87 c2 bc 6a c3 47 3d 59 a3 51 3d
       -0.020899028 -0.02374638 0.048770346 0.05118117
000080 e0 ed ad 3b 31 c3 91 3d 75 00 b9 3c 1d 83 33 bc
       0.005307898 0.07117308 0.022583226 -0.010956553
000090 16 8c 5d 3d bd bf 92 3d ea a5 20 bd 3d 58 ad 3d
       0.054088674 0.071654774 -0.039220728 0.08464096
0000a0 af 11 51 bd c3 e3 92 bd 50 68 bc bd 80 d4 34 bb
       -0.051042255 -0.07172348 -0.091995835 -0.002759248
0000b0 e8 85 16 bd d9 1b 25 bc 67 d8 60 bd f4 cd 89 bc
       -0.036748797 -0.01007744 -0.054893877 -0.016821839
0000c0 33 a9 c2 bb d2 3d 39 3d 2f 37 a6 bd 11 76 4b bc
       -0.0059405803 0.045224972 -0.08115994 -0.012418286
0000d0 82 1b be 3d 8a 96 19 3d 9f a7 9f bd e5 b3 db bc
       0.092825904 0.03749708 -0.07795643 -0.026819179
0000e0 e3 4b 72 3c ab 5d ad bb cf 08 e5 3d 36 f9 b7 3d
       0.014788601 -0.005290707 0.11183321 0.0898308
0000f0 d9 4e 43 3d b7 93 a6 3d 4d 1e d8 3d 35 dc ed 3c
       0.047682617 0.08133643 0.105526544 0.029035667
000100 0d ae 75 bd 52 b8 bc bc cd fc d5 3b 26 01 69 bc
       -0.05998044 -0.02303711 0.0065303803 -0.014221465
000110 03 31 24 bd 41 02 aa 3d 81 3c 5c bc d8 94 a4 3d
       -0.040085804 0.08301211 -0.01344216 0.08036202
000120 97 d9 22 3d fb ae a9 bb 22 4e b1 bd a9 29 a6 3d
       0.03975829 -0.00517833 -0.08657481 0.08113415
000130 45 8e 83 3d e1 8f 42 3d 9b 88 d6 3d ea 76 84 3b
       0.0642362 0.047500495 0.10475274 0.004042496
000140 ff 09 ec 3d 2d 9e bf bb a3 24 bd 3d 3f de 39 bd
       0.11525344 -0.0058477134 0.092355035 -0.045377966
000150 53 ee 99 3c 84 2b 2c bd 88 58 4a bd ea 16 84 3d
       0.0187904 -0.042033687 -0.049400836 0.06449683
000160 2d 57 8b 3d 67 9a 3f 3c 98 f1 d2 3c 2f fa 18 3d
       0.06803737 0.011694527 0.025749967 0.03734797
000170 66 92 31 bd a4 fe fa 3c 82 ff bf bb e2 26 bf 3c
       -0.043352507 0.030639 -0.0058593163 0.02333397
000180 d4 9c e3 3c 87 cb 44 bb e4 c0 35 bd 54 2c c7 3d
       0.027784742 -0.0030028538 -0.044373408 0.09725252
000190 60 2a d0 3c 64 2a 5d 3d 32 e0 fb bc 55 a6 7c 3d
       0.025410831 0.053995505 -0.030746553 0.061682064
0001a0 9d 64 93 3d 47 d6 83 bd e2 42 95 bd 58 90 05 3e
       0.07196925 -0.064373545 -0.072881475 0.13043344
0001b0 4e 7c eb 3a 15 ad 8a bb 7e 40 68 bd 4b 51 75 bd
       0.0017966123 -0.004232059 -0.05670213 -0.05989198
0001c0 75 9a 3b 3d 51 c5 f0 bc 1b 0e 9a bc ce 76 0f 3c
       0.0458016 -0.029390963 -0.018805554 0.008756353
0001d0 19 33 9d bc 36 6c c1 bc 76 70 a2 3d b3 55 8e 3b
       -0.019189404 -0.02361117 0.079316065 0.0043437122
0001e0 40 93 12 3d f1 74 21 3d 49 6a b3 3d ed 09 ad bc
       0.03578496 0.039418165 0.08760507 -0.021122897
0001f0 8b f5 99 3d 33 70 82 3c 28 16 95 bd 80 24 66 bc
       0.07517537 0.015922641 -0.072796166 -0.014046788

weight f4 [1, 128]
000000 12 6f 87 3c f3 0a 8c 3d c3 ea 54 bd 80 84 5d bb
       0.016532455 0.06838026 -0.0519817 -0.00338009
000010 c3 25 dc 3d 03 b0 d1 bd 5e e3 90 bd 56 4a a3 3d
       0.1074939 -0.1023865 -0.07074617 0.07973163
000020 6a a7 ea 3d 29 fe 71 3d a6 5c 96 bd cf f0 d0 bd
       0.11457713 0.059080277 -0.0734189 -0.102021806
000030 f6 97 5e 3d 54 aa 8f 3d db d5 6f 3c fa 5e c0 bd
       0.05434414 0.070149094 0.014638389 -0.09393115
000040 91 90 ff 3d 9d de c8 bd 3b 9d 87 3d e4 f0 cb bd
       0.12478746 -0.09808085 0.06621786 -0.099580556
000050 af 3e b2 3d 1e 9f 7a 3d 6c 8b d4 bc 79 83 96 bd
       0.08703362 0.061186902 -0.025945388 -0.07349295
000060 16 0e c8 bd 4c 78 9c 3d 79 bc 88 bd b7 bd 86 3c
       -0.09768312 0.07640132 -0.06676573 0.016447885
000070 88 a6 3c bd e0 b3 15 be 55 09 24 bd 52 28 80 3d
       -0.046057254 -0.14619398 -0.040047962 0.062576905
000080 2e b0 a6 bd c8 f0 dd bd 14 d8 ca bd 2f cf 9f 3d
       -0.08139072 -0.10836941 -0.09904495 0.07803189
000090 80 65 42 3d d2 c0 02 bd 3d de f9 3d 51 19 03 3e
       0.04746008 -0.03192217 0.12200592 0.12802626
0000a0 bb 82 b7 bd dd 06 ec bc 5b c3 a5 bd c2 e6 05 bd
       -0.08960482 -0.028811866 -0.08093902 -0.03269077
0000b0 e0 43 99 3c 7c 13 e2 bd 59 91 a0 bd 32 6e 39 3d
       0.018709123 -0.110388726 -0.07840223 0.045271106
0000c0 a4 0e a5 bd 42 8f 9e 3d dd c5 02 3d 4d 55 8a 3d
       -0.08059433 0.07742168 0.03192698 0.06754551
0000d0 bf 71 05 be 33 1a 00 39 65 ef c7 bd b0 9c 3c bd
       -0.13031672 0.00012216791 -0.09762458 -0.046047866
0000e0 69 39 6a bd c4 f8 57 bd 0e 78 ae bd d8 2a c5 bd
       -0.057183657 -0.052727476 -0.08518992 -0.096273124
0000f0 1a e6 72 bd 6b a1 73 3b 9e 6c fb bd e2 cd 1d 3d
       -0.059301473 0.003717507 -0.122765765 0.038526423
000100 44 e0 97 3d 86 0b b6 3d 7d 59 0b be ad 20 b2 3c
       0.07415822 0.08888917 -0.13608356 0.021744097
000110 32 ac ae bd 7e 62 be bd 75 77 cc 3d 7c e1 93 3d
       -0.085289374 -0.0929613 0.09983722 0.07220742
000120 89 34 d1 bd 6f 1a c1 bd 9c b1 ac bd f0 50 db 3d
       -0.102150984 -0.0942887 -0.08432314 0.10708797
000130 6d a4 f9 3d 38 b5 b0 bd d1 1b cb 3d b0 d4 8d 3d
       0.12189565 -0.08628315 0.09917415 0.069253325
000140 c1 4c e2 3d 34 ca fc bd ac 9d f7 bd b6 2c be 3d
       0.11049796 -0.12343255 -0.120906204 0.09285872
000150 5c b5 9f 3d 8d c8 c5 bd e8 c9 7d 3d b0 a1 8a bc
       0.077982634 -0.09657393 0.06196013 -0.016922802
000160 f8 d1 e6 3c fc 75 47 bd f1 58 6a 3d 18 5f b3 bd
       0.028176293 -0.048696503 0.057213727 -0.08758372
000170 fb 6d a6 bd 28 19 f1 bc b6 71 bd 3d fb ba e4 3d
       -0.08126446 -0.02943094 0.09250204 0.11168476
000180 ef e6 07 3e 51 98 cc bd 5d 5b 80 bc 87 7d b1 bd
       0.13271688 -0.099899895 -0.015668565 -0.086665206
000190 10 e4 48 bc 9b 7b 9d 3d 0e 21 91 3d 05 96 d6 bc
       -0.012261406 0.076895915 0.07086383 -0.026194582
0001a0 f4 5a bf 3d 55 c3 ab 3d 5f a4 96 3d f3 a9 c7 bd
       0.0934352 0.08386866 0.0735557 -0.09749212
0001b0 d4 af 81 bd ea 62 00 3e 86 21 9b 3d eb 41 78 bd
       -0.06332365 0.12537733 0.075747535 -0.06060974
0001c0 98 49 8c bd d0 ab c2 bd 53 ff db 3d bb b2 e7 3d
       -0.068499744 -0.09505427 0.107420586 0.11313387
0001d0 c5 e4 08 3e e6 09 fa bd 35 1f 1d 3d 45 f2 35 3d
       0.13368519 -0.12208919 0.03835984 0.0444205
0001e0 1c 9d a8 bc 0c a7 be 3d 58 ba ec 3d 1d cb 8d 3d
       -0.020582728 0.093092054 0.1155898 0.069235064
0001f0 56 4c a8 bd 12 d7 6c bd ae c3 ae 3d dc 68 c1 bc
       -0.08217685 -0.057822295 0.08533417 -0.023609571
