save/stainless_steel_milling_energy_model.pt (torch, 73727 bytes, 5 tensors)

weight f4 [128, 5]
00000000: 4bb8 dcbe afea 3b3e 66b4 623e bb5f 7fbe
00000010: a535 ccbd 8560 513d 1259 cc3e 8312 ddbe
00000020: 7c75 33be 9d0f ab3e 4d1f 72be 1095 0abd
00000030: cd05 3e3e c5e8 d6be faf0 a0be bdb5 da3e
00000040: c987 ac3e e354 bb3e 29e1 5e3e 36e2 3f3e
00000050: 3ad5 af3e 8c65 53be 2984 eb3e 4ec1 38be
00000060: 4544 cabe beef fa3d 1bb5 2a3e a155 ca3e
00000070: 9fe9 c2be 24ae 57bd a10d e63d d2a6 6a3d
00000080: 8fb0 bebe 85f3 aa3e f17a 76be 920a dabe
00000090: 464d cabe 7b0c d43e 75bf dabd 3c23 ccbe
000000a0: f8cf acbe 1204 eb3d 5511 36be 2697 053d
000000b0: bbeb bb3e b159 d03d dc47 743e 5ad1 bebe
000000c0: af5a cfbe 0b55 d3bd 7a2c c8be 39a6 b33d
000000d0: 6799 293e e1b5 073d d850 e23d 76ef 73be
000000e0: 0020 d3be da2d 6c3d 33c4 d4be cd76 d03e
000000f0: 8038 d33b 6d7c 9a3e e3a6 8cbe 87b6 b4bd
00000100: 687c 8d3e 38b9 4f3e d306 b83e 4363 da3d
00000110: 49da 1d3e f8b8 d1be 0083 1b3d c3b4 5c3e
00000120: 48ff ca3e d082 d33e 92f7 a6be 7305 91be
00000130: 8e0f 453e 9a24 bcbd 9fec b33e e2ad 98be
00000140: 3842 e93e 540e cbbd c747 0c3e 2b1f 833e
00000150: d95e 903e c910 db3e f5cf cebe adc7 81be
00000160: 2fbc fabd 98fc 6b3e b54e 843e 9462 2e3e
00000170: c7ce 01be df68 8bbe ae6d 5abe bbec 343e
00000180: 5841 b1be 402f aabe baef 3cbe 4e96 eb3d
00000190: 2070 2fbe be62 bcbe aa34 c6bd 38c7 c1bd
000001a0: 2a28 b3be b25d cd3e 8091 943e 5680 13be
000001b0: cca8 aabe 653a 9e3c 406b 78be 0fa7 97bd
000001c0: 5154 4dbd 0f92 a53e 42ec b83e 2043 afbd
000001d0: 29c0 6dbc e318 d63d 2a7a 083e 2715 ab3e
000001e0: 4185 92ba bf89 d5be fdbc c83e 89a4 933e
000001f0: 2a8c 18be c57e 00be f144 d1bd 921f 7fbe
00000200: 025a ad3c 8885 1cbe 75b0 87bd ebc2 de3e
00000210: 18cf 1d3e 4750 f2be 90b4 e13e a0a5 523e
00000220: e038 b8be 6038 bf3e e9e0 debe e02a 5a3d
00000230: ac68 af3a 3bae 95be 75dd b83e e0c9 d33e
00000240: f956 c6be 918a b93e 4959 d73e f2e1 c83d
00000250: c436 85be 81fe f2be b4f5 cf3e 033b a53e
00000260: 2635 23be 7228 e93e 193e febd 2370 41be
00000270: 1764 9f3d 5a00 98be 01cc 8a3e 0a9d 23be
00000280: c859 913e 4070 433d b0b5 283e 2442 dabe
00000290: 1078 453e f931 9b3e 38da a6be 888e d8be
000002a0: 95da 433e 25c2 7f3e 875a 383e 624f 39be
000002b0: 297c 48be ef02 f1be 29d8 eabe 3c6a 803e
000002c0: 62cd ca3e 36fb efbd 3c69 1fbd f7d1 5d3e
000002d0: 3690 813e 484a 70be f630 e3be bf52 943e
000002e0: e01f 3b3e 5507 84be 7868 82be 9ec6 dcbe
000002f0: 8032 bbbe 15a2 c3bd 2d04 97be 7540 c1be
00000300: 8368 94be c3d4 783e edc1 5abe 37ac 923e
00000310: a546 bb3e 5307 c83e 1e3a 60be 386b 893e
00000320: b453 a63e 0ad9 02be 5614 45bc acbd 1f3e
00000330: 17bc 93be 4e98 bb3e 5f6a 0f3e 579b 10be
00000340: b38a a73e 24b9 353d f84e 373c d6a6 c7be
00000350: d189 003e 41fa 453e 1a98 803d fea9 0a3e
00000360: 327a bfbe de3f e9be a207 edbe 35c0 58be
00000370: 8617 7bbe 9e34 643e 2173 dc3e bfef b13e
00000380: 0d5d 8bbe 8d5a b4bb 4d6d a93e 3360 0abe
00000390: 00e3 0cbe d4af 2f3e 49c0 c4be 4da4 27be
000003a0: 08ae ab3e 92f1 163e 20da 9ebe 795b 313e
000003b0: 2084 55bd e490 81be a515 0d3e 5825 4fbe
000003c0: 3b77 a23c ea25 093e 72a7 45be 29dc c83d
000003d0: 85da d33e 8a0e b73d 27e2 99bd 9458 dbbd
000003e0: 736d a3bc 048d 15be fa01 553e dbb0 54be
000003f0: ec93 8cbe 7ceb 21be 5e37 9e3e e4e6 843e
-0.43109354 0.18351243 0.22139129 -0.24938862 -0.099711694 0.05111744 0.39911705 -0.43178186
-0.17525285 0.3341035 -0.23644753 -0.033833563 0.185569 -0.41974464 -0.3143385 0.4271678
0.33697346 0.365882 0.2176558 0.18738636 0.34342366 -0.20644206 0.45999268 -0.1804249
-0.3950521 0.122527584 0.16670649 0.39518455 -0.38068864 -0.052656308 0.11233068 0.057288
-0.3724408 0.33388916 -0.24070336 -0.4258619 -0.3951208 0.41415772 -0.10681049 -0.39870632
-0.33752418 0.11475386 -0.17780049 0.03261485 0.36703286 0.10173357 0.23855537 -0.37269098
-0.40498874 -0.10318955 -0.39096433 0.08771939 0.16562425 0.033132438 0.11050576 -0.23821816
-0.41235352 0.057660915 -0.41555938 0.40715638 0.0064459443 0.30173054 -0.27471074 -0.08823877
0.27633977 0.20285499 0.35942706 0.10663464 0.154153 -0.40961432 0.03796673 0.2155333
0.3964789 0.4131074 -0.32610756 -0.2832447 0.19244215 -0.09186669 0.35141465 -0.29820162
0.45558333 -0.09914842 0.13699256 0.25609717 0.28197363 0.42786244 -0.40393034 -0.25347653
-0.122429244 0.23045576 0.258413 0.17029792 -0.12676536 -0.27228448 -0.21330902 0.1766843
-0.34620166 -0.33239174 -0.18450823 0.11503278 -0.17132616 -0.36794084 -0.096780136 -0.09461826
-0.3499158 0.40110546 0.29017258 -0.14404425 -0.33331907 0.019314954 -0.24259663 -0.07404911
-0.05012924 0.32337996 0.3611775 -0.08557725 -0.014511147 0.104539655 0.13327852 0.33414575
-0.0011178629 -0.41706654 0.39206687 0.28836468 -0.14897218 -0.12548359 -0.10218228 -0.24914387
0.021161083 -0.15285313 -0.066254534 0.43508086 0.15411031 -0.47326872 0.4408307 0.20570993
-0.35980892 0.37347698 -0.43530968 0.053263545 0.0013382635 -0.2923449 0.36106458 0.41364956
-0.3873823 0.3623853 0.42060307 0.09808721 -0.26018345 -0.47459796 0.40617144 0.32271585
-0.15938243 0.4553867 -0.12414188 -0.18890433 0.077827625 -0.29687768 0.27108768 -0.15977874
0.2838881 0.04771447 0.16475558 -0.42628586 0.19284081 0.30311564 -0.32588363 -0.42296243
0.19126351 0.24976404 0.18003283 -0.18096688 -0.19578613 -0.4707255 -0.45868042 0.2508105
0.3960982 -0.117178366 -0.03891872 0.21662126 0.25305337 -0.23465836 -0.44373292 0.2896938
0.18273878 -0.25786844 -0.25470328 -0.43120283 -0.36561966 -0.09552399 -0.29495373 -0.3774449
-0.28985986 0.24299912 -0.2136304 0.28647014 0.36577335 0.39068088 -0.2189717 0.26839614
0.32485735 -0.12778106 -0.012028774 0.15599698 -0.2885444 0.36639637 0.14005421 -0.14121757
0.32723007 0.044366017 0.011188261 -0.38994473 0.12552573 0.19333746 0.06279011 0.1354141
-0.37397915 -0.4555654 -0.46294886 -0.21167071 -0.24520692 0.22285697 0.43056586 0.34753224
-0.2721943 -0.0055039586 0.33091202 -0.1351326 -0.13758469 0.17156917 -0.38427952 -0.1637127
0.33531213 0.1474059 -0.3102579 0.1732005 -0.052127957 -0.25305855 0.13777788 -0.2022909
0.019832244 0.1339337 -0.19302157 0.09807617 0.41377655 0.0893832 -0.07513838 -0.10710254
-0.01994965 -0.14604574 0.20801535 -0.2077059 -0.27456605 -0.15812486 0.30901617 0.25957406

bias f4 [128]
00000000: 0839 1abd 20ec bc3e 8ecf cfbe c903 aebe
00000010: 45b6 20bd 43eb 1fbe 1db8 9dbe 189b 75be
00000020: 3d8e bf3e 1750 9a3e f6c1 96be 6e17 f3bd
00000030: 7a5c bb3d 9f80 1b3d 65bf aebe d83c 8fbe
00000040: bff1 a7be af2e febd ce97 f53d 8724 adbe
00000050: b62a 823e 63e5 a13e 3738 d53e a6da 73bd
00000060: 34b9 b33e 6b6a 32be 6bd0 3c3e ff23 56be
00000070: 6997 cb3e 73aa f5bd 6aa6 04be 5080 403e
00000080: 7d64 dcbe fb59 143d c630 953e 36f1 6c3e
00000090: 588b 6abe b782 d4be a9a3 c8bc 0455 d83e
000000a0: b106 d23e bfab 60be c5a1 c9be e5ed 0ebe
000000b0: 09ab bdbc 9e36 45be 8f9e 7abe 2c40 cd3e
000000c0: 45bf 1cbe 33aa 89be fb5a b43e 8038 5abe
000000d0: 7147 8dbd ce8f 86be 587a 8f3e b93c 06be
000000e0: 7d2c bb3e 479d a3be 8c72 d63e 224c 45be
000000f0: 73b3 39be c0d7 b73e 44ae aa3d b9ad c83e
00000100: b91f bebd b554 5cbe b6e8 da3e 47d7 a03e
00000110: 38e4 c03d cdcf eb3e fe5d 6e3e a369 c33e
00000120: 137f 693e 691b f4bd 28b1 823e c708 a0be
00000130: ec8c 4cbd 7ec5 633e fb0f 1f3e 8170 bf3d
00000140: e9fc ad3d d4da 643c 806d 77be 77e9 83be
00000150: 8522 a33b bf8b c03e 7bb6 a7bc fd50 bd3e
00000160: 1934 dfbe a877 99be 0b84 11bd 5812 87be
00000170: 8875 1e3e dd5d 9ebd 8cc5 e6bd 4295 503e
00000180: 35ca a23e 9f9a 15be 33bc aebe 4e0e 3d3d
00000190: afdc b5be be10 6a3d 3e6c a0be 4ffa 91be
000001a0: 388d 8e3e 9cbd 4f3e b85c 50be 1eac 2ebe
000001b0: 077e 46bd 0543 c53e adce 96be b04a 89be
000001c0: 9852 063d 30f9 8dbe 4187 c63e 4bd0 ec3e
000001d0: a05a cdbe 7450 6fbe 3b52 f63d c5b0 513e
000001e0: edf9 d93d 874c a23d b2a7 c33e aefe b93e
000001f0: 3b8e 4cbc 7dda 9b3e e045 71be 909e 7a3e
-0.037652045 0.368989 -0.4058804 -0.33987263 -0.039236326 -0.15617089 -0.3080453 -0.23984945
0.37413207 0.3013923 -0.29444855 -0.11869703 0.09148498 0.03796446 -0.34130397 -0.27976108
-0.32801625 -0.12411248 0.11991845 -0.3381693 0.2542321 0.3162032 0.4164445 -0.05953469
0.35102236 -0.17423408 0.1843888 -0.20912169 0.39763954 -0.11995401 -0.12954107 0.18798947
-0.43045416 0.036218625 0.29138774 0.2313889 -0.22904718 -0.41505978 -0.024492102 0.42252362
0.4102073 -0.21940516 -0.39381233 -0.13957937 -0.023152845 -0.19259116 -0.24474548 0.40088022
-0.15307339 -0.26887664 0.35225663 -0.21310616 -0.06898392 -0.2628159 0.28023028 -0.13109101
0.3655738 -0.3195593 0.41884267 -0.19267324 -0.1813486 0.35906792 0.0833402 0.3919504
-0.09283394 -0.21516688 0.4275567 0.31414244 0.09418529 0.46056977 0.23278043 0.38166532
0.22802381 -0.119192906 0.25525784 -0.31256697 -0.04993908 0.22243306 0.1553344 0.0934763
0.084955044 0.013968188 -0.24162865 -0.25764057 0.0049784803 0.37606618 -0.020472756 0.36975852
-0.43594435 -0.29974103 -0.035526317 -0.26381183 0.15474522 -0.07732747 -0.11268148 0.20369437
0.31794897 -0.14609765 -0.3412796 0.04615622 -0.3551993 0.057144873 -0.31332582 -0.28511283
0.27842116 0.20287174 -0.2034787 -0.17057845 -0.048460033 0.38527694 -0.29454556 -0.26814795
0.03279361 -0.27729177 0.38775066 0.46252665 -0.40108204 -0.23370534 0.12027403 0.20477588
0.10643373 0.07924753 0.3821388 0.36327118 -0.012485082 0.3044013 -0.23561811 0.2447455

weight f4 [128, 128]
00000000: 126b 043d ead3 e73c a26b f93c 42cf ee3c
00000010: 8cbe a33c 9209 e3bd 154a 463d 1951 33bd
00000020: 4c07 b13d 4e5e 14bd 1ae8 06bd 8e13 c83c
00000030: 46bb 663d 2b96 a5bd 759c a9bd 5d31 c53d
00000040: 5088 35bd 8dd8 f2bd aa10 8abd 3fe2 3c3d
00000050: 6062 53bd d6c8 dbbd 7a79 73bc 5921 1c3d
00000060: 5cd6 2dbd 75c4 ec3c ff34 4dbd 23bc 053d
00000070: 78a9 c7bc 7a7b 08bc 5fbc d3bd b75f e83d
00000080: a4f4 f8bc 7b56 32bd afc9 b13d 347b 2ebd
00000090: 02f9 55bd 5fab f73c 66b0 193d e39d 023d
000000a0: f0fb 4d3d 82e8 9cbc 61e0 153d e66e a03d
000000b0: 15c5 c0bd 5f3c e4bd 9096 34bb bee4 4bbb
000000c0: 0771 14bc a7b5 f23c 3025 19bd 0ff2 a23d
000000d0: 4e41 95bd 32a7 8bbd 1b4a cd3d b7ed b13d
000000e0: d867 b5b7 737c 833d b276 06bd 337b 02bd
000000f0: 8eba cb3b d9d9 113c a1af bebd d62a 3a3d
00000100: 9003 86bd 4477 473d cf2f df3d 63eb 583d
00000110: 4ff1 81bd 7edc e4bc 3d9c 12bd 97d9 b0bb
00000120: 31fa 183d 36e8 05bd 558d 73bd e8f1 bebd
00000130: 6009 5fbc cecd 1bbc 72e5 9c3d 0dc2 2f3d
00000140: f6ac 4d3d 80d5 703d 4d51 63bc fe94 163d
00000150: 950e 913c 7342 c93d f16b 7f3d ec1a cdbd
00000160: 7355 89bd f56a d33d 2ff3 abbc 39e7 7dbd
00000170: 67ca 90bc 56d7 9f3c 19d2 8ebd ec3d 24bd
00000180: d0db bd3c 7266 fdba 94da 3b3d 723f 3b3d
00000190: d022 44bd 5859 743d 1974 d6bc 79b7 af3d
000001a0: 6bce 0ebd 0faf de3d 036c a13d bc59 f3bd
000001b0: 6a62 a3bd bd2a b53b fdcd 0b3d 6d60 a6bd
000001c0: ba87 143d c8c5 cf3d bbda 883d d236 c5bd
000001d0: 7ca1 a7bd ee99 073c 50e6 36bc 58bc 253d
000001e0: 0d4b e13d 5e66 da3d 953c 773d c653 5c3d
000001f0: 0b2e 843c ffed a53d 7dbd bd3c 9acb d23d
00000200: f30b 50bc 6e66 58bc 7159 9b3d f822 a53b
00000210: 40b5 d1bd 09f7 cebd 04f5 873d c84b 973d
00000220: 2d23 f23b 19a9 65bd 6f01 d33d f1c7 2dbd
00000230: 5a1b 4a3d e9e2 23bd 228e c3bd b2c4 9cbc
00000240: e97b 80bd 03a6 5c3d d6ea 413d abf4 bb39
00000250: 03df aa3d 8e37 59ba 552a b7bd cecf cb3c
00000260: 8726 25bd b539 703d 1f56 9cbd f2bb 233b
00000270: a061 923c 3122 8e3a 161e b0bc 25fc cf3d
00000280: a69e 0f3d 2151 29bd d962 c03d e0f5 783a
00000290: 78b3 8ebd a38d 2bbd 025c 8a3d 3fd5 723d
000002a0: 4c75 ff3c 3ed5 bfbd aa7e 43bd 41d0 8f3d
000002b0: 5873 f6bc edd4 5b3d 4a73 f1bc 843e a83d
000002c0: 83ab 433c 23d1 6dbb 9d35 873d 6000 77bd
000002d0: 57c5 883d fe30 a43d 19c2 cd3a 2d34 76bd
000002e0: 56bb b73c b053 0e3d 9217 093d 4e6b 5b3d
000002f0: 5c30 c03c d979 193d 0555 603d ddd5 9abd
00000300: 0429 4dbd 1139 8abd b5bd e83c 5082 b5bd
00000310: b042 7f3d 1b52 393b a80d cd3d b3a6 463d
00000320: 104b 3c3d 7198 123d 76ec 6cbc dcb7 fbbc
00000330: e466 8abb 6bc2 ac3c 3e65 ba3c 318d 183c
00000340: 2433 0f3d b097 d83d 8d43 18bd 3a07 013d
00000350: dcbf 98bd 26af 24bc 877e 833c 058e c03c
00000360: 01cf b53d 2e02 3a3d b4d6 57bc 228c 88bd
00000370: 15e6 373d 44f2 40bd 8d60 59bd 8015 953c
00000380: 9c3c c03d ac36 913d 579d c9bd 6bb0 8cbd
00000390: 34e4 a4bd 08ca ccbc 0a1f 48bc 6450 c5bc
000003a0: ebbc 8b3d 32b1 543d 1aea 44bd 6712 573d
000003b0: 4506 243d afa5 c23c f581 103d 82d9 e33b
000003c0: d300 80bc 77f8 2cbd 81a1 303d 28d3 11bc
000003d0: 1158 f43c 5436 833d f072 f53c 0ef0 a43c
000003e0: 2810 813d 0fc0 613d 18ce d53d ed10 52bd
000003f0: 05cd a53d aec1 253c a3c5 81bd f6d0 303d
0.032328673 0.02829929 0.030446831 0.029151563 0.01998832 -0.1108581 0.048410494 -0.043778513
0.0864397 -0.03622275 -0.032936193 0.024423387 0.05633094 -0.08085283 -0.08281795 0.09628556
-0.04431945 -0.1185771 -0.0674146 0.046114203 -0.05160749 -0.10731666 -0.014860505 0.03811774
-0.042440757 0.028902272 -0.05009937 0.032650124 -0.024372801 -0.00833022 -0.10338663 0.11346381
-0.030390091 -0.043539505 0.08681046 -0.042597964 -0.052239425 0.030233083 0.037521742 0.031888854
0.050289094 -0.019153837 0.036590938 0.07833652 -0.094125904 -0.11144327 -0.0027555563 -0.0031111683
-0.009060151 0.029627634 -0.03738898 0.07956325 -0.072878465 -0.06818999 0.100239 0.08687919
-2.1625237e-05 0.06420221 -0.03282804 -0.031855773 0.0062173074 0.008902037 -0.09310842 0.045451008
-0.06543648 0.048697725 0.10897791 0.052958857 -0.06344854 -0.02793717 -0.03579353 -0.0053970325
0.037347976 -0.032692157 -0.059460957 -0.09323484 -0.013613075 -0.009509517 0.07660951 0.04290967
0.050213777 0.05879736 -0.013874364 0.036763184 0.017707149 0.09827127 0.0623588 -0.100149006
-0.06705751 0.10323135 -0.020989982 -0.06198809 -0.017674638 0.01951186 -0.06973667 -0.040098116
0.023176104 -0.0019332899 0.04586275 0.045714803 -0.047884762 0.059655517 -0.026178407 0.085799165
-0.034864824 0.108732335 0.0788193 -0.1188235 -0.07977755 0.0055287764 0.034131993 -0.081238605
0.03626225 0.10145146 0.066823445 -0.09629597 -0.081850976 0.008276446 -0.011163309 0.04046282
0.11000643 0.10664056 0.06036051 0.05379083 0.016135236 0.08102035 0.023161644 0.1029274
-0.012698161 -0.013208015 0.07585419 0.005039569 -0.10239649 -0.10105712 0.0663853 0.07387501
0.007389447 -0.056069467 0.10303008 -0.042427007 0.04934249 -0.04001132 -0.09548594 -0.01913676
-0.06273634 0.05386926 0.047343098 0.0003584971 0.08343317 -0.00082861714 -0.08943621 0.024879362
-0.040319946 0.058648784 -0.07633614 0.002498385 0.017868817 0.001084393 -0.021498721 0.10155515
0.03506341 -0.041337136 0.09393854 0.00094970874 -0.06967825 -0.041883122 0.0675583 0.0592854
0.031183861 -0.093668446 -0.04772822 0.07022143 -0.030084297 0.05366986 -0.02947392 0.08215049
0.011942747 -0.0036287985 0.06602023 -0.060303092 0.066782646 0.08017157 0.0015698104 -0.060108352
0.022428196 0.03474778 0.033469744 0.05356913 0.02346056 0.03746972 0.05476858 -0.075603224
-0.050087944 -0.06749166 0.028410772 -0.08862746 0.062319458 0.0028277698 0.1001237 0.04849882
0.045970023 0.03578991 -0.014460674 -0.03072732 -0.0042236913 0.0210888 0.022753354 0.009311006
0.03496088 0.10575807 -0.037173796 0.031501032 -0.07458469 -0.010051524 0.016051544 0.02350522
0.088773735 0.045412235 -0.013173748 -0.06667353 0.044897158 -0.047106043 -0.053070594 0.018198729
0.0938656 0.07090506 -0.09844463 -0.068695866 -0.08051339 -0.02499868 -0.012214432 -0.024086185
0.068231426 0.0519268 -0.04807482 0.052507784 0.04004504 0.023760645 0.035280187 0.006953419
-0.015625393 -0.042229142 0.043122772 -0.008900441 0.02982715 0.06406847 0.029962033 0.020133998
0.0630191 0.055114802 0.104397 -0.051285673 0.08095745 0.010116978 -0.06336524 0.04316803

bias f4 [128]
00000000: 85bf b03d 3af3 9c3d 6ea2 5d3d 2123 babd
00000010: 13e3 d8bc d12a adbd 1e1b cd3c 6c71 02bb
00000020: 7bbd a1bd e4ab 4e3c 92b0 5e3d ec8a 9e3c
00000030: 11fb 813d ccfa debc 3bf2 ad3c 3a15 0d3d
00000040: 3a55 953d 4368 3d3d 1178 2e3d deb3 a8bd
00000050: eff7 5fbd 806b a33d ea90 8dbd 3805 77bc
00000060: 3e6d 8cbd 8488 03bd d075 743d d565 9ebd
00000070: 3115 553d 361e 623d cfe5 b73d 3414 76bd
00000080: cb9c 1bbd 78f6 89bd d122 b7bd c7f0 613b
00000090: 9ecc 98bd 94a8 15bd c473 243d b058 8abb
000000a0: 9cd1 e03d 005f 763c ef6d 753d e9fe 603d
000000b0: 11fa 803c 4145 f8bc a9e0 053d 0c98 bdbb
000000c0: d4cb 8e3c 35ab 8a3c 6ce9 a5bd 75c8 f33c
000000d0: eb12 783d 3b32 38bd f715 9e3d 9a9e 47bc
000000e0: 7dc2 743c 98fe 2fbd 1e5b 5bbd 258d d43d
000000f0: 7c99 963c 1fb5 4dbd c4ce a5ba 5bc0 8ebd
00000100: 3443 a5bd 0093 e83c d67a c53d 8406 823d
00000110: 6704 c33b 6f01 92bd f782 483d 74a0 763c
00000120: 8758 ba3d f75a 203d 34ee 9e3c 8f8f 0e3d
00000130: 70ac a63d 5df8 423d ed46 3abc 4ad4 523d
00000140: 3f7c 88bd a49b 1d3d fa76 163d 2afe 8dbc
00000150: 3ee2 dbbc 9b4a 9b3d ea2e 8d3d 0613 e83c
00000160: 4566 3dbd 07c3 aabc 0a0b 9d3a 2a2f 533d
00000170: 2590 e7bc ce41 0b3d f234 a7bd 9b20 7abc
00000180: fc4d 1f3d f79e 473d bdcc 3d3d e4b3 31bd
00000190: 22ff 0ebd 9254 2ebd dbbb 2fbc 6229 8bbb
000001a0: 18e9 a63d 73cc 80bd 8525 593d 9fd2 5e3c
000001b0: 0b34 3f3c 23cc 78bc 2558 d1bb db06 c5bc
000001c0: 8fc4 07bd 85fd 333d 93d6 54bc fc38 673c
000001d0: f6ba 033c e88d 2b3d b418 45bd 7037 893d
000001e0: 2a9d 5d3c 4a1d 913c e665 75bd 4293 a6bc
000001f0: b7ba 26bd b026 583d 6072 77bb 66bd 7d3d
0.086302795 0.07663579 0.054109983 -0.090887316 -0.026475465 -0.08455432 0.025037345 -0.001990403
-0.07897469 0.012614224 0.05436761 0.019353352 0.06346715 -0.027219199 0.021233669 0.03444407
0.07291646 0.04624201 0.042594973 -0.08237432 -0.054679807 0.079794884 -0.06912406 -0.015076928
-0.06856774 -0.032112613 0.059682667 -0.07734267 0.052022163 0.055204593 0.089793794 -0.06007786
-0.037991326 -0.06736463 -0.089421876 0.003447579 -0.07460903 -0.03653772 0.040149465 -0.004221998
0.1097748 0.015037298 0.059919294 0.0549306 0.015744241 -0.03030646 0.032684956 -0.0057859477
0.017431177 0.016927341 -0.08101162 0.029758671 0.060564917 -0.04496978 0.07719033 -0.01218381
0.014938948 -0.04296741 -0.053553693 0.10378484 0.018383734 -0.05022156 -0.0012650122 -0.06970283
-0.080694586 0.028390408 0.0964257 0.06348899 0.0059514525 -0.0712918 0.048953023 0.015052903
0.090989165 0.03914925 0.019400693 0.034804877 0.081383586 0.04760014 -0.011369449 0.051471986
-0.06664323 0.03847851 0.03673456 -0.017333109 -0.02684128 0.07582589 0.06893714 0.028329384
-0.04624011 -0.02084495 0.0011981439 0.05155865 -0.028266976 0.033998303 -0.081643954 -0.015266563
0.03889273 0.048735585 0.04633783 -0.043384448 -0.034911282 -0.04256112 -0.010725941 -0.0042468766
0.08149928 -0.062889956 0.053014297 0.013600021 0.011670123 -0.015185389 -0.0063886815 -0.02405112
-0.033146437 0.043942947 -0.012990612 0.014112707 0.00804018 0.04188338 -0.04811926 0.06700027
0.01352624 0.017714161 -0.05991163 -0.02033389 -0.04070541 0.05277127 -0.0037757382 0.061948203

weight f4 [1, 128]
00000000: 5a79 003d 5dfc 883d 3146 873d 114e 5a3c
00000010: b18e c43d a192 acbd fe1d 87bd 1b50 2fbd
00000020: 0b2e f4bc 6970 98bd 6dad abbd 69e7 3bbd
00000030: 3337 63bd 5bbc 1c3d e8b3 ad3c da56 d1bc
00000040: 6766 c63d 8bc6 4e3c 4876 8bbc 8ea5 f7bc
00000050: d547 893d 81c0 83bc 730c 98bd a203 533d
00000060: 863d 7cbd 6972 6e3d 9d94 953d 6ffa 943d
00000070: aebd a0bd 10fe bebc df3c ae3d 1059 a2bd
00000080: 5f3c 3d3d 1c6b b83c b96a 253d 4ea9 8dbd
00000090: 583c 4e3d 904a 8dbd 100e 013d aa18 373d
000000a0: 98f1 b83c 89bc 65bd f15e 66bd e997 f73c
000000b0: faaa cabd a817 e53d 7042 01bd efcf c4bd
000000c0: 7d60 2cbd ee42 31bd 55f4 573d 4f6b 7a3d
000000d0: a2cb 84bd a6e4 bb3d f181 c03d 93b0 223d
000000e0: 14b8 983d 81e8 f53c 5011 e43c e52f b03d
000000f0: d954 92bd ef3a df3d 0c8e 0c3d c992 c13d
00000100: a6cb 843d 2721 aebd b8cd f53c f99e 1c3d
00000110: 68b4 60bd 67e9 8dbd f378 4dbd fc4a dd3d
00000120: 0e6d af3d eb32 2e3c bfab babd 8726 eebc
00000130: 9779 b13c ec98 91bd 3bc4 0cbd e890 883d
00000140: d8a7 133d 4b67 693d 8c0a 05bd fd5f 98bd
00000150: b2a5 c83d 5b75 a6bc cb44 81bd 501e 643d
00000160: ef3d 053d f1c9 b2bd ddb2 dc3d ed25 683d
00000170: a186 02bd 5e07 523d cf15 96bc 8f3b a53d
00000180: cad5 213d 193b 88bd 0c1c 313d 4499 553d
00000190: 5365 bdbd 1d7b 14bd 4869 4b3d 76c7 febc
000001a0: 21f5 95bd 8ea4 373d 1fc2 91bd 700a 3f3d
000001b0: 4081 f0bc 183a c13c 51b9 843d 6a82 933d
000001c0: 8ff3 2abd da89 663d 2cf3 d4bd 837c 68bd
000001d0: 0908 45bd 6f90 d2bd 5d98 d73d f640 94bc
000001e0: 40c0 353d 5f5b d63d 9020 86bd cfab 383d
000001f0: 0946 103c 1bfc 4b3d 3ab2 493d b0d3 363d
0.03136573 0.066887595 0.06605185 0.013324277 0.09597529 -0.08426405 -0.065975174 -0.042801004
-0.029807111 -0.074433155 -0.08382688 -0.045874987 -0.055472564 0.038265567 0.02120395 -0.02555411
0.096875004 0.0126205785 -0.017024174 -0.03023031 0.06703154 -0.016083004 -0.074242495 0.051517136
-0.06158211 0.05821458 0.07303736 0.07274329 -0.078486785 -0.023314506 0.08507704 -0.079271436
0.046200152 0.022512011 0.04038498 -0.06917058 0.050350517 -0.06898987 0.03150755 0.044701256
0.022576138 -0.056088004 -0.056242887 0.030223804 -0.098958924 0.11186153 -0.0315575 -0.09609973
-0.042084206 -0.04327672 0.052723248 0.061137494 -0.064841524 0.091744706 0.09399784 0.039719176
0.07456985 0.030018093 0.027840286 0.08602885 -0.0714509 0.108999126 0.034315154 0.09451825
0.06484155 -0.08502417 0.03000532 0.038237546 -0.05485955 -0.069292836 -0.050164174 0.10805318
0.085657224 0.010632257 -0.09114789 -0.029071106 0.021664424 -0.07109246 -0.034366827 0.06668264
0.03604874 0.056983273 -0.03248076 -0.07440183 0.09797229 -0.020319631 -0.06311949 0.05569297
0.032529768 -0.087299235 0.10776303 0.056676794 -0.031866673 0.051276557 -0.018320946 0.080680005
0.039510526 -0.06651897 0.04323964 0.05214812 -0.09247842 -0.036250222 0.04966095 -0.03110097
-0.07322145 0.044834666 -0.07117104 0.046640813 -0.029358506 0.023587272 0.06480659 0.07202609
-0.04173618 0.05628381 -0.10397944 -0.05675937 -0.048103366 -0.10281455 0.10527108 -0.018097382
0.044372797 0.104666464 -0.065491796 0.045085724 0.00880576 0.049800973 0.049242236 0.044635475
