save/鍩轰簬Vericut鐨勬満搴婅兘鑰楀缓妯′笌浠跨湡.pt (torch, 73271 bytes, 5 tensors)

weight f4 [128, 4]
000000 ef 38 ca 3e a9 b0 9f be 54 41 a8 be a0 8b ec be
       0.39496562 -0.31189469 -0.3286234 -0.46200275
000010 7c f8 54 3e f4 78 ee bd 53 fd 33 3e d3 7f e4 3e
       0.20797914 -0.11644164 0.17577104 0.44628772
000020 ee 5c eb 3d 5b 61 93 3e cf 4b 8f 3e 22 9f 1a 3d
       0.11492334 0.28785214 0.27987525 0.037749417
000030 73 b9 d8 3e c4 1e 88 be 09 57 c0 3d ca 6e a8 3d
       0.42328987 -0.26585972 0.09391601 0.08224256
000040 71 c1 bf 3e 02 86 8d bd 25 f8 4a be d1 39 0d be
       0.37452272 -0.069103256 -0.19821222 -0.13791586
000050 d6 72 ed 3e ad d4 9c bd 9f 3a 8b be d0 31 5d bd
       0.46376675 -0.07657752 -0.27193162 -0.054002583
000060 22 a8 7e be 5b 5a 84 3e 27 c3 f0 be 03 d8 e4 3d
       -0.24868825 0.25850186 -0.4702389 0.111740135
000070 19 47 c3 3e 8a 7b f7 be 3e de 5e be 8b 5f d9 bd
       0.3814018 -0.4833644 -0.21764466 -0.106139265
000080 c4 2e 1c 3e 8e dd 95 be 54 01 27 bc 4d a1 84 bd
       0.15252215 -0.29270595 -0.010193188 -0.06476078
000090 51 f7 b1 3c 34 8e 74 be bb f7 b9 3e 08 60 b9 3c
       0.021724375 -0.23882371 0.36321816 0.0226288
0000a0 37 37 98 3e 38 a8 98 bd 11 4c a2 3d b7 30 af 3e
       0.29729626 -0.0745396 0.07924665 0.34216854
0000b0 84 24 e0 be bb 90 3b bd fa 65 9e bd 11 df 17 3e
       -0.4377786 -0.045792323 -0.07734294 0.14831187
0000c0 19 9d d8 3e 99 60 af be f2 8a 0e 3e 59 1e f1 be
       0.42307356 -0.34253386 0.13920191 -0.47093466
0000d0 33 17 fe bd 3d d5 88 3e d1 94 d7 bb 7e 01 60 3d
       -0.12406769 0.26725188 -0.0065790196 0.054688923
0000e0 41 44 ae be 51 82 0d be 0d 81 07 3e 39 33 87 3e
       -0.3403645 -0.13819243 0.13232823 0.26406267
0000f0 f2 92 53 3e 64 83 04 be 90 7c 59 be 7d 05 b6 be
       0.20661524 -0.12940747 -0.21238923 -0.35551062
000100 d2 03 a6 be 63 26 a2 be f6 7c 30 bc 77 59 81 be
       -0.3242479 -0.31669912 -0.0107719805 -0.2526357
000110 b0 8a b7 be 38 64 05 be 34 2f 02 3f c4 09 33 3e
       -0.35847998 -0.13026512 0.50853276 0.17484194
000120 f9 8f ea bd fe a4 c3 be f3 52 ab 3e 60 71 9d bc
       -0.11453242 -0.38211817 0.33461723 -0.0192191
000130 72 6e 82 3e 34 b6 f6 3e 2b 94 6d 3e a0 8a fb 3e
       0.25474888 0.48185885 0.23201053 0.491292
000140 f7 3c 84 3e f5 3b 53 3d 01 3f c2 3e 17 c4 f7 be
       0.25827762 0.05157085 0.37938693 -0.48391792
000150 22 34 af be 5f 57 90 3e 03 85 a9 bb 46 e2 8f bd
       -0.34219462 0.2819166 -0.005173327 -0.0702558
000160 4f 08 9e 3e 40 22 01 3f aa b3 cf 3e 4d 83 fb 3e
       0.30865714 0.50442886 0.4056676 0.49123612
000170 d2 d7 64 be 59 51 1e be b6 08 56 3e 4d c5 09 3e
       -0.22347954 -0.15460719 0.2090176 0.1345417
000180 07 f8 1a 3d 41 ce 07 3d 35 ab 85 3d 8e dd 97 3e
       0.037834194 0.033155683 0.06526796 0.2966122
000190 84 47 cc 3e b1 ea 97 3e d8 96 c4 bc 02 d1 3f be
       0.39898312 0.29671243 -0.02399771 -0.18732074
0001a0 70 bd 97 3e 51 63 e6 be fe bd e2 be 38 63 d1 be
       0.29636717 -0.44997647 -0.44285578 -0.4089601
0001b0 33 38 43 be 51 09 dc be e6 4c 17 be 73 30 82 3c
       -0.19064407 -0.42975858 -0.14775428 0.015892243
0001c0 f4 cd f1 bd 12 e6 fb 3e 9d bc 1f 3e 80 51 15 bd
       -0.118068606 0.49198967 0.15599294 -0.036454678
0001d0 ca 7b 15 3e ba 80 dc be cf ee cf 3e 2d d8 a4 3d
       0.14598003 -0.4306696 0.40611884 0.08049045
0001e0 ae 2e 8b 3d e4 f9 b6 3d b6 cd d2 3e bd a4 f8 bd
       0.06796013 0.089343816 0.4117257 -0.12140796
0001f0 e3 57 db be ff 04 2c 3e 35 30 de be d1 5e c9 be
       -0.4284049 0.16798781 -0.43396154 -0.39330152
000200 30 72 1c be 2f 7f 29 3e 48 7a f7 3c 8f 34 c6 be
       -0.15277934 0.16552423 0.030209675 -0.38711974
000210 10 87 c8 be 9b a0 a7 be cc 25 70 be 6b 7c ed 3e
       -0.39165545 -0.3273972 -0.23451918 0.46383986
000220 14 3e e9 3e 1e 4c 30 3e d8 e5 7a be 0f 52 a3 3e
       0.45555174 0.17216536 -0.24501741 0.31898543
000230 57 8b f9 3e 6e 3a 99 3d d1 34 5c 3e aa 3c b5 be
       0.4873912 0.07481848 0.21504523 -0.35397846
000240 e4 98 44 bd b9 7d e2 be d1 b8 ee be f5 98 a7 3e
       -0.04799737 -0.44236544 -0.4662538 0.32733884
000250 fc 35 e2 3e 3c a0 e0 3d 20 29 a6 bd 59 e2 95 bd
       0.44181812 0.10968062 -0.08113313 -0.07318563
000260 57 6d 6f 3e 46 bb 5d bc 48 90 10 be db 19 e3 3e
       0.23381554 -0.013533419 -0.14117539 0.44355664
000270 85 5a 68 be 7f 18 58 3e 9f 1e d8 be b1 9b b0 3d
       -0.2269078 0.21103095 -0.42210862 0.08623446
000280 96 ac 8c 3e b8 c7 e5 3e 73 c1 99 be c4 aa e1 be
       0.27475423 0.44878936 -0.30030403 -0.44075596
000290 2e 60 9b be 92 41 bf be af 1f 57 be b1 ae e9 be
       -0.30346817 -0.37354714 -0.2100818 -0.4564109
0002a0 f3 90 88 3e dc 3a 9d 3e 6b 02 a9 3e ad c0 fb 3e
       0.26673087 0.3070897 0.33009657 0.49170437
0002b0 46 2c c5 be 78 f2 20 3e bb 74 df 3e 52 84 3e be
       -0.3851034 0.15717494 0.43643746 -0.18605164
0002c0 9e 14 9a 3e 09 df 0e be 4c d1 05 3f a8 04 69 bd
       0.30093855 -0.13952269 0.52272487 -0.056889206
0002d0 1b 59 fb 3d 70 5e eb 3e e1 06 38 3d 6c 47 28 3e
       0.12272855 0.45970488 0.044928435 0.16433495
0002e0 c2 3a 75 be f9 6e e4 3e cf 3d ee bd 0d eb f8 3e
       -0.23948196 0.44615915 -0.11632883 0.4861683
0002f0 1a db 7d be 0b 6c 82 be 26 90 97 bd c0 b3 a7 3e
       -0.24790612 -0.25473055 -0.07400541 0.32754326
000300 d5 85 9f 3e e6 31 1c be 37 b8 db 3e 3a a3 dc 3e
       0.31156793 -0.1525341 0.42913982 0.43093282
000310 f2 cf da bd ee d5 e7 3d 1e 62 df be 92 b1 e4 be
       -0.10684194 0.11320101 -0.43629545 -0.44666725
000320 91 27 36 be 2c 4c 02 bf b0 eb 89 be 61 1e 59 3e
       -0.17788531 -0.5089748 -0.26937628 0.21202995
000330 a5 b5 24 bd 1f 12 80 be b5 87 0c be b6 ba 77 3e
       -0.040212292 -0.25013825 -0.13723643 0.24192318
000340 22 e0 28 be 86 a4 7d 3e 62 88 e8 be 8a d7 f4 3e
       -0.1649175 0.24769792 -0.45416552 0.47820693
000350 8f 12 e7 3e 3c 23 fc be 71 26 2e be 86 68 2e bd
       0.45131347 -0.49245632 -0.17006852 -0.04258015
000360 f0 a6 ce 3e 72 e9 4c be 48 c4 85 be f4 c1 56 3a
       0.40361738 -0.20010927 -0.26126313 0.00081923534
000370 04 18 95 3e 1f 83 55 3e 57 c5 82 3e b0 73 b3 be
       0.29119885 0.208508 0.25541183 -0.350492
000380 7b f0 ab 3e 74 db dc 3e 83 ef df 3e bf ae 24 be
       0.3358191 0.4313618 0.4373742 -0.16082285
000390 74 4a ca bd b0 65 85 3e 3e 43 c6 3d 4e 9e 49 be
       -0.09877482 0.26054144 0.09680794 -0.19689295
0003a0 d2 80 95 be da e3 05 3f 71 6d 73 be f0 b6 b5 3e
       -0.29199845 0.523008 -0.23772217 0.35491133
0003b0 cb fd 8b be cf 62 e6 bd 78 c3 b4 3e 98 97 59 bd
       -0.27342066 -0.11249315 0.3530538 -0.053123087
0003c0 c3 3a 84 be 03 39 f5 be 3c 5d d7 be 93 37 25 3e
       -0.25826082 -0.4789506 -0.4206332 0.16134481
0003d0 45 47 8c 3d a5 12 bd be 9f 5c 85 bd c0 fd ee be
       0.06849531 -0.36928287 -0.06511807 -0.4667797
0003e0 cc 12 d3 be ba 69 a9 be 42 1a ca be ca c3 df 3e
       -0.41225278 -0.33088475 -0.39473158 0.43704063
0003f0 ed 9b 3c be fb 6c 8e bc e1 f3 a7 be 0d 49 08 bf
       -0.18418856 -0.01738595 -0.32803252 -0.53236467

bias f4 [128]
000000 ab a3 61 3d 9a dc 1f be 63 78 ba be 71 b4 0c be
       0.055087727 -0.15611497 -0.36419973 -0.13740708
000010 47 51 8e 3e f4 1d f7 3e dc 14 41 3e 1e 97 f7 be
       0.27796385 0.4826504 0.18855613 -0.4835748
000020 84 9f 65 3e 1b 98 db 3e cc 6b 97 3e 99 19 c2 be
       0.22424132 0.42889485 0.2957443 -0.37910154
000030 63 c5 d0 3e 84 26 b7 3b 37 ad 81 3e 1d cb b5 3e
       0.40775594 0.005589308 0.25327465 0.35506526
000040 80 58 8e be 5b ae 1d be 10 c2 fc 3d cb 6d f1 3d
       -0.27801895 -0.15398543 0.12341702 0.117885195
000050 39 b2 c5 be a3 f6 6c 3e 06 6f 9e be ca 89 9c 3d
       -0.38612536 0.2314096 -0.3094408 0.07643469
000060 ee 81 05 3e 15 bf ad bc 6e f0 b6 3e e7 74 00 3f
       0.13037845 -0.02120928 0.35730308 0.5017838
000070 e7 71 98 bd 66 60 84 3e 9a dc b5 3e ad e3 f3 3e
       -0.074436 0.25854796 0.35519868 0.4763464
000080 57 5e a2 3d 37 cd 1a be 26 e8 ea 3d 95 64 cd bd
       0.0792815 -0.15117346 0.1147006 -0.1002895
000090 bb a5 95 bd 11 6d 21 3d 49 01 d8 3e f3 15 13 be
       -0.07307001 0.039410654 0.4218848 -0.14363842
0000a0 83 b6 81 bc 78 17 ca 3e fc a1 5c 3e 33 49 d0 be
       -0.015834099 0.3947103 0.21546167 -0.40680847
0000b0 51 ac 76 bd 17 98 ca be 32 6d c6 bd d3 11 1c be
       -0.060222927 -0.3956916 -0.09688796 -0.15241174
0000c0 6a 1a 2e be 98 c8 e2 3e 91 cb c1 bd 89 a5 30 be
       -0.17002264 0.44293666 -0.09462655 -0.17250647
0000d0 1f 5d b7 3d a4 d7 3f 3c 64 11 cb 3d a7 28 80 be
       0.08953308 0.011709128 0.099154264 -0.25031015
0000e0 a2 62 94 be 11 a4 5a be b5 d7 ed be 19 7d 71 3c
       -0.289815 -0.21351649 -0.46453634 0.014739298
0000f0 61 56 45 3e 95 c9 fb 3e 8b 76 85 3c e4 c5 e5 3e
       0.19271232 0.49177232 0.016291877 0.4487754
000100 f6 6b 85 bc 22 05 6e 3e 24 d1 ac 3e eb 91 99 be
       -0.016286831 0.23244146 0.33753312 -0.2999414
000110 8d a4 dc 3d 19 1e c9 bd eb 50 8b 3e 53 8f c4 3e
       0.10773573 -0.09820194 0.27210173 0.38390598
000120 97 11 f0 3e 74 7c d9 be 30 61 8f 3d 0d 39 aa be
       0.4688842 -0.42477763 0.07000959 -0.3324665
000130 e3 47 1c 3d 48 3c 99 bd e5 96 2a 3e 61 25 73 be
       0.038154494 -0.07482201 0.16659124 -0.23744728
000140 d7 a4 71 bd c5 79 12 3e c5 5c 5c 3e 1a e4 c9 be
       -0.058995094 0.14304264 0.21519764 -0.3943184
000150 ba 92 98 3e b3 5d eb be 3a 59 0f 3e d2 48 a6 3e
       0.29799443 -0.45969924 0.13998881 0.32477432
000160 14 ef e6 bd 3c 21 5f bd a5 d3 0b be 45 bd 3c 3e
       -0.11276069 -0.054475054 -0.13654955 0.18431576
000170 eb 9b d1 be be 2f 36 bd c2 05 dc be 73 58 69 3e
       -0.40939268 -0.044479124 -0.42973143 0.22787647
000180 d6 18 be bb 31 4f b6 3e f6 f7 07 be 05 fc 29 3e
       -0.0058013005 0.35607293 -0.13278183 0.16600044
000190 36 bb b9 3e f4 e0 3c be 4b 8f f9 3d ad 91 3b 3d
       0.36275643 -0.18445188 0.12185534 0.045793224
0001a0 5e c7 dc be 12 46 1b be ea 68 0a be 24 9f ec be
       -0.43120855 -0.15163448 -0.13516584 -0.46215165
0001b0 ce 7c f2 bd 14 a3 76 3e 1f c6 7d 3e fe e2 f4 3e
       -0.11840211 0.24085647 0.24782608 0.4782943
0001c0 d8 41 eb 3e 4b 1d f3 3e ea 88 82 be 0b ff 73 3e
       0.45948672 0.47483286 -0.25495082 0.2382776
0001d0 94 b6 87 3e 67 32 af be fa 3a e9 be 45 97 ef be
       0.26506484 -0.3421814 -0.45552808 -0.46795097
0001e0 7f 3a 09 bd ae 8d b6 be cf eb 3f 3d d9 1e fb 3d
       -0.03350305 -0.35654968 0.046855744 0.12261743
0001f0 05 50 00 3f 75 00 dc be 77 3f f8 3e 85 ea 04 be
       0.501221 -0.429691 0.4848592 -0.12980087

weight f4 [128, 128]
000000 5a 30 04 3d 44 c7 7a 3d 73 25 c6 bd b3 d0 ae bd
       0.032272674 0.06122519 -0.096751116 -0.085359
000010 68 11 60 bd 9b 64 82 bd 61 f9 93 3d f2 8b 28 bd
       -0.0547041 -0.06366845 0.072252996 -0.041149087
000020 4b 74 8d 3d 88 af 7c bd 21 99 8f bd bf a9 85 3d
       0.06906947 -0.061690837 -0.07011629 0.06526517
000030 b5 7d 95 bd d5 a2 20 3d 78 8c a3 3d cd 6f df 38
       -0.07299367 0.03921779 0.07985777 0.00010654293
000040 01 99 19 bc e3 e6 13 3c 5e 31 92 3c e8 b2 8d 39
       -0.009374858 0.009027216 0.017845806 0.0002702691
000050 80 a1 c3 bd 87 77 60 bd 6c 22 7f 3d c3 5a 54 3d
       -0.09552288 -0.05480149 0.062288687 0.05184437
000060 7c f7 db 3c b4 74 a8 bd 06 33 b6 3d c2 fc 20 3d
       0.026851408 -0.08225384 0.08896451 0.03930355
000070 f3 54 00 bd 39 e1 12 3d 44 35 b2 bc f6 5e 00 bc
       -0.031331014 0.03585932 -0.021753915 -0.00783514
000080 59 e2 31 bd 07 5e e1 bc fd a8 6f 3d 23 60 81 bd
       -0.043428753 -0.027510656 0.05851077 -0.06317165
000090 c4 09 42 bd 27 79 8c bd 93 9c bf bc c5 df 91 bd
       -0.047372594 -0.068590455 -0.02339009 -0.07122759
0000a0 e4 5d 94 3c 2a 0e 58 bd 6e db 4d 3d 38 de 47 3d
       0.018111177 -0.052747883 0.050258093 0.04879591
0000b0 05 db a6 3d 68 7e 13 bd e4 e9 c1 bc 31 7e f5 bc
       0.081472434 -0.036009222 -0.023671098 -0.0299674
0000c0 72 48 ba 3c 4d cc 8d 3d f9 43 2d 3d ed fc dd bc
       0.022739623 0.06923733 0.042301152 -0.027098143
0000d0 e9 43 15 3d 35 e9 5b 3a 05 df c4 bc ed de 20 bd
       0.036441717 0.00083889376 -0.024032125 -0.0392751
0000e0 b4 3e 90 3d 18 d1 53 3d 2f ee ff bc 5f 3f 1d 3d
       0.0704321 0.05171308 -0.031241504 0.038390514
0000f0 46 a2 94 3d 4b a1 e4 3c 6b d2 56 3d 39 af b9 3d
       0.07257514 0.027908942 0.052446764 0.09066624
000100 db f3 28 3c 11 a3 95 bd 0f 29 49 3d 75 07 4a bd
       0.010312046 -0.07306493 0.049111422 -0.049323518
000110 81 d6 99 37 de ee 87 3d 01 6b 75 bd c9 52 b4 3c
       1.8338907e-05 0.06637357 -0.0599165 0.022012131
000120 6d 5a 53 3d e1 55 9c bd b6 be 24 3d d7 39 3e bd
       0.05159991 -0.076335676 0.04022094 -0.04644188
000130 aa ff c5 bc bb 35 ad 3d e3 63 15 bd ba 1a e1 3c
       -0.024169762 0.08457514 -0.036472213 0.027478565
000140 4e f5 84 3d cb 43 d1 3c 9a 37 de bb 5b e4 24 3c
       0.06492101 0.025545022 -0.0067815306 0.01006421
000150 7d 60 26 3d 7a fb 20 bd 0a 34 97 bc 80 fb a3 3c
       0.040619362 -0.039302327 -0.018457431 0.020017385
000160 ab f6 cf bc 7f c9 66 bd 80 2e ac bd 11 76 5d 3d
       -0.025386175 -0.056344505 -0.08407307 0.054067675
000170 b1 bd 21 bd 16 1a 71 3d 29 fb 48 bd d9 32 0d 3d
       -0.039487544 0.058862768 -0.04906765 0.03447232
000180 40 93 a8 3b 04 e9 c7 bb 9d d3 36 bd 90 74 18 bd
       0.0051445067 -0.0061007757 -0.044635404 -0.037220538
000190 1c 10 9f 3d 87 2b 53 3d 80 4d a2 3d f2 09 5c bd
       0.077667445 0.051555183 0.07924938 -0.053720422
0001a0 dc da 8f bd e6 e5 10 bd bc c0 a4 3b 00 77 7d bb
       -0.07024166 -0.0353755 0.0050278585 -0.0038675666
0001b0 76 c5 a6 bd ae 01 f7 3c ed bc 4d bc cc 79 da bb
       -0.081431314 0.030152168 -0.01255725 -0.0066673514
0001c0 94 a3 b7 bd 6e 53 1c bd e6 fd 6f 3d e0 cf df 3c
       -0.08966747 -0.038165502 0.058591746 0.027320802
0001d0 95 85 5d bd 51 dc a7 bd cf e2 64 3c 85 96 24 3d
       -0.054082472 -0.08196319 0.013970091 0.04018261
0001e0 d4 78 d1 3c c5 58 ad bd ad 07 72 3d 58 1b bb 3d
       0.02557031 -0.08464197 0.05908935 0.09136075
0001f0 4d ac c0 3d 0f 4a 3e 3d 1e ed 87 3c 7d 4f c2 3b
       0.09407864 0.046457347 0.016592558 0.005929886
000200 9a 89 4f bc 3e 94 75 3c 61 c4 8f 3d 3b ea 00 3d
       -0.012667084 0.014988957 0.07019878 0.03147338
000210 ed 92 9d 3d a3 66 82 bd 60 54 19 3d 66 a1 c0 3c
       0.076940395 -0.06367233 0.037433982 0.02351446
000220 f2 e4 51 3d 66 af bd bc ca 32 a1 3d 8f db c6 bc
       0.05124373 -0.023154926 0.07871015 -0.024274616
000230 fd 40 4c 3c d4 cb 93 3d 6d 31 4a 3d 08 c6 98 3d
       0.012466666 0.072166115 0.049363542 0.074596465
000240 c9 b6 a6 bd 21 8a 9c 3d 86 78 ec bc d5 17 13 3d
       -0.08140332 0.076435335 -0.028866064 0.0359114
000250 cb 0f 67 3d 11 0b 00 bd 49 c2 bb 3d b5 0c 57 3d
       0.056411546 -0.031260554 0.09167916 0.052502353
000260 a0 63 37 bd f2 1d 95 3d c2 d9 9d 3d 70 4e a5 bd
       -0.044772744 0.07281102 0.0770755 -0.080716014
000270 d7 77 0d bb e4 91 c8 3c 49 7b 8d 3d 72 57 36 3d
       -0.0021586323 0.024483629 0.069082804 0.044516988
000280 6d 74 09 3d 46 28 0d 3d 62 2c 48 bd 0a 32 92 3c
       0.033558298 0.034462236 -0.04887045 0.017846126
000290 e2 e4 99 3d cc 0a ad 3d eb a3 bb bc 4c 7a 7f 39
       0.07514359 0.08449325 -0.02290531 0.00024364254
0002a0 9b 0b de 3b ec b4 0e bd 4a 70 63 3d 59 60 e8 3c
       0.006776286 -0.03484051 0.05552701 0.028366255
0002b0 f3 33 0b 3d 6c 65 3e bd b6 82 95 bd a1 39 06 bd
       0.03398509 -0.046483442 -0.07300322 -0.032769803
0002c0 b8 12 0a 3d 25 ed e2 bb 88 84 78 bd ba 2b 63 3d
       0.033709258 -0.0069252425 -0.060673267 0.055461623
0002d0 81 e2 57 bd 73 db 88 3d 24 64 4d 3d d0 1f b4 bc
       -0.052706245 0.066824816 0.05014433 -0.021987826
0002e0 35 10 c1 3c 71 1f cd bd 5b 06 fa 3c e1 61 f1 3b
       0.023567298 -0.100157626 0.030520609 0.0073664044
0002f0 41 25 79 bd ab 8e 18 bd c8 6f 83 bd 93 77 a3 bc
       -0.060826544 -0.037245434 -0.06417805 -0.019954478
000300 ce bd 52 bc ed 41 bd bd 57 74 a0 3d 43 08 9a 3c
       -0.012862636 -0.0924109 0.0783469 0.018802768
000310 2e 35 05 bc bb 5a 8a 3d 0c 1c 98 3d 70 20 ab 3d
       -0.008130355 0.06755587 0.074272245 0.08355796
000320 12 46 05 bc 99 c7 a9 3d c1 b8 97 3d c3 e7 7d 3d
       -0.008134382 0.08290023 0.07408286 0.061988603
000330 6c 8c 3c bb 28 73 df ba bc 10 80 3c 53 38 4a 3d
       -0.0028770221 -0.0017047869 0.01563298 0.04937012
000340 58 71 21 bd fc be 85 bd bf 9a 86 bd 42 7f 35 3d
       -0.039414734 -0.06530568 -0.06572484 0.044310816
000350 9e fb 99 3d 67 6a 69 bd 1f 61 9e 3d c3 18 ab 3d
       0.07518695 -0.05698624 0.07733368 0.08354332
000360 99 81 14 3d 89 d8 33 bd a1 2c 9f 3d 1f 2a 4d 3c
       0.036256406 -0.043907676 0.07772184 0.0125222495
000370 88 fc 98 bd b3 c7 8d 3d 5e d4 1a 3a 4e c3 5b bd
       -0.074700415 0.06922855 0.0005906279 -0.053653054
000380 18 84 fa 3c 59 e8 52 3d 99 02 ad bc 74 f4 60 3d
       0.030580565 0.051491115 -0.021119403 0.05492063
000390 ef a6 bd 3d 8a 4f 75 bb 77 80 44 bd b1 06 5f bd
       0.09260356 -0.0037431442 -0.047974076 -0.05444974
0003a0 b4 69 06 3d c5 fb 93 bc f7 4f 05 bd bc 14 31 bc
       0.03281565 -0.018064389 -0.032546964 -0.010808166
0003b0 8a 06 3b bd 75 30 8e bd 8d d8 9b 3d db 9b 91 3d
       -0.045660533 -0.06942836 0.07609663 0.07109805
0003c0 5a 5d 99 bd 9b 63 a7 3d 41 91 02 bd 4d 07 b7 3d
       -0.074885085 0.08173295 -0.031876806 0.089369394
0003d0 96 9f 57 3b 7f 5d b4 3d ad ab dc 3c a9 ba 81 bd
       0.0032901517 0.088068955 0.02693733 -0.06334431
0003e0 3d 05 7d 3d 92 00 1f bd 36 95 9e 3d c0 f1 23 bd
       0.061772574 -0.038818903 0.077433035 -0.040025473
0003f0 3f 4a 8f 3c 7a b4 d0 bc ff 12 b6 3d 62 3b 11 bb
       0.017491458 -0.025476683 0.08890342 -0.002216064

bias f4 [128]
000000 4b fe a6 3c f8 42 0d 3b 9c ce 88 b9 f7 22 19 bc
       0.020384928 0.002155481 -0.00026093877 -0.009346715
000010 0b ed e7 3c 32 e5 c5 bc 1a 04 83 bc 79 48 06 3d
       0.028311273 -0.02415714 -0.015993167 0.03278396
000020 5d e1 34 bd c3 0e 0a bd 68 81 46 bd 1b fb 57 ba
       -0.044160236 -0.033705484 -0.048463255 -0.0008239017
000030 80 47 d0 ba f9 08 42 bd 0e 85 1b bc c9 dc 9a bc
       -0.0015890449 -0.04737184 -0.009492172 -0.018904107
000040 d3 2d 36 3d 8b b2 95 3d 19 4e b6 3c 2e 20 42 bd
       0.044477295 0.07309445 0.022254037 -0.04739397
000050 33 11 3f 3d 07 b0 9b bd 45 f6 48 3c f9 52 b4 3d
       0.04664726 -0.07601934 0.0122657465 0.08804888
000060 61 9d a8 bd 8d 59 be bb f6 df 3d 3d 71 1b 10 bb
       -0.08233143 -0.005809015 0.046356164 -0.0021989013
000070 36 b8 71 bd e1 27 21 3c 86 24 95 3d a7 9f 0a 3c
       -0.059013568 0.009836168 0.07282357 0.008460916
000080 ab e2 e0 3c 00 55 bc 3c 02 d7 ac 3d b9 3d d3 3d
       0.027451834 0.02298975 0.08439447 0.10314507
000090 c8 8a eb 3c 18 cb 9d 3d ea 42 ab bc 60 7d ac 3c
       0.0287527 0.07704753 -0.02090593 0.021055877
0000a0 cd 04 68 3d 90 a7 05 3b c9 e0 56 bd 9f 45 8c 3d
       0.056645203 0.0020394064 -0.052460466 0.06849217
0000b0 d9 c4 9a 3c 0d 9d 28 3d a1 1f dd 3d e3 c2 8d 3d
       0.018892692 0.0411654 0.10797048 0.06921937
0000c0 5d 35 a0 3c 31 bf 84 3d 80 e6 b5 3b 23 2c 56 bd
       0.019556696 0.06481779 0.0055511594 -0.052288186
0000d0 66 7a 7a 3d 48 a6 3b bc 7c 3a b2 3c d7 5b 41 3d
       0.061151884 -0.011453219 0.021756403 0.047206726
0000e0 3b bf 80 bc aa d6 4a bd 6e 09 81 3d e5 b3 37 3d
       -0.015716186 -0.049521126 0.06300627 0.044849295
0000f0 42 b2 40 3d ae 1c a1 3c 8e 75 b9 3d df 06 03 3c
       0.047045 0.019666996 0.09055625 0.007997244
000100 ab ae a2 bd 95 c4 d1 3c 67 ea 8b bd 75 e2 40 3c
       -0.079434715 0.025606433 -0.06831818 0.011772742
000110 31 b2 e2 3d 56 c1 2f bd c9 11 73 3d 3a 47 e6 bc
       0.110691436 -0.04290899 0.059343133 -0.028110135
000120 ca 41 51 3d ce a5 ad 3c 38 df 44 bc 00 ee 07 bd
       0.051088132 0.021197226 -0.01201611 -0.03318596
000130 05 89 0b 3c 34 23 4b bd 30 ec 00 3c 41 71 91 bd
       0.008516555 -0.04959412 0.0078688115 -0.071016796
000140 da 92 be 3d 53 4e 5b 3d 02 94 8e 3d 68 b3 a1 3d
       0.093053535 0.053541493 0.06961824 0.07895547
000150 03 1d 5c bd fa 73 5f bd 6a 27 93 3d fd 9b 06 bd
       -0.053738605 -0.054553963 0.07185252 -0.032863606
000160 29 fb de 3d a9 af 5c ba ce a9 31 bd 98 84 a4 bc
       0.10887749 -0.00084185094 -0.04337483 -0.020082757
000170 03 8f 2f 3d 96 93 ab 3d 1c ff 92 3b 95 d4 31 bd
       0.042860996 0.08377759 0.004485978 -0.043415625
000180 a8 7e e7 bc 5c e5 81 3d 8f 75 cb 3d 88 58 93 bd
       -0.028258637 0.06342575 0.09934532 -0.0719462
000190 3b 81 a6 3d 24 32 15 3c 9f d7 12 bd 46 cb 08 3d
       0.081301175 0.009106193 -0.035850164 0.03339698
0001a0 5c d8 8c 3d 24 ea b3 3c 5c b6 b8 3d fc cf e7 3c
       0.06877205 0.021962233 0.09019157 0.028297417
0001b0 1b 96 a7 3c 9b 3b 07 3d 35 19 7c 3d df e4 a5 3d
       0.020457318 0.03301583 0.061547477 0.08100294
0001c0 4c 4d 1b bd 74 c7 d6 3c d9 f7 a3 bd f0 34 72 3d
       -0.037915513 0.026218154 -0.080062576 0.059132516
0001d0 ff fe 16 bd 69 d3 99 3d e9 88 27 bd 02 f4 6e bd
       -0.036864277 0.075110264 -0.040902052 -0.058338173
0001e0 f6 03 98 3d dc 26 22 bd ef 93 92 bc 33 71 ac 3d
       0.074226305 -0.03958784 -0.017892806 0.084200285
0001f0 8e 26 73 3d 49 5e 98 3d a4 f6 74 3d bd 08 c4 3d
       0.05936294 0.074398585 0.059805527 0.09571979

weight f4 [1, 128]
000000 82 44 c4 bd 74 d0 b4 3d f1 6c 7b 3d 94 00 02 bd
       -0.09583379 0.08828822 0.06138319 -0.031738833
000010 39 a8 a8 3d b5 43 a7 bc ea e9 2f bc db 39 50 bd
       0.08235211 -0.020418027 -0.010736922 -0.050836425
000020 68 ae 44 3d db b8 7b bd 7c b9 c0 3d f1 8c 2a 3d
       0.04801789 -0.06145559 0.09410378 0.04163832
000030 8a 91 18 3d b7 bc 22 3d 6e 6d 15 3d 05 bf 01 bd
       0.037248172 0.039730754 0.036481313 -0.03167631
000040 87 08 68 bd 3c 70 ae bc 9a 6c fe 3c 36 07 fb bc
       -0.056648757 -0.021293752 0.031057645 -0.030643087
000050 c6 e8 23 3d 1c 89 4e bd 0b 0a 8d bd eb e2 c0 bd
       0.040016912 -0.050423726 -0.06886681 -0.09418281
000060 56 f1 2f 3c c5 1c 9d bd 49 90 a7 3d 30 ad 69 bd
       0.010738691 -0.07671503 0.08181817 -0.05704993
000070 b8 33 da bc a3 cc b5 bc 93 90 b5 bd 61 fb 41 3d
       -0.02663599 -0.022192305 -0.08865466 0.047358874
000080 6d a4 69 3d 95 f9 ce bd e2 a1 52 3d b4 bb 4a 3d
       0.057041574 -0.10106198 0.051423915 0.049495414
000090 ee eb 9b bd 5e 7b bb 3d 82 d7 f3 3c df 65 6e bd
       -0.076133594 0.0915439 0.029765848 -0.05820262
0000a0 4e 68 02 bd 86 51 ac bd 3c 46 9b 3c 00 00 36 bd
       -0.031837754 -0.08413987 0.018954389 -0.044433594
0000b0 b6 5a 17 3d ee 8a 5b 3d eb 70 ca bc e3 ab 18 bd
       0.036951743 0.05359929 -0.024712047 -0.0372733
0000c0 f4 52 a3 bd 3e 66 7d bc 10 2a 96 bb 09 20 c8 bd
       -0.079748064 -0.015466271 -0.004582651 -0.09771735
0000d0 73 ee c0 3d 96 72 7f 3d 27 d2 e2 bc 1b cd e5 3d
       0.094204806 0.062365137 -0.0276881 0.112207614
0000e0 d9 ee 42 bd 4a c1 b2 3d 5f 67 47 3d 1e 81 43 3d
       -0.047591064 0.08728273 0.048682567 0.047730558
0000f0 5c f9 40 3d 18 4a 6e bd 2a c8 67 3d 48 8a 6e bd
       0.047112808 -0.05817613 0.056587376 -0.058237344
000100 6a 68 37 bd 6f e9 d8 bc 69 27 d0 bc b5 cf a1 bd
       -0.04477731 -0.026478497 -0.025409417 -0.07900945
000110 88 ba 42 3d c0 f2 fa 3a 3a 5c 68 3d e1 d0 60 bd
       0.04754117 0.0019145831 0.05672858 -0.054886702
000120 ac 7f a2 3d 72 61 0c bd 4f 36 b4 3d 48 86 8d bd
       0.07934508 -0.03427262 0.08799421 -0.06910378
000130 89 5b a1 bd 97 7f 26 bd ee 27 56 bd 71 87 ba bd
       -0.07878787 -0.040649023 -0.052284174 -0.09107865
000140 2f 47 1d bd 14 e1 0e bd 3c 46 c6 bc 7f 18 d4 3d
       -0.038397964 -0.03488262 -0.024203412 0.10356235
000150 04 ef 01 3d 9f e6 87 bd ff 92 fc 3c 07 0f ce bc
       0.031722084 -0.06635784 0.030831812 -0.02515365
000160 3e 86 e0 3c 01 a0 93 bd 77 e6 51 3b ef 63 90 3d
       0.027407762 -0.07208253 0.0032028237 0.07050311
000170 4c 50 cc bb bf 7a a8 3d 08 b5 d9 3c 30 15 ac 3c
       -0.006235158 0.08226537 0.02657558 0.021006197
000180 da 26 a2 bc 0d a9 6d 3d 76 2f 0e 3d 7d 4f 36 bd
       -0.019793916 0.058022548 0.03471323 -0.0445094
000190 90 ad 2f bd 49 66 6b 3d 42 0f d6 3d 26 21 ad bd
       -0.04289013 0.057470594 0.10452129 -0.08453588
0001a0 f7 88 7c 3d 4b 15 35 3d b6 d6 59 3d 5e 58 4c 3d
       0.061654057 0.04420976 0.05318328 0.04988896
0001b0 28 84 93 3d 73 b8 37 bd 4b e0 0d bd 3c 17 92 bd
       0.07202941 -0.04485364 -0.03463773 -0.07133338
0001c0 53 ee b9 bc 40 dd ad 3c e7 2d 7e bd 5d ff 3a bd
       -0.02269665 0.021223664 -0.062055495 -0.04565369
0001d0 4c e3 3a bd cb b9 10 bd 86 c6 27 3d dd d1 a4 bd
       -0.045626923 -0.035333436 0.04096081 -0.08047841
0001e0 15 02 c2 bd e8 a8 31 bd 98 f6 39 bd 5f 49 d9 bd
       -0.09473053 -0.043373972 -0.045401186 -0.106096976
0001f0 b6 87 00 3d 93 66 8a bd a4 00 81 3d d7 3d 0b 3d
       0.031379424 -0.06757846 0.0629895 0.033994522
